基准测试/model_res.pt (torch, 104715 bytes, 30 tensors)

linears.0.weight f4 [50, 3]
-0.01710316 0.0057658628 -0.09522048 -0.041683063 -0.028951516 -0.029203732 0.036161963 0.827413
0.19312033 0.07142412 0.04664027 0.356354 0.08532357 -0.00878233 0.11639434 -0.036869887
-0.010967251 -0.055266276 -0.0081074545 7.332061e-05 0.0637396 -0.04063818 0.0038522144 -0.27124092
0.0103084035 0.000982371 -0.023845766 0.004531214 0.00016881434 -0.06404814 0.15389873 -0.038150545
-0.12713447 -0.02045699 -0.026911976 -0.2973696 0.15348978 0.09142989 0.4591284 -0.003904616
-3.5998415e-05 -0.0037390091 0.003967665 5.9950387e-05 0.0082439035 -0.015299044 -0.0005181287 -0.0111160595
-0.10994323 0.009402174 -0.11747596 -0.0215039 -0.12555403 -0.24916641 0.4856128 0.5067201
0.4940048 0.020836163 -0.0004926217 0.0019127553 0.001425677 0.00048348965 -0.24534135 -0.19696873
0.047720622 0.15928113 -0.20741314 0.050795283 0.17080009 -0.004345135 -0.0003018018 0.026498042
-0.020428251 0.0013691246 -0.15516421 -0.29841524 -0.07118623 -0.041782133 -0.05261392 0.24588415
-0.3186654 0.08220138 -0.0026499226 0.1069037 -0.072752655 0.34664494 0.54573536 -0.004285433
-9.562388e-05 0.035548367 -0.020925641 -0.014076531 -0.11841376 -0.17513572 0.043020826 0.13824208
0.34323874 0.496722 0.22728366 0.091879696 0.018717196 0.519001 0.0061083757 -0.00032060023
-0.049040362 0.0040494753 1.3708719e-05 -0.006294282 -0.0042604506 -5.094541e-05 0.03050295 0.06522628
0.46402508 0.30700743 -0.009034808 0.00014598345 0.06938562 0.002813647 -0.00030480727 -0.025130784
-0.009240187 -0.0006815302 0.034289416 0.0036784643 0.0025727504 0.29258835 0.079450734 0.76212686
0.09175954 0.03812588 -0.0014960564 0.36224356 -0.24195577 0.05689865 0.18900274 -0.036336448
-0.14766595 -0.23999809 -0.021068681 0.0011932574 -0.006549124 -0.25149176 0.05952147 0.19549051
0.08758244 -0.27074066 0.90871304 0.0046215397 0.00010434559 0.013171769
00000000: ed1b 8cbc 90ef bc3b f402 c3bd dcbb 2abd
00000010: bb2b edbc aa3c efbc 911e 143d 57d1 533f
00000020: 56c1 453e cf46 923d de09 3f3d 0874 b63e
00000030: 20be ae3d c3e3 0fbc 2860 ee3d e104 17bd
00000040: fcaf 33bc e45e 62bd 21d5 04bc b4c3 9938
00000050: e889 823d 3874 26bd 6f75 7c3b 17e0 8abe
00000060: 94e4 283c e7c2 803a 3258 c3bc 947a 943b
00000070: c103 3139 ac2b 83bd a197 1d3e bf43 1cbd
00000080: 8a2f 02be 6b95 a7bc 8176 dcbc d440 98be
00000090: 6d2c 1d3e 983f bb3d e112 eb3e 96e4 7fbb
000000a0: 01fd 16b8 2a0a 75bb 3003 823b 3d73 7b38
000000b0: 7011 073c d7a8 7abc 07d3 07ba 2220 36bc
000000c0: eb29 e1bd 930b 1a3c 3c97 f0bd f228 b0bc
000000d0: 3c91 00be 7b25 7fbe 3ea2 f83e 69b8 013f
000000e0: 32ee fc3e 9ab0 aa3c 4823 01ba 6bb5 fa3a
000000f0: c8dd ba3a e27c fd39 c33a 7bbe 2cb2 49be
00000100: b376 433d 981a 233e 1c64 54be b70e 503d
00000110: 38e6 2e3e a261 8ebb 273b 9eb9 6c12 d93c
00000120: 2659 a7bc 3374 b33a 5ee3 1ebe e2c9 98be
00000130: 16ca 91bd be23 2bbd b281 57bd 0ec9 7b3e
00000140: 1c28 a3be 3259 a83d 53aa 2dbb 54f0 da3d
00000150: 58ff 94bd 727b b13e 50b5 0b3f d16c 8cbb
00000160: ae89 c8b8 2a9b 113d 406c abbc 40a1 66bc
00000170: ea82 f2bd c756 33be 9b36 303d 558f 0d3e
00000180: fdbc af3e 5952 fe3e 0cbd 683e 6c2b bc3d
00000190: ce54 993c 40dd 043f c528 c83b 3c16 a8b9
000001a0: 8cde 48bd 76b1 843b 80fe 6537 4440 cebb
000001b0: 409b 8bbb 38ae 55b8 53e1 f93c 5b95 853d
000001c0: b294 ed3e 1430 9d3e bb06 14bc 2213 1939
000001d0: 0c1a 8e3d 2a65 383b 8ace 9fb9 13df cdbc
000001e0: 2764 17bc b8a8 32ba 0f73 0c3d 6412 713b
000001f0: 979b 283b 24ce 953e 11b7 a23d bf1a 433f
00000200: 6dec bb3d e229 1c3d 5317 c4ba fd77 b93e
00000210: 41c3 77be 8f0e 693d ef89 413e 87d5 14bd
00000220: be35 17be 0fc2 75be 3a98 acbc 1367 9c3a
00000230: 099a d6bb 87c3 80be c9cc 733d aa2e 483e
00000240: 6c5e b33d 859e 8abe 6ba1 683f 4970 973b
00000250: 1dd4 da38 67ce 573c

linears.0.bias f4 [50]
0.4802005 -1.1358222 1.0662479 0.40876892 -0.5714802 0.20807008 -2.7656643 0.09672869
1.77956 -0.7518019 0.17551595 0.53281087 1.0093969 0.4192319 -0.77136785 0.27803725
0.12975703 -0.25309584 0.49367404 -0.123974904 0.33663654 0.23840696 -0.2348272 -0.7816856
3.4518692 -1.0150467 0.29384378 0.32336232 0.19438 0.68753254 0.041650243 0.23561503
1.3021735 0.4878592 3.7330196 -0.71445376 0.6277596 0.9921812 -1.2394516 0.17753446
-1.22021 -0.048888553 0.93373394 0.8809095 0.34289888 0.20261052 -0.2868675 0.22733797
-0.16715859 0.3480401
00000000: d7dc f53e 9f62 91bf d07a 883f 294a d13e
00000010: 874c 12bf 5310 553e a500 31c0 b119 c63d
00000020: 9fc8 e33f 1776 40bf 74ba 333e 4b66 083f
00000030: eb33 813f 90a5 d63e 5d78 45bf e65a 8e3e
00000040: 07df 043e c795 81be d8c2 fc3e 8ee6 fdbd
00000050: a05b ac3e f420 743e 8b76 70be 8c1c 48bf
00000060: 6deb 5c40 0ded 81bf b172 963e bf8f a53e
00000070: 8d0b 473e 2202 303f 7299 2a3d 1145 713e
00000080: 9fad a63f aec8 f93e cbe9 6e40 71e6 36bf
00000090: dab4 203f 96ff 7d3f 5aa6 9ebf 98cb 353e
000000a0: d72f 9cbf 5d3f 48bd 3009 6f3f 4983 613f
000000b0: 7190 af3e 2279 4f3e 4ce0 92be 49cb 683e
000000c0: 9f2b 2bbe 5032 b23e

linears.1.weight f4 [50, 50]
-0.15217322 -0.059983652 0.23882025 -0.18437359 0.24967612 -0.15480466 -0.09194675 -0.07529822
0.0084639555 -0.10117009 0.05190831 0.0541119 0.1436232 0.009502571 -0.2862668 0.07216485
0.14411014 -0.017229268 0.11258464 0.24110009 0.08530659 -0.15843548 -0.10632907 0.18348163
-0.24003398 -0.023674928 0.028786324 -0.0843254 0.22849508 0.4254687 0.17466788 0.12742446
0.058022633 0.16193801 -0.027049879 -0.48553285 0.033705097 0.061266076 0.09146409 -0.0047650593
0.2223476 -0.19810644 0.06567759 0.04630793 0.14467278 -0.012720456 -0.20859917 -0.11348273
0.15746257 0.0644361 -0.11421649 -0.20405519 0.0650172 -0.18827923 -0.10107984 -0.033005856
0.16922608 0.07602859 0.14666209 0.22973792 0.13187785 -0.23833829 -0.18329689 -0.15100494
0.07841525 0.1448177 -0.052160766 -0.25292602 0.23145682 -0.040702134 -0.07706842 -0.27514884
-0.07790502 0.17879176 0.17878693 -0.15403363 -0.117518075 -0.039029364 0.1992738 0.2825016
-0.03240344 0.062265776 -0.035790298 0.1017742 0.07076205 0.005462757 -0.0073198574 0.2744344
-0.17393924 -0.064975865 -0.23041156 -0.0016375948 -0.07886975 0.041726757 -0.15593751 0.002248213
-0.038132567 -0.21375355 0.08648666 0.17630936 -0.061818287 0.16441287 -0.0845306 -0.033402264
-0.08416613 -0.21643217 -0.057387184 -0.023069257 -0.1306705 0.1039566 0.025327666 -0.15431309
-0.05207017 -0.21086745 0.14220496 -0.14621246 0.23329514 -0.06804966 0.120447926 0.17687725
0.3534302 0.02786194 -0.03094725 -0.083436765 0.21822385 0.15175115 0.12716658 -0.03668064
0.19438253 0.07224279 0.11911273 -0.054834846 -0.16593027 -0.026830321 -0.1757297 0.34633166
-0.009342411 -0.14381017 -0.1525525 0.18157326 0.058643248 -0.0028677096 0.10800068 -0.028258696
-0.08476293 0.0026731845 -0.0107101165 -0.074950054 0.011144061 -0.16893233 0.0034254186 0.19877915
0.088557504 0.19317739 -0.21296826 -0.17251736 0.25812992 0.049292043 0.1796735 0.2428118
0.074821435 0.13688539 0.20705135 -0.113414146 0.2795763 0.1757944 0.043723922 -0.14276993
0.028405387 -0.00043677786 0.11763373 0.24082714 -0.00760894 -0.07700871 -0.17116165 0.22751327
-0.051933583 -0.23498721 -0.14497548 -0.3390762 0.028401444 0.22225377 0.17293185 -0.18019648
-0.14089063 0.3627128 -0.26418677 -0.13889655 0.19677144 -0.067730516 -0.115073785 -0.005399875
-0.19347525 0.05309809 -0.079099186 0.123440094 0.19200334 0.21995094 0.1665102 0.011753677
0.03752371 0.2219275 -0.003976885 0.26469204 0.17302144 0.010006207 0.06091283 -0.09369025
-0.084844716 -0.023110079 -0.2599799 0.18883066 0.044176538 0.2571789 -0.18185686 -0.25304204
0.04848996 -0.22820893 0.044780713 0.2572928 -0.10614089 -0.20726806 0.13175744 -0.03634449
0.013994878 -0.20315188 -0.22809981 -0.03306475 -0.19685592 0.4034187 -0.22441655 0.019365832
0.19936925 0.071684346 -0.18806747 -0.3977617 -0.029781425 -0.22150251 -0.20235194 -0.072300725
0.15161797 -0.13388751 0.12687291 -0.20614737 -0.08599667 0.109448396 -0.24320613 -0.012996299
-0.07118358 -0.112711884 -0.26471782 -0.041936763 0.075260766 0.05355609 0.14715749 0.13211983
00000000: 4cd3 1bbe 6bb1 75bd 4c8d 743e 6ecc 3cbe
00000010: 19ab 7f3e 1d85 1ebe 944e bcbd f435 9abd
00000020: 67ac 0a3c 4432 cfbd cf9d 543d 71a4 5d3d
00000030: f611 133e acb0 1b3c 9091 92be 2acb 933d
00000040: 9c91 133e 6524 8dbc c792 e63d f1e2 763e
00000050: 39b5 ae3d e93c 22be 0ec3 d9bd 9ce2 3b3e
00000060: 78cb 75be ecf1 c1bc 4cd1 eb3c ccb2 acbd
00000070: 9dfa 693e 09d7 d93e 23dc 323e 8f7b 023e
00000080: 24a9 6d3d 14d3 253e b597 ddbc c397 f8be
00000090: 5b0e 0a3d 23f2 7a3d 8651 bb3d 3724 9cbb
000000a0: 17af 633e 6adc 4abe f981 863d 62ad 3d3d
000000b0: 1a25 143e 7669 50bc 059b 55be a269 e8bd
000000c0: de3d 213e 13f7 833d 56ea e9bd d8f3 50be
000000d0: bd27 853d 45cc 40be f202 cfbd 2631 07bd
000000e0: 9a49 2d3e e1b4 9b3d 962e 163e 6b40 6b3e
000000f0: fd0a 073e f40e 74be 2eb2 3bbe 0aa1 1abe
00000100: 2d98 a03d 174b 143e 87a6 55bd 857f 81be
00000110: 0403 6d3e 48b7 26bd 0cd6 9dbd 4fe0 8cbe
00000120: ab8c 9fbd 3015 373e ec13 373e feba 1dbe
00000130: 51ad f0bd 41dd 1fbd 6e0e 4c3e 0da4 903e
00000140: 78b9 04bd 660a 7f3d d998 12bd fe6e d03d
00000150: b2eb 903d ed00 b33b 6adb efbb aa82 8c3e
00000160: 211d 32be 1112 85bd 02f1 6bbe 90a4 d6ba
00000170: 7786 a1bd ade9 2a3d 15ae 1fbe c156 133b
00000180: e530 1cbd 36e2 5abe eb1f b13d 718a 343e
00000190: 2c35 7dbd d95b 283e 611e adbd d0d0 08bd
000001a0: 4b5f acbd 65a0 5dbe d30e 6bbd bdfb bcbc
000001b0: 7dce 05be 33e7 d43d f77b cf3c 4004 1ebe
000001c0: 8847 55bd a3ed 57be 2d9e 113e b8b8 15be
000001d0: ece4 6e3e 9f5d 8bbd 67ad f63d 4f1f 353e
000001e0: cef4 b43e b93e e43c 1685 fdbc e5e0 aabd
000001f0: 1376 5f3e a764 1b3e f537 023e 703e 16bd
00000200: 370c 473e 07f4 933d 60f1 f33d 819a 60bd
00000210: a0e9 29be 43cb dbbc 7df2 33be 6252 b13e
00000220: e910 19bc f942 13be b936 1cbe 57ee 393e
00000230: e733 703d 2ff0 3bbb 762f dd3d c87e e7bc
00000240: 3098 adbd 9830 2f3b 7c79 2fbc 6a7f 99bd
00000250: 9495 363c 99fc 2cbe fd7c 603b c38c 4b3e
00000260: a35d b53d 4bd0 453e 5a14 5abe 64a8 30be
00000270: 9b29 843e 74e6 493d 54fc 373e a8a3 783e
00000280: fb3b 993d af2b 0c3e 4505 543e ad45 e8bd
00000290: a024 8f3e 7203 343e db17 333d 4832 12be
000002a0: 6ab2 e83c 55ff e4b9 f4e9 f03d 649b 763e
000002b0: 6a54 f9bb beb6 9dbd 0045 2fbe 3df9 683e
000002c0: 4fb8 54bd 7da0 70be 7474 14be 659b adbe
000002d0: 25aa e83c 7e96 633e 0c15 313e 6d85 38be
000002e0: a245 10be 7eb5 b93e 7d43 87be e63a 0ebe
000002f0: 747e 493e 4cb6 8abd ceab ebbd 6ff1 b0bb
00000300: 601e 46be 627d 593d c1fe a1bd 29ce fc3d
00000310: 869c 443e d23a 613e a681 2a3e 7f92 403c
00000320: 76b2 193d f640 633e 8850 82bb b785 873e
00000330: 882c 313e 13f1 233c bb7f 793d ace0 bfbd
00000340: 11c3 adbd 5951 bdbc 161c 85be d35c 413e
00000350: 75f2 343d f4ac 833e af38 3abe ba8e 81be
00000360: 699d 463d 9aaf 69be fb6b 373d e2bb 833e
00000370: 6560 d9bd 143e 54be 6ceb 063e f6dd 14bd
00000380: c64a 653c 0c07 50be ff92 69be e76e 07bd
00000390: 9994 49be e58c ce3e 74cd 65be 18a5 9e3c
000003a0: 7427 4c3e 3ecf 923d c294 40be 6ca7 cbbe
000003b0: 2df8 f3bc 8ed1 62be 5935 4fbe 6712 94bd
000003c0: be41 1b3e cf19 09be f9ea 013e 4c18 53be
000003d0: 061f b0bd 7b26 e03d 070b 79be 6eee 54bc
000003e0: b2c8 91bd 7dd5 e6bd 1889 87be e2c5 2bbd
000003f0: 5122 9a3d a15d 5b3d 74b0 163e 6c4a 073e

linears.1.bias f4 [50]
0.007953997 0.054353982 -0.013647638 -0.03331353 0.021625826 0.046229936 -0.036656164 0.013526879
0.024113925 -0.021300415 -0.01656446 -0.021289904 0.033210974 0.0045854296 0.005087096 0.026939137
0.029633898 -0.009791361 0.028910777 -0.043762356 0.0028634141 0.04355782 0.04726834 -0.01634545
0.030620528 0.011339341 0.010176612 0.00028444064 0.11905283 -0.02596518 -0.008131433 0.11741152
-0.12346138 -0.01029264 -0.028775651 -0.0062381127 0.0034356422 -0.013708724 -0.00018867628 0.04098347
0.020311099 0.0007320591 0.030470924 0.028775569 0.053543977 -0.02174823 0.014798584 -0.005867955
0.023172569 0.024355412
00000000: 7b51 023c 48a2 5e3d 589a 5fbc c573 08bd
00000010: a528 b13c 9a5b 3d3d c624 16bd d89f 5d3c
00000020: 918a c53c 357e aebc 31b2 87bc 2a68 aebc
00000030: 3b08 083d 5f41 963b a7b1 a63b 77af dc3c
00000040: cac2 f23c f26b 20bc 4bd6 ec3c 2840 33bd
00000050: 1ea8 3b3b af69 323d 729c 413d e5e6 85bc
00000060: e7d7 fa3c a5c8 393c cebb 263c fa20 9539
00000070: f8d1 f33d eeb4 d4bc b439 05bc 7375 f03d
00000080: 52d9 fcbd 76a2 28bc eaba ebbc 1569 ccbb
00000090: 8328 613b 8e9a 60bc 67d7 45b9 48de 273d
000000a0: 7663 a63c a8e7 3f3a 299e f93c beba eb3c
000000b0: ee50 5b3d 5829 b2bc c375 723c f947 c0bb
000000c0: 66d4 bd3c 0085 c73c

linears.2.weight f4 [50, 50]
0.49185598 0.22824556 -0.01174512 -1.3576947 0.16758168 -0.11393806 -0.1695736 -0.003710032
0.0947793 0.20119826 -0.5029339 0.40734038 0.20666821 0.04214437 -0.42191574 -0.07674985
0.21938647 -0.049303215 -0.0012587563 -0.0034708653 0.14347036 0.029541269 -0.19377038 -0.47160032
0.3692459 0.13281329 0.14884375 1.5734516 0.0792865 -0.3871487 -0.04572497 -0.065882
-0.071735464 -0.32194194 0.167973 0.26680246 0.93253064 -0.40285352 -0.12220238 -0.0756369
0.8791511 0.36444566 0.18093923 0.31893978 -0.16958131 -0.54722416 0.70382303 -0.15832202
-0.29411593 0.078419246 0.56342006 0.1668076 -0.29295102 -0.560386 0.441547 0.106179796
-0.33764234 0.06826846 0.07289562 0.20625179 0.071691066 0.17726795 0.75968605 -0.453732
0.64312595 0.13841438 0.097912274 -0.36754286 0.15757214 -0.36477584 -0.10521194 0.02388664
0.07035695 -0.124813 0.07160562 0.2199554 0.7075332 0.051326122 -0.016356662 0.13023002
-0.27271682 -0.05329072 -0.18606089 0.35891134 -0.07701196 -0.43377084 0.46673733 -0.744358
0.21612354 -0.17142428 0.80334693 -0.39234784 0.10651958 -0.024832979 -0.121379465 -0.059216477
-0.0075116972 -0.24401198 0.25330764 -0.09209516 0.38905498 -0.0848475 0.30896884 -0.723028
0.52787864 -0.27046132 0.2291336 0.06127653 -0.058108326 0.15889108 0.15555806 -0.15261121
0.43974894 -0.28486106 0.013595191 -0.24312735 0.16453563 -0.21073464 0.0050357496 -0.12482097
0.18336505 0.35163784 0.16272715 -0.4550769 0.020924767 0.32192725 0.03603259 0.77590525
0.16276422 0.05184126 -0.11873876 -0.21571971 -0.20515065 0.15979657 -0.13719319 0.14524762
0.5520364 -0.24454373 -0.017746447 -0.041072257 0.28233492 -0.51852375 0.038557284 -0.084379174
0.09608316 -0.5424985 1.1423129 0.17757638 0.3066073 -0.14248635 -0.10165485 0.2625907
-0.022746805 0.019528162 -0.20936327 -0.19467314 -0.18404454 0.07153282 0.015399237 -0.032018274
-0.2833613 0.13393877 0.09989395 -0.12776153 -0.2066739 0.09179125 0.31503186 0.39488116
-0.086777106 0.30978245 -0.19751637 -0.25660205 -0.42684436 -0.22804415 0.33647954 -0.36760345
-0.2765653 0.13671184 -0.02687771 -0.36463425 0.41440842 0.06725617 0.12688205 -0.05233163
0.038544998 0.08968389 0.15962091 -0.18592729 -0.08704769 -0.1179759 -0.34173778 0.45242918
-0.0037709286 0.08206227 0.24017836 -0.011971218 0.11624635 0.28062934 -0.37350053 -0.1179131
0.43403816 -0.12905967 -0.14027292 -0.41466767 0.14228748 0.21668845 -0.26630652 0.18335097
0.067753375 -0.16266634 -0.22981362 0.05061695 0.20128362 0.09339173 1.9733878 0.16187324
0.24245349 -0.24290077 0.14647442 -0.63033956 -0.5231327 0.50372404 0.4897968 0.0048983376
-0.20549369 -0.2679324 0.8077831 0.17627087 0.21351458 -0.3259287 -0.40319213 0.096465826
-0.0073947087 0.81103194 0.17059746 -1.2137278 0.038420573 0.07882794 0.0042703017 -0.068500474
-0.0009580188 -0.26923278 0.0044120015 0.14098977 -0.22875568 0.15040733 0.09197194 -0.04265425
1.0023057 -0.055591036 -0.7674296 -0.26578668 -0.2506688 1.3074303 -0.37285483 0.21002062
00000000: 8cd4 fb3e 34b9 693e 9b6e 40bc f1c8 adbf
00000010: 889a 2b3e 5c58 e9bd b4a4 2dbe 0224 73bb
00000020: a61b c23d eb06 4e3e 47c0 00bf eb8e d03e
00000030: d5a0 533e 939f 2c3d 5705 d8be 062f 9dbd
00000040: d9a6 603e 2bf2 49bd dafc a4ba 7577 63bb
00000050: e5e9 123e 8800 f23c be6b 46be 9975 f1be
00000060: cc0d bd3e 3500 083e 7f6a 183e dd66 c93f
00000070: f660 a23d 5b38 c6be 1b4a 3bbd 24ed 86bd
00000080: 0bea 92bd 93d5 a4be 1d01 2c3e 559a 883e
00000090: 54ba 6e3f d142 cebe 3e45 fabd 85e7 9abd
000000a0: 0c10 613f 9f98 ba3e 2248 393e 134c a33e
000000b0: b9a6 2dbe e216 0cbf bf2d 343f 2b1f 22be
000000c0: 5d96 96be 459a a03d 4c3c 103f 9dcf 2a3e
000000d0: adfd 95be 7575 0fbf 7312 e23e cb74 d93d
000000e0: 75df acbe 56d0 8b3d 4c4a 953d ab33 533e
000000f0: c4d2 923d bb85 353e c97a 423f 904f e8be
00000100: e7a3 243f 80bc 0d3e 3b86 c83d 942e bcbe
00000110: 975a 213e e6c3 babe 5c79 d7bd eaad c33c
00000120: 4e17 903d f59d ffbd f8a5 923d fd3b 613e
00000130: e520 353f 573b 523d 68fe 85bc 055b 053e
00000140: 8aa1 8bbe 5f47 5abd bf86 3ebe 3ac3 b73e
00000150: 72b8 9dbd 3617 debe 32f8 ee3e 3f8e 3ebf
00000160: 7d4f 5d3e d989 2fbe 25a8 4d3f d1e1 c8be
00000170: f026 da3d 886e cbbc cc95 f8bd fa8c 72bd
00000180: af24 f6bb 47de 79be 8ab1 813e 639c bcbd
00000190: 3732 c73e 87c4 adbd 2a31 9e3e 5d18 39bf
000001a0: 0e23 073f e879 8abe 00a2 6a3e 19fd 7a3d
000001b0: ff02 6ebd 58b4 223e 9d4a 1f3e 1d46 1cbe
000001c0: c626 e13e 4fd9 91be 5dbe 5e3c 60f6 78be
000001d0: 077c 283e d2ca 57be ee02 a53b 23a2 ffbd
000001e0: 0cc4 3b3e e009 b43e f2a1 263e d7ff e8be
000001f0: 6b6a ab3c a6d3 a43e e996 133d baa1 463f
00000200: aaab 263e 8057 543d 4f2d f3bd a1e5 5cbe
00000210: 0313 52be b6a1 233e 5f7c 0cbe cbbb 143e
00000220: 4252 0d3f ac69 7abe ff60 91bc 623b 28bd
00000230: 348e 903e f9bd 04bf 3eee 1d3d fdce acbd
00000240: 3fc7 c43d 2fe1 0abf 4f37 923f 95d6 353e
00000250: a2fb 9c3e f1e7 11be 6b30 d0bd 4a72 863e
00000260: 8257 babc 86f9 9f3c 5363 56be 6558 47be
00000270: 2c76 3cbe cd7f 923d 154d 7c3c 9825 03bd
00000280: bb14 91be 3f27 093e 3395 cc3d ebd3 02be
00000290: 53a2 53be 0dfd bb3d db4b a13e dd2d ca3e
000002a0: 32b8 b1bd ce9b 9e3e bb41 4abe 5861 83be
000002b0: 588b dabe 6884 69be 0c47 ac3e 8536 bcbe
000002c0: f899 8dbe 30fe 0b3e a52e dcbc 57b1 babe
000002d0: 572d d43e 9abd 893d 5eed 013e b159 56bd
000002e0: 5ce1 1d3d 30ac b73d aa73 233e b963 3ebe
000002f0: 0f46 b2bd 599d f1bd 41f8 aebe cca4 e73e
00000300: af21 77bb 4310 a83d 51f1 753e ed22 44bc
00000310: 9112 ee3d a6ae 8f3e 763b bfbe 6c7c f1bd
00000320: 403a de3e 3828 04be b4a3 0fbe 524f d4be
00000330: cfb3 113e 94e3 5d3e 5459 88be 5bc0 3b3e
00000340: 48c2 8a3d 0192 26be 4354 6bbe b853 4f3d
00000350: 4b1d 4e3e 2a44 bf3d f997 fc3f 19c2 253e
00000360: ba45 783e fbba 78be 64fd 153e ef5d 21bf
00000370: 06ec 05bf 0ff4 003f a5c6 fa3e 3c82 a03b
00000380: f06c 52be 6f2e 89be e0ca 4e3f 5a80 343e
00000390: 91a3 5a3e 20e0 a6be 336f cebe e08f c53d
000003a0: 504f f2bb ca9f 4f3f 1ab1 2e3e 6f5b 9bbf
000003b0: e45e 1d3d 8b70 a13d e3ed 8b3b fa49 8cbd
000003c0: 8e23 7bba e1d8 89be 8d92 903b 9f5f 103e
000003d0: ee3e 6abe 6104 1a3e c95b bc3d 39b6 2ebd
000003e0: 8e4b 803f 6db3 63bd 4476 44bf 3115 88be
000003f0: a957 80be e059 a73f d4e6 bebe a50f 573e

linears.2.bias f4 [50]
0.025212929 -0.005799816 0.022993272 0.08950288 0.04094233 -0.057968155 -0.0074713267 -0.02869885
-0.05806222 -0.10437753 0.13169764 0.046410803 0.040129215 0.006168698 -0.059953712 0.122195646
0.08757869 0.16771981 0.05477542 0.013322371 -0.012422559 0.013544609 -0.06633627 -0.037395537
0.0035493036 -0.02763417 0.032907356 0.06628073 0.02832104 0.027397389 -0.03745121 -0.028185437
-0.014665207 0.035867784 0.03772355 -0.03150775 0.010216586 -0.031382795 -0.017301628 -0.2960789
-0.024542004 0.008201837 -0.15273498 0.0044562956 0.024820045 0.022870092 -0.081771985 0.041472364
-0.02256528 -0.020391192
00000000: 588b ce3c 620c bebb 635c bc3c 494d b73d
00000010: 25b3 273d 0470 6dbd 08d2 f4bb da19 ebbc
00000020: a7d2 6dbd e3c3 d5bd bfdb 063e 4119 3e3d
00000030: 885e 243d ca22 ca3b 0692 75bd b641 fa3d
00000040: 755c b33d bebe 2b3e 315c 603d 1346 5a3c
00000050: fd87 4bbc 35ea 5d3c 4fdb 87bd 102c 19bd
00000060: 6f9b 683b 0e61 e2bc ddc9 063d 31be 873d
00000070: 8701 e83c 7d70 e03c 7166 19bd 25e5 e6bc
00000080: 5646 70bc 19ea 123d 0284 1a3d 450e 01bd
00000090: 7863 273c 3f8b 00bd 25bc 8dbc a797 97be
000000a0: 500c c9bc ff60 063c 8f66 1cbe 1e06 923b
000000b0: 6853 cb3c 0f5a bb3c 1278 a7bd edde 293d
000000c0: d2da b8bc 6e0b a7bc

linears.3.weight f4 [50, 50]
-0.39331365 0.12542444 -0.10090763 -0.115242094 0.2680462 -0.10741723 0.060388517 0.3187812
0.024249494 0.11692469 -0.029454367 -0.07907586 0.5729913 0.009022198 0.17981423 0.19054058
0.046614327 0.14303747 -0.008395414 0.1432967 0.48000258 0.2303191 -0.034583177 -0.12427461
0.24617213 0.056449804 -0.10768049 0.12097069 -0.1012315 -0.08531313 0.13287991 0.22369704
-0.18797426 0.119983405 -0.2031098 0.2107255 -0.046185136 0.03566657 0.3895869 0.049406156
-0.11575817 -0.4279595 0.25672644 -0.021180004 -0.21001047 -0.35882795 0.016498966 -0.32379663
0.066614464 0.24450785 -0.061124284 -0.20114161 -0.0035873097 -0.19431488 -0.13825186 -0.19654155
-0.11780474 -0.036864787 0.072892234 0.4800459 -0.051379904 0.10482052 0.16484553 0.14928828
-0.25531685 -0.031521983 -0.051458392 -0.3793752 -0.60726804 0.34298077 -0.08329475 0.095210336
0.56663764 -0.21826534 0.24516523 -0.023197496 -0.22730781 -0.17726848 -0.46177143 -0.05949687
0.10513007 -0.26863918 -0.21661632 0.24233073 -0.013169739 -0.20681594 -0.10946045 0.0073666256
-0.06394058 0.1530026 -0.12571876 0.16324602 0.11841146 -0.9057616 -0.161552 0.062464587
0.23428868 -0.20275451 0.12996303 0.21308857 -0.11583712 -0.41625443 -0.28268012 0.02107861
-0.05383338 0.49240938 0.220655 0.21732448 -0.12486414 0.08756803 0.19743563 0.008034041
-0.0605938 -0.40386423 -0.18256965 0.23375206 0.1310404 0.08274884 0.11679728 0.019359691
0.027939355 0.17690733 -0.18249263 0.46195266 0.261356 0.2892699 0.02729687 0.17259246
0.109982595 0.09334313 0.12856509 0.11866499 -0.40708986 0.17106803 -0.10195538 0.13012898
0.1192272 0.092232555 0.09070812 0.1861733 -0.17323984 -0.1704238 0.095509015 -0.25329
-0.06474195 -0.17284968 0.13468248 -0.52730256 -0.11011852 -0.23058572 0.11233695 0.025228068
-0.11854861 -0.016651925 -0.23816812 -0.023004813 -0.24699028 0.12850744 0.122365676 0.022203263
-0.13133211 0.036015727 0.051198214 -0.054585837 -0.12146272 -0.34684724 -0.22962163 -0.33046344
-0.1336146 0.02504391 -0.1299769 -0.190748 0.22104478 -0.178241 -0.10121933 0.094707854
-0.31167766 0.15082045 -0.124372475 -0.22105782 -0.06059827 0.047909684 -0.05378266 0.05141938
-0.1843602 -0.24574646 0.1192779 0.05598397 -0.10951625 0.34989864 -0.098295346 -0.017215626
0.11263354 0.07823305 -0.004438646 -0.20554127 0.29516813 -0.12928022 0.0088052545 0.20569244
0.07455698 -0.13907833 -0.17422763 -0.04429315 -0.271479 0.17238086 0.2163593 0.17123978
-0.13995987 -0.2509064 -0.097596474 0.09878803 0.112945266 -0.08801288 -0.0218438 -0.20215707
0.20872268 -0.10864797 -0.14300661 0.14020738 0.08743252 -0.04709097 0.34277433 0.28470895
0.05853449 -0.30009773 -0.10247211 0.1560968 -0.23790704 -0.20598762 0.009488602 -0.110082306
-0.14478719 0.07103689 -0.10589251 -0.05964382 0.3005807 -0.06876672 -0.0547332 -0.29532155
-0.2480888 -0.16847856 0.1493834 -0.032007072 -0.11570136 0.14760156 0.043647792 0.1388653
-0.1427603 -0.22055618 -0.44671464 -1.1086437 -0.10863645 0.14881644 -0.33392876 0.15843286
00000000: 6860 c9be 446f 003e a9a8 cebd 0c04 ecbd
00000010: 5a3d 893e 91fd dbbd f359 773d 4a37 a33e
00000020: e0a6 c63c 3676 ef3d 494a f1bc 86f2 a1bd
00000030: 8faf 123f d7d1 133c 3921 383e 121d 433e
00000040: aaee 3e3d 6a78 123e eb8c 09bc 5fbc 123e
00000050: e6c2 f53e c5d8 6b3e 17a7 0dbd b083 febd
00000060: 8c14 7c3e e937 673d 9787 dcbd 7bbf f73d
00000070: 7652 cfbd a6b8 aebd ac11 083e d610 653e
00000080: 537c 40be dcb9 f53d 04fc 4fbe 6dc8 573e
00000090: a02c 3dbd 1c17 123d ef77 c73e 1c5e 4a3d
000000a0: 9f12 edbd 821d dbbe a671 833e b081 adbc
000000b0: fc0c 57be 4cb8 b7be d728 873c acc8 a5be
000000c0: 2a6d 883d 4460 7a3e 755d 7abd 11f8 4dbe
000000d0: 1219 6bbb 7bfa 46be e591 0dbe 3042 49be
000000e0: 9d43 f1bd 88ff 16bd 8648 953d 94c8 f53e
000000f0: bc73 52bd 24ac d63d 44cd 283e 07df 183e
00000100: e4b8 82be 321d 01bd 09c6 52bd 773d c2be
00000110: eb75 1bbf 2d9b af3e 7096 aabd a3fd c23d
00000120: 2a0f 113f f380 5fbe 980c 7b3e ad08 bebc
00000130: 61c3 68be de85 35be 4e6d ecbe fdb2 73bd
00000140: 6f4e d73d 138b 89be abd0 5dbe 8c25 783e
00000150: e4c5 57bc 8fc7 53be cd2c e0bd bc63 f13b
00000160: 47f3 82bd b7ac 1c3e 6bbc 00be f729 273e
00000170: b581 f23d fedf 67bf e36d 25be deda 7f3d
00000180: 5fe9 6f3e e19e 4fbe 0715 053e e433 5a3e
00000190: 033c edbd 4d1f d5be 73bb 90be 0dad ac3c
000001a0: 6480 5cbd 151d fc3e 62f3 613e 4f8a 5e3e
000001b0: c5b8 ffbd de56 b33d 912c 4a3e 36a1 033c
000001c0: 3431 78bd 4bc7 cebe 8af3 3abe b35c 6f3e
000001d0: 742f 063e 3978 a93d 6a33 ef3d 3798 9e3c
000001e0: 13e1 e43c 3227 353e 59df 3abe 0f85 ec3e
000001f0: 74d0 853e 2f1b 943e af9d df3c 14bc 303e
00000200: 8e3e e13d af2a bf3d 91a6 033e a106 f33d
00000210: 156e d0be 752c 2f3e fbcd d0bd 8840 053e
00000220: 642d f43d 6ce4 bc3d 2ec5 b93d 37a4 3e3e
00000230: c965 31be 9483 2ebe 3b9a c33d 3aaf 81be
00000240: 6d97 84bd 82ff 30be 34ea 093e 4dfd 06bf
00000250: d285 e1bd aa1e 6cbe ea10 e63d 18ab ce3c
00000260: 9dc9 f2bd 9e69 88bc 58e2 73be 9774 bcbc
00000270: 05eb 7cbe 7497 033e db9a fa3d 9ee3 b53c
00000280: ed7b 06be 3a85 133d 38b5 513d 6695 5fbd
00000290: 72c1 f8bd f695 b1be ef21 6bbe 8132 a9be
000002a0: 44d2 08be e328 cd3c aa18 05be 7253 43be
000002b0: 9059 623e cf84 36be 154c cfbd 31f6 c13d
000002c0: 3794 9fbe ad70 1a3e ffb6 febd fb5c 62be
000002d0: e435 78bd f23c 443d 354b 5cbd 219d 523d
000002e0: ecc8 3cbe f6a4 7bbe f947 f43d 734f 653d
000002f0: 0e4a e0bd ea25 b33e 124f c9bd c907 8dbc
00000300: 6aac e63d a638 a03d 1072 91bb 6979 52be
00000310: 4720 973e 0962 04be ea43 103c 0aa1 523e
00000320: 54b1 983d 8d6a 0ebe ba68 32be bc6c 35bd
00000330: 4cff 8abe 9c84 303e 4b8d 5d3e 7b59 2f3e
00000340: a451 0fbe ce76 80be a9e0 c7bd 6151 ca3d
00000350: d94f e73d 1940 b4bd c5f1 b2bc 4302 4fbe
00000360: 66bb 553e d482 debd 5370 12be 8692 0f3e
00000370: d20f b33d 76e2 40bd 1e80 af3e 5fc5 913e
00000380: ddc1 6f3d 69a6 99be e6dc d1bd d7d7 1f3e
00000390: e79d 73be 6bee 52be 1576 1b3c d572 e1bd
000003a0: 1843 14be ca7b 913d 2cde d8bd 144d 74bd
000003b0: b7e5 993e 91d5 8cbd ec2f 60bd 6334 97be
000003c0: fe0a 7ebe a585 2cbe f6f7 183e d919 03bd
000003d0: d6f4 ecbd dd24 173e 07c8 323d b532 0e3e
000003e0: c22f 12be 7bd9 61be c8b7 e4be 09e8 8dbf
000003f0: c97c debd 5663 183e b6f8 aabe 393c 223e

linears.3.bias f4 [50]
-0.053206712 -0.16059479 0.00956377 -0.07220327 0.0062153838 -0.009339602 0.055180028 -0.041481342
0.010319737 -0.03406427 -0.004633902 -0.032317527 -0.06612365 -0.0032867552 -0.16433671 0.0077858116
0.040636346 -0.057911456 0.028309392 -0.00028531352 -0.14423363 0.040783253 0.18428957 0.027097663
-0.04462307 -0.009895804 0.033154044 0.07296003 -0.12033067 -0.08107603 -0.0935912 -0.029451309
-0.19661707 -0.011417983 -0.15490505 0.03951038 -0.01383992 0.026895419 -0.0994857 -0.019619167
-0.08525028 0.06954442 -0.0236233 -0.1733093 -0.12299418 0.030710757 -0.02796695 -0.13710392
0.100542225 -0.30485612
00000000: 48ef 59bd f672 24be 5cb1 1c3c 4fdf 93bd
00000010: 6baa cb3b 2105 19bc 7404 623d 57e8 29bd
00000020: 1d14 293c fa86 0bbd fdd7 97bb 625f 04bd
00000030: d66b 87bd 9a66 57bb e247 28be 1f20 ff3b
00000040: 4c72 263d 9034 6dbd 19e9 e73c 2296 95b9
00000050: fbb1 13be 570c 273d 68b6 3c3e ebfb dd3c
00000060: aec6 36bd 0322 22bc 89cc 073d 116c 953d
00000070: ed6f f6bd 310b a6bd beac bfbd df43 f1bc
00000080: fc55 49be 7e12 3bbc 6e9f 1ebe a3d5 213d
00000090: d5c0 62bc c853 dc3c 29bf cbbd 60b8 a0bc
000000a0: b397 aebd 4e6d 8e3d a785 c1bc fe77 31be
000000b0: 5fe4 fbbd 2095 fb3c f21a e5bc f864 0cbe
000000c0: 15e9 cd3d 1a16 9cbe

linears.4.weight f4 [3, 50]
-0.35014728 0.35500547 -0.35101306 0.21429141 -0.29355747 0.66835725 0.18016706 0.32411915
-0.103308894 -0.015039228 0.5060369 0.3163272 -0.7254088 -1.0742681 0.178664 -0.07613147
0.20467013 0.5679576 0.76836884 -0.48317125 -0.060082104 0.582231 0.28953263 0.8712386
0.11331773 0.05865158 0.25890186 0.62554723 -0.23496705 0.88392454 0.1438687 0.5078605
-0.25206625 -0.33979517 -0.07309482 0.69129646 -0.5503433 -0.34528846 0.12138987 -0.6375526
0.1909693 -0.12597935 0.17872146 -0.30872 0.18227369 -0.27063856 -0.0802051 -0.13180722
0.9279211 0.021253662 0.00072430866 0.006543681 -0.080466494 -0.03512855 0.029257165 0.032914452
0.036846187 -0.044671323 -0.07102774 0.030845683 -0.032438513 -0.028637983 -0.0023972045 0.07384413
0.011007615 -0.020313073 -0.025336847 0.030771824 -0.021153979 0.0014763058 0.105709024 -0.0067875045
0.093694344 -0.047818057 -0.018397959 0.028385423 0.015958358 0.0053461627 -0.09107082 0.016155042
-0.07145575 -0.0034486316 0.17476751 -0.08792222 -0.27154335 -0.11489789 -0.34242284 -0.010239796
0.12447635 0.088679075 0.01735088 -0.004583145 -0.010637932 0.022240024 -0.043107856 -0.034743797
-0.0030292936 -0.017737286 -0.005575578 0.12042131 -0.13347934 -0.09385933 0.36488843 -0.09794166
0.0634988 -0.20195678 0.08614612 -0.12287008 -0.3803236 -0.24143921 -0.058495313 0.02385346
0.5016776 -0.1500812 -0.22330861 -0.27381414 -0.29889247 -0.052522607 0.11292237 0.28231692
-0.39642859 -0.21495704 0.2594072 0.0038689584 -0.0977979 0.45070088 0.26473224 -0.4462699
0.59928924 -0.26361474 -0.24700202 -0.1455037 -0.24114366 -0.1313076 -0.08109537 -0.075259015
-0.09050328 0.01962601 -0.1490739 -0.3511497 0.39784285 -0.26545852 0.22998866 -0.13251159
-0.3645344 -0.5547562 -0.1648864 -0.30385214 -0.6119874 -0.42795375
00000000: 8146 b3be 47c3 b53e fcb7 b3be 356f 5b3e
00000010: 2a4d 96be 7619 2b3f b77d 383e f2f2 a53e
00000020: 9d93 d3bd 1867 76bc a28b 013f a4f5 a13e
00000030: 64b4 39bf 9e81 89bf b2f3 363e d1ea 9bbd
00000040: 0c95 513e ab65 113f d2b3 443f 3962 f7be
00000050: a718 76bd 170d 153f 9f3d 943e 7e09 5f3f
00000060: 2013 e83d a43c 703d c98e 843e dd23 203f
00000070: 349b 70be e148 623f 5152 133e 2503 023f
00000080: d40e 81be a2f9 adbe bdb2 95bd cef8 303f
00000090: 4ce3 0cbf a6c9 b0be 419b f83d a636 23bf
000000a0: 758d 433e bb00 01be c202 373e 8c10 9ebe
000000b0: f4a5 3a3e 2391 8abe 9242 a4bd 79f8 06be
000000c0: 3d8c 6d3f 291c ae3c 88df 3d3a 606c d63b
000000d0: 9ecb a4bd f4e2 0fbd b9ac ef3c 4ed1 063d
000000e0: 07ec 163d 47f9 36bd fe76 91bd 16b0 fc3c
000000f0: 3fde 04bd 349a eabc 6b1a 1dbb 973b 973d
00000100: 4959 343c 9a67 a6bc 388f cfbc 3115 fc3c
00000110: 1c4b adbc 9a80 c13a f97d d83d b769 debb
00000120: d2e2 bf3d dedc 43bd 51b7 96bc 8c88 e83c
00000130: 1abb 823c dd2e af3b 5783 babd 9457 843c
00000140: 6457 92bd 7002 62bb 41f6 323e 9110 b4bd
00000150: bb07 8bbe 964f ebbd 0c52 afbe d1c4 27bc
00000160: 75ed fe3d 609d b53d 6f23 8e3c 352e 96bb
00000170: b94a 2ebc b630 b63c dd91 30bd 834f 0ebd
00000180: 1d87 46bb c94d 91bc 57b3 b6bb 739f f63d
00000190: cfae 08be 5239 c0bd a8d2 ba3e a395 c8bd
000001a0: a90b 823d c2cd 4ebe 616d b03d 4fa3 fbbd
000001b0: c6b9 c2be d73b 77be c898 6fbd 5568 c33c
000001c0: f16d 003f e3ae 19be 03ab 64be 5e31 8cbe
000001d0: 6f08 99be f221 57bd d843 e73d d88b 903e
000001e0: b0f8 cabe b31d 5cbe 05d1 843e 5a8e 7d3b
000001f0: 444a c8bd 44c2 e63e fc8a 873e 7d7d e4be
00000200: 056b 193f 83f8 86be 19ee 7cbe ecfe 14be
00000210: 5dee 76be 8075 06be 5415 a6bd 6621 9abd
00000220: c959 b9bd bac6 a03c d4a6 18be e5c9 b3be
00000230: 0fb2 cb3e 2eea 87be 2682 6b3e 1eb1 07be
00000240: 41a4 babe 8104 0ebf fbd7 28be 8292 9bbe
00000250: 35ab 1cbf c11c dbbe

linears.4.bias f4 [3]
0.009055259 0.06527322 0.044474307
00000000: 825c 143c f7ad 853d b12a 363d

exp_avg f4 [50, 3]
4.43291e-05 2.2666258e-05 -4.4457883e-07 3.5400266e-08 8.433008e-09 -9.133392e-08 1.7979524e-08 -4.0913553e-12
1.06038796e-08 4.412297e-10 -2.8969278e-09 1.3237667e-09 1.3429612e-06 4.6154096e-07 4.5010174e-07 -2.7835713e-06
-2.8636696e-06 -7.096131e-07 6.488249e-05 0.00032849135 1.8997942e-05 1.5667981e-06 2.2874458e-06 2.9411189e-07
-0.00012342882 -6.717948e-06 -3.717247e-05 22.451782 2.0532775 0.22433129 9.240436e-05 7.728531e-05
9.167484e-05 2.7770507e-06 1.2925725e-06 1.1631076e-07 1.1913228e-09 -1.5567827e-09 2.323722e-09 -7.558904
-0.73767674 -0.06465392 35.301643 3.4494078 0.29528382 -7.432228e-05 -5.052989e-06 1.1003664e-05
-1.4986453e-07 5.8255773e-07 5.485926e-08 -2.1449443e-07 2.3366558e-09 1.7334827e-08 -2.3923252e-13 1.2887478e-20
-1.7134949e-09 -2.4411587e-05 3.9553277e-05 2.597872e-05 -2.065398 -0.19665211 -0.01712579 -0.00011521232
-7.445924e-05 -7.4505835e-05 -3.3328626e-05 -9.5310827e-07 4.2648912e-06 -0.21943346 -0.020173345 -0.0018650646
0.00019272772 5.1461888e-05 3.3944611e-06 7.630352e-10 -7.4156197e-09 1.1145908e-08 -0.08339427 -0.02079152
-4.844865e-05 3.9030684e-08 3.987452e-07 1.8863439e-07 0.20982888 0.02660636 0.0024054933 -34.7763
-3.2683947 -0.3289039 7.2149174e-07 -2.4229191e-06 -2.7479294e-07 0.00021487924 0.00012427078 0.00015199005
1.234355e-11 -7.160064e-13 2.4422686e-09 -5.953824e-08 1.01125494e-07 3.412381e-09 -0.00021058573 -4.8642574e-05
-6.8801282e-06 46.883675 4.542077 0.41368607 -13.112256 -1.2406676 -0.122887656 2.2134342e-08
3.997174e-13 2.6711626e-09 0.0009363603 9.210501e-05 -6.361744e-05 0.035402544 0.0053314553 0.0013671032
0.00018719204 0.00015117918 5.7516478e-05 0.35668835 0.028090987 0.0013457264 -3.4167748e-08 5.220395e-10
-2.2963487e-08 4.348725e-09 -1.5154286e-06 -1.4862198e-11 1.5037907e-05 1.0897218e-05 2.1568207e-05 -7.139238e-07
2.3192296e-08 -9.9808204e-08 1.3598834e-05 3.640428e-05 2.1063888e-05 -3.9645593e-06 -9.761313e-06 -7.525277e-06
-8.944272e-06 -5.2676983e-06 -4.5638774e-07 0.14934783 0.014839238 0.0011751868
00000000: 02ee 3938 6b23 be37 73ae eeb4 010b 1833
00000010: c3e0 1032 5b23 c4b3 6471 9a32 a7f3 8fac
00000020: 5b2c 3632 8f91 f22f 4b13 47b1 e6ef b530
00000030: cc3f b435 b5c9 f734 83a5 f134 64cd 3ab6
00000040: 782d 40b6 3e7c 3eb5 8611 8838 5d39 ac39
00000050: c55d 9f37 c64a d235 0582 1936 6ee6 9d34
00000060: ac6c 01b9 bc6a e1b6 a3e9 1bb8 409d b341
00000070: e668 0340 1ab7 653e 37c9 c138 3c14 a238
00000080: 8e41 c038 5e5d 3a36 747c ad35 84c6 f933
00000090: f2bb a330 6cf6 d5b0 5aaf 1f31 8be2 f1c0
000000a0: 62d8 3cbf 4669 84bd e234 0d42 19c3 5c40
000000b0: 712f 973e 78dd 9bb8 d88c a9b6 619c 3837
000000c0: 73ea 20b4 1061 1c35 659e 6b33 c84f 66b4
000000d0: e292 2031 b0e7 9432 0aad 86aa 0570 731e
000000e0: 3e80 ebb0 7cc7 ccb7 02e6 2538 e0ec d937
000000f0: 7b2f 04c0 2c5f 49be 624b 8cbc 259e f1b8
00000100: 0027 9cb8 0440 9cb8 57ca 0bb8 1ad9 7fb5
00000110: 231b 8f36 2ab3 60be 9242 a5bc 2f75 f4ba
00000120: f416 4a39 c8d8 5738 66cc 6336 d4bd 5130
00000130: 7bcc feb1 397c 3f32 9dca aabd fa52 aabc
00000140: 5835 4bb8 b1a2 2733 1f13 d634 6d8b 4a34
00000150: 62dd 563e 95f5 d93c 7ba5 1d3b ee1a 0bc2
00000160: 612d 51c0 1866 a8be 89ac 4135 6f99 22b6
00000170: 4187 93b4 3551 6139 af4e 0239 855f 1f39
00000180: 6826 592d b389 49ab d8d4 2731 fdb6 7fb3
00000190: 542a d933 3e7f 6a31 add0 5cb9 9105 4cb8
000001a0: dadb e6b6 e288 3b42 b258 9140 a9ce d33e
000001b0: cdcb 51c1 32ce 9ebf 86ac fbbd ef21 be32
000001c0: 5905 e12a 978f 3731 1376 753a 8028 c138
000001d0: 5a6a 85b8 4202 113d 7db3 ae3b 5f30 b33a
000001e0: fb48 4439 da85 1e39 d93d 7138 db9f b63e
000001f0: 121f e63c 1663 b03a d6bf 12b3 447f 0f30
00000200: 3e41 c5b2 ca6b 9531 bb65 cbb5 b2ba 82ad
00000210: 524b 7c37 32d3 3637 5fed b437 78a4 3fb5
00000220: 6638 c732 2456 d6b3 8c26 6437 ccb0 1838
00000230: 5bb2 b037 4e07 85b6 85c4 23b7 a381 fcb6
00000240: 5b0f 16b7 2fc1 b0b6 7405 f5b4 a3ee 183e
00000250: 4620 733c ba08 9a3a

exp_avg_sq f4 [50, 3]
1.9688452e-08 5.350276e-09 3.8791116e-11 1.4107037e-09 4.7617747e-11 2.2793639e-11 2.2846464e-12 2.4418916e-17
1.869377e-15 2.6673097e-15 1.2814131e-13 9.736891e-16 7.209288e-11 3.6152925e-09 2.4833573e-11 2.4051289e-05
7.0869345e-07 9.42958e-10 2.4676647e-05 8.65176e-06 4.3534806e-07 2.701392e-10 3.597428e-09 8.037656e-12
8.3991324e-07 3.6641612e-07 2.2760895e-07 431244.7 3292.6943 47.20805 3.2490454e-05 1.5406778e-05
3.24834e-05 3.8176903e-10 1.1334547e-11 2.7627542e-14 1.4166203e-13 8.628013e-14 4.102246e-15 37398.92
323.72116 2.7970836 806698.3 7034.5723 57.85541 3.6618978e-08 5.9073944e-08 7.652259e-08
1.2617342e-11 1.3825497e-09 1.3520092e-11 1.1490844e-08 1.3508525e-13 4.2663754e-13 6.4325704e-18 1.4733445e-16
3.0276944e-16 2.7434705e-06 2.3014853e-07 1.9166553e-07 753.2346 9.038169 0.059894964 1.0823508e-05
4.962039e-06 1.1413948e-05 2.0904097e-06 9.273831e-07 2.1826186e-06 30.488768 0.23076491 0.0027705496
1.8909991e-06 5.8236218e-08 2.2061636e-10 1.1149821e-15 9.74465e-15 3.5677817e-12 14.332562 0.5885789
0.00026128723 2.7394556e-12 5.458481e-10 2.423053e-12 113.3395 3.8770127 0.012052216 926505.2
7436.279 89.62536 1.901137e-10 1.7869384e-09 1.0597163e-11 8.588386e-05 4.0052713e-05 8.766398e-05
2.4245876e-18 1.9962705e-17 9.867417e-17 3.3466767e-12 1.218512e-12 1.7624693e-15 2.085987e-05 7.058957e-06
1.4664338e-06 1.5126166e+06 12904.516 121.00333 124195.43 1006.522 11.632574 7.8167556e-13
7.990997e-16 1.1419816e-15 0.0019002402 4.557042e-05 2.8537097e-06 0.07487069 0.0024323235 6.0312126e-05
1.7614117e-05 3.360396e-06 1.3832464e-06 44.805477 0.34619454 0.00040294023 1.628996e-14 2.0132914e-17
4.2696285e-14 1.6677392e-11 2.4038693e-11 1.2166955e-14 3.843206e-07 2.0703966e-07 4.1331197e-07 1.4399916e-11
1.6763858e-13 1.7572928e-13 1.2481652e-08 3.9101742e-08 1.9586784e-08 7.4650745e-07 3.38415e-07 7.8823444e-07
7.7985476e-07 2.8615966e-08 2.2566294e-11 7.391468 0.067148514 0.0004570854
00000000: 5d1f a932 86d5 b731 ea9a 2a2e b9e2 c130
00000010: d16c 512e b67e c82d 88c4 202c 8939 e123
00000020: ebb3 0627 2e33 4027 3846 102a ca52 8c26
00000030: af88 9e2e e670 7831 3c70 da2d c0c1 c937
00000040: 0b3d 3e35 6399 8130 b200 cf37 0727 1137
00000050: c8b9 e934 b682 942f 9f36 7731 6266 0d2d
00000060: 6676 6135 d9b7 c434 ac64 7434 9691 d248
00000070: 1ccb 4d45 0bd5 3c42 5c46 0838 ce3d 8137
00000080: c93e 0838 37e1 d12f 4366 472d c6d8 f828
00000090: 4d7f 1f2a 1c49 c229 8bcc 9327 ec16 1247
000000a0: 4fdc a143 6b03 3340 a5f2 4449 94d4 db45
000000b0: f16b 6742 fe46 1d33 7db8 7d33 bd54 a433
000000c0: 75f7 5d2d 2504 be30 15d9 6d2d 4469 4532
000000d0: ac17 182a f32c f02a e951 ed22 74dd 2925
000000e0: e288 ae25 771c 3836 bf1e 7734 9fcc 4d34
000000f0: 044f 3c44 579c 1041 6c54 753d 9d96 3537
00000100: 977f a636 897e 3f37 f748 0c36 48f1 7835
00000110: 1a79 1236 ffe8 f341 a34d 6c3e 1c92 353b
00000120: 3cce fd35 661f 7a33 fc91 722f 94af a026
00000130: 448b 2f28 710f 7b2c 2d52 6541 1bad 163f
00000140: 61fd 8839 a5c5 402c a50a 1630 d881 2a2c
00000150: d3ad e242 fa20 7840 a876 453c 9332 6249
00000160: 3b62 e845 2f40 b342 4008 512f 4e98 f530
00000170: 616d 3a2d 8c1c b438 46fe 2738 3ed8 b738
00000180: 2ae7 3222 9b1f b823 f386 e324 5e80 6b2c
00000190: 867d ab2b a4ff fd26 3bfc ae37 fbdb ec36
000001a0: 48d2 c435 45a5 b849 10a2 4946 b401 f242
000001b0: b791 f247 68a1 7b44 061f 3a41 a905 5c2b
000001c0: 2753 6626 af93 a426 7b11 f93a de22 3f38
000001d0: 5c82 3f36 ce55 993d 9e67 1f3b a7f7 7c38
000001e0: 07c2 9337 2a83 6136 fca7 b935 cf38 3342
000001f0: 6940 b13e b941 d339 17ba 9228 80b1 b923
00000200: 7749 4029 26b2 922d 5372 d32d 2d2e 5b28
00000210: 9f54 ce34 a14e 5e34 2ae5 dd34 7553 7d2d
00000220: 88be 3c2a 84da 452a e36e 5632 d2f0 2733
00000230: cb3f a832 9a63 4835 67af b534 0f97 5335
00000240: 3657 5135 2dcf f532 c77e c62d e886 ec40
00000250: 2985 893d f7a4 ef39

exp_avg f4 [50]
3.040473e-07 7.1353425e-09 4.6946256e-11 1.5412157e-09 3.1968717e-08 -6.666187e-08 -2.5783345e-06 7.499287e-08
-1.0070356e-06 0.052798007 3.0311428e-06 9.393356e-08 3.0056306e-09 -0.018135428 0.08490067 -2.1349294e-06
-9.072739e-09 -9.5627835e-09 -6.060345e-09 -6.492533e-07 -0.0044517135 1.3653435e-07 3.40496e-07 -0.0005103047
5.438857e-07 2.9698335e-09 -0.00020390534 1.0556733e-08 0.00027018064 -0.08222103 -5.2611167e-08 2.2541435e-06
4.52808e-10 -1.00555395e-08 1.3239522e-06 0.11216726 -0.031037416 -1.6225206e-10 -3.0234514e-06 0.000107553235
2.4753983e-06 0.0008820014 -6.8205366e-09 -1.5087315e-08 4.1890794e-07 -5.4007693e-08 8.242106e-07 -3.036212e-07
-1.7026018e-08 0.0003624873
00000000: f13b a334 232b f531 c978 4e2e b5d2 d330
00000010: fa4d 0933 c027 8fb3 7307 2db6 c40b a133
00000020: 7b29 87b5 b942 583d a36a 4b36 85b8 c933
00000030: 9d8b 4e31 c090 94bc 67e0 ad3d cf45 0fb6
00000040: 54de 1bb2 9149 24b2 5c3b d0b1 5948 2eb5
00000050: aedf 91bb 479a 1234 6acd b634 f8c5 05ba
00000060: 8aff 1135 dd15 4c31 6ccf 55b9 015d 3532
00000070: 08a7 8d39 8063 a8bd 97f6 61b3 e445 1736
00000080: 10ef f82f bbc0 2cb2 a7b2 b135 f3b7 e53d
00000090: 2e42 febc e565 32af 80e6 4ab6 348e e138
000000a0: 051f 2636 1d36 673a 135a eab1 5b99 81b2
000000b0: 45e6 e034 16f6 67b3 523f 5d35 6101 a3b4
000000c0: 9c40 92b2 390c be39

exp_avg_sq f4 [50]
1.8183605e-12 3.029825e-14 2.6756783e-16 3.7573468e-16 8.885553e-13 8.817927e-11 1.6761811e-10 1.0939562e-12
3.7890063e-11 1.4736583 4.778273e-09 1.9545904e-14 5.37077e-16 0.1400544 3.041059 2.2161365e-11
3.6426211e-13 5.844089e-14 4.469486e-16 6.520644e-11 0.003438648 1.6110625e-09 2.8122216e-10 0.00010658888
2.0846378e-11 2.0655856e-15 5.883121e-05 1.6610861e-13 0.000387561 3.281634 6.4913526e-13 1.2551269e-08
5.394646e-17 4.483439e-15 2.3032051e-10 5.5912743 0.44317886 9.781654e-16 8.829501e-09 4.6836323e-07
3.069852e-10 0.00017607649 2.64664e-15 5.1057558e-15 5.959855e-11 2.782405e-14 9.669121e-12 9.796681e-11
3.2010928e-12 2.8838756e-05
00000000: 57e9 ff2b 8173 0829 0b3e 9a25 a798 d825
00000010: 281b 7a2b 84e8 c12e 4e4c 382f edf5 992b
00000020: 6ba4 262e d6a0 bc3f 222e a431 c90d b028
00000030: 4acd 1a26 6c6a 0f3e b6a0 4240 f5ee c22d
00000040: b40f cd2a e198 8329 fcd2 0026 f663 8f2e
00000050: f15a 613b 396c dd30 809a 9a2f 7888 df38
00000060: df5d b72d 54d7 1427 88c1 7638 8c05 3b2a
00000070: 8f31 cb39 4b06 5240 20b7 362b 11a1 5732
00000080: bdc8 7824 6d88 a127 763d 7d2f b8eb b240
00000090: 57e8 e23e eff7 8c26 8eb0 1732 5a73 fb34
000000a0: 53c4 a82f 2ca1 3839 e4b5 3e27 49f4 b727
000000b0: 000f 832e e49d fa28 da19 2a2d 696e d72e
000000c0: c341 612c c2ea f137

exp_avg f4 [50, 50]
0.076058105 0.07605858 -0.07605858 -0.07605858 -0.076058425 0.07605858 0.07605569 0.076058574
-0.07605802 -0.06267579 -0.07605771 0.07605864 -0.07605858 0.06895229 -0.06342922 0.07605804
0.07605848 0.07605858 -0.07605858 -0.07605822 0.011467077 0.07605796 0.07605773 0.07551757
0.07605695 0.07605858 0.07611252 -0.07605853 0.07029168 0.06439762 0.076058604 0.07605793
-0.07605858 -0.07605858 -0.07605758 -0.06413052 0.065874666 -0.07605858 0.07605262 -0.072524466
0.07605357 -0.075416595 -0.07605858 -0.07605857 0.07605796 0.07605858 0.07605834 0.076057956
-0.076057196 -0.07539194 0.0001959074 0.00019587499 -0.00019587812 -0.0001958779 -0.00019582476 0.00019585252
0.00019590801 0.00019584075 -0.00019553382 -0.00016077925 -0.00019685926 0.00019586606 -0.00019587787 0.00017925662
-0.0001665297 0.00019568553 0.00019584292 0.00019588032 -0.00019587846 -0.00019528069 5.9032325e-05 0.0001962103
0.00019641529 0.00019466295 0.00019609183 0.00019587687 0.00019571812 -0.00019585819 0.00018798266 0.00016735747
0.00019585826 0.0001964311 -0.00019587783 -0.0001958767 -0.00019575322 -0.00016775176 0.00017125919 -0.00019587806
0.0001958354 -0.00018557617 0.00019594059 -0.00019600008 -0.00019587853 -0.0001958733 0.00019593866 0.00019588154
0.0001956562 0.00019588512 -0.00019632571 -0.0001943841 8.1001854e-05 8.1300575e-05 -8.130081e-05 -8.129976e-05
-8.1250466e-05 8.126234e-05 8.135878e-05 8.12903e-05 -8.1564554e-05 -4.538873e-05 -8.1872895e-05 8.128616e-05
-8.130157e-05 0.00017552392 -0.00025773342 8.102306e-05 8.126346e-05 8.129666e-05 -8.130081e-05 -8.106113e-05
0.001550097 8.16812e-05 8.1421786e-05 8.3850326e-05 7.966673e-05 8.130104e-05 0.00011284919 -8.1286606e-05
0.00016553479 0.00013321187 8.127962e-05 8.1565835e-05 -8.1301805e-05 -8.1300226e-05 -8.255928e-05 -0.00021629671
0.00013948717 -8.1301274e-05 8.109324e-05 -3.792362e-05 8.250242e-05 -0.00012967855 -8.1300925e-05 -8.130083e-05
8.119827e-05 8.129396e-05 8.1166974e-05 8.115459e-05 -7.949597e-05 -9.259644e-05 -0.14549704 -0.14549735
0.14549735 0.14549735 0.14549741 -0.14549735 -0.1454943 -0.14549735 0.14549832 0.121056914
0.14550264 -0.14549734 0.14549732 -0.13234507 0.12208365 -0.14549704 -0.14549738 -0.14549737
0.14549735 0.14549796 -0.021577025 -0.14550222 -0.14550212 -0.144504 -0.14549658 -0.14549735
-0.1454784 0.14549738 -0.13905224 -0.12401448 -0.14549732 -0.14550193 0.14549732 0.14549735
0.1454975 0.12342329 -0.12673222 0.14549735 -0.14548062 0.1387347 -0.14549312 0.14442673
0.14549735 0.14549735 -0.14550126 -0.14549737 -0.14549768 -0.14550069 0.14549723 0.1442764
0.04897367 0.048973184 -0.048973165 -0.048973158 -0.048973665 0.048973322 0.04896272 0.048973408
-0.048973568 -0.040479485 -0.048975296 0.048973203 -0.048973165 0.044453952 -0.040937804 0.048973832
0.048973512 0.048973158 -0.048973165 -0.048974417 0.0074839676 0.048976224 0.048975963 0.04861939
0.048973173 0.048973173 0.04909585 -0.0489733 0.045999177 0.041542366 0.048973262 0.048975833
-0.048973165 -0.048973184 -0.04897181 -0.041376464 0.042477004 -0.048973165 0.04895947 -0.046684936
0.04897011 -0.0485681 -0.048973165 -0.04897321 0.048976153 0.048973158 0.048973724 0.048976056
-0.048972614 -0.048551355 -0.00030573455 -0.0003058362 0.00030583638 0.000305838 0.00030578687 -0.00030581892
00000000: 5ac4 9b3d 9ac4 9b3d 9ac4 9bbd 9ac4 9bbd
00000010: 85c4 9bbd 9ac4 9b3d 16c3 9b3d 99c4 9b3d
00000020: 4fc4 9bbd 2a5c 80bd 25c4 9bbd a2c4 9b3d
00000030: 9ac4 9bbd dc36 8d3d 2ee7 81bd 51c4 9b3d
00000040: 8cc4 9b3d 9ac4 9b3d 9ac4 9bbd 69c4 9bbd
00000050: 68e0 3b3c 47c4 9b3d 28c4 9b3d f5a8 9a3d
00000060: bfc3 9b3d 9ac4 9b3d e2e0 9b3d 93c4 9bbd
00000070: 16f5 8f3d e6e2 833d 9dc4 9b3d 43c4 9b3d
00000080: 9ac4 9bbd 9ac4 9bbd 14c4 9bbd dd56 83bd
00000090: 4ce9 863d 9ac4 9bbd 7ac1 9b3d b587 94bd
000000a0: f9c1 9b3d 0474 9abd 9ac4 9bbd 98c4 9bbd
000000b0: 47c4 9b3d 9ac4 9b3d 7ac4 9b3d 46c4 9b3d
000000c0: e0c3 9bbd 1767 9abd 7e6c 4d39 cb63 4d39
000000d0: a264 4db9 9364 4db9 4f56 4db9 c35d 4d39
000000e0: a86c 4d39 9a5a 4d39 3608 4db9 da96 28b9
000000f0: 016c 4eb9 6561 4d39 9164 4db9 d5f6 3b39
00000100: 7a9e 2eb9 ef30 4d39 2f5b 4d39 3965 4d39
00000110: b964 4db9 43c4 4cb9 7a99 7738 cdbd 4d39
00000120: d4f4 4d39 701e 4c39 009e 4d39 4c64 4d39
00000130: af39 4d39 485f 4db9 361d 4539 ae7c 2f39
00000140: 4d5f 4d39 12f9 4d39 8e64 4db9 4064 4db9
00000150: 1b43 4db9 85e6 2fb9 0a94 3339 9e64 4db9
00000160: 2a59 4d39 3997 42b9 6775 4d39 5f85 4db9
00000170: be64 4db9 5763 4db9 e274 4d39 8d65 4d39
00000180: 1029 4d39 8366 4d39 c8dc 4db9 96d3 4bb9
00000190: 8adf a938 ea7f aa38 0a80 aab8 7a7f aab8
000001a0: 0365 aab8 636b aa38 2a9f aa38 667a aa38
000001b0: a30d abb8 c75f 3eb8 2db3 abb8 2d78 aa38
000001c0: 7380 aab8 d80c 3839 6520 87b9 edea a938
000001d0: fd6b aa38 d07d aa38 0a80 aab8 5dff a9b8
000001e0: a02c cb3a 434c ab38 fdc0 aa38 cdd8 af38
000001f0: c012 a738 2a80 aa38 73a9 ec38 6a78 aab8
00000200: 6893 2d39 caae 0b39 aa74 aa38 530e ab38
00000210: 9380 aab8 ba7f aab8 ad23 adb8 b5cd 62b9
00000220: 4d43 1239 4a80 aab8 9a10 aa38 2d10 1fb8
00000230: 2605 ad38 52fa 07b9 1a80 aab8 0d80 aab8
00000240: fd48 aa38 5d7c aa38 3038 aa38 8a31 aa38
00000250: 13b7 a6b8 5630 c2b8 2dfd 14be 42fd 14be
00000260: 42fd 143e 42fd 143e 46fd 143e 42fd 14be
00000270: 75fc 14be 42fd 14be 83fd 143e b0ec f73d
00000280: a5fe 143e 41fd 14be 40fd 143e 7785 07be
00000290: fe06 fa3d 2dfd 14be 44fd 14be 43fd 14be
000002a0: 42fd 143e 6bfd 143e 4dc2 b0bc 89fe 14be
000002b0: 82fe 14be dbf8 13be 0efd 14be 42fd 14be
000002c0: 4af8 14be 44fd 143e b663 0ebe 4efb fdbd
000002d0: 40fd 14be 75fe 14be 40fd 143e 42fd 143e
000002e0: 4cfd 143e 5ac5 fc3d 17c6 01be 42fd 143e
000002f0: dff8 14be 7810 0e3e 26fc 14be 9ae4 133e
00000300: 42fd 143e 42fd 143e 48fe 14be 43fd 14be
00000310: 58fd 14be 22fe 14be 3afd 143e 31bd 133e
00000320: 9d98 483d 1b98 483d 1698 48bd 1498 48bd
00000330: 9c98 48bd 4098 483d 228d 483d 5798 483d
00000340: 8298 48bd d1cd 25bd 529a 48bd 2098 483d
00000350: 1698 48bd 5915 363d 66ae 27bd c998 483d
00000360: 7398 483d 1498 483d 1698 48bd 6699 48bd
00000370: 123c f53b 4b9b 483d 059b 483d 2025 473d
00000380: 1898 483d 1898 483d bb18 493d 3a98 48bd
00000390: a269 3c3d 5428 2a3d 3098 483d e29a 483d
000003a0: 1698 48bd 1b98 48bd aa96 48bd 5e7a 29bd
000003b0: 5efc 2d3d 1698 48bd ba89 483d b438 3fbd
000003c0: e294 483d 58ef 46bd 1698 48bd 2298 48bd
000003d0: 389b 483d 1498 483d ac98 483d 1e9b 483d
000003e0: 8297 48bd c9dd 46bd ff4a a0b9 a458 a0b9
000003f0: aa58 a039 e258 a039 0552 a039 5256 a0b9
