基准测试/model_MLP.pt (torch, 36487 bytes, 10 tensors)

weight f4 [50, 3]
00000000: 5c63 bb3c 23cb 213f d21b 74be 1cc2 313d
00000010: 39ee 7d3f f88c 203f 3c01 1ebf d6b8 6ebe
00000020: 9eb1 e0be 75c0 b13c afd5 013f 409e 44bf
00000030: a53f 20bf f0c7 dcbe dced 31bf 2898 c63d
00000040: 56fc 2bbf f5b2 c0be e30f 17bf 42b4 9b3d
00000050: 2987 2bbf ef65 3cbe b551 303f 40c0 043d
00000060: 1883 e23d 7cc3 ed3d b64a 453f f360 efbc
00000070: 8d37 1abf e516 283f fe87 2ebb f0ea 083f
00000080: 141c a7bf 6a1a 29bd d07e 20bf 05a3 9cbe
00000090: 6975 0abe 8ce8 0b3f f126 c33e b75d 163d
000000a0: 7a3b 483f 1241 2bbe c4aa 08bd 4fdf cbbe
000000b0: f2b4 083c 1727 afbd cfba c9be 5453 babe
000000c0: 8cfe af3d dedf 21bf 6f58 1abf 11b9 e7bd
000000d0: e186 31bf 2ece 3dbe 6836 33bc f473 93bb
000000e0: e5bf 073d 7564 263d e95f 8e3e 3320 703e
000000f0: 6bad 763d 8787 003f 344c c2be 2f05 11be
00000100: 5801 4c3f 3076 8b3f 4e0a c7be f96f c1be
00000110: 14c4 dabe 6e14 07bf 863f 26be c6c8 e7bd
00000120: ce57 b43e c108 e83d be55 033f 2f44 12be
00000130: 1458 063f 71bc ee3e 6771 1f3d 96cd 13bd
00000140: 143d 0e3f b842 f63e 5e98 1c3e 157c ea3e
00000150: 80cc 9d3d eac3 6cbe 2225 b53c 65c9 ae3c
00000160: b8dc d63d 9aa7 053f 8268 0abd ee98 e1bd
00000170: 3751 04bf d149 afbc b735 743d 3054 0340
00000180: 678f f7bd 2229 4e3f b89e e5be cf55 9a3d
00000190: b706 40bf f1c6 7b3e 2d78 0c3f a391 443e
000001a0: 2e6e 8b3c b3c6 04be 1ade 12bf aff1 1cbf
000001b0: 20e9 2cbd 5333 dcbe 7d63 083f a7df aebd
000001c0: 54c1 7c3e a720 813f 0b96 35bd 84c6 95bc
000001d0: c252 2f3e 660c 29bd 8a98 b3be 0200 59bd
000001e0: f897 993c 369b 313f 0bf7 6e3f ae39 b53c
000001f0: bbd6 f13e fcb7 7c3f 8714 0c3f b0aa 493e
00000200: 688b d63e 0098 a1bd 3b37 0f3f 4b9f 1b3e
00000210: 104f 233d 5006 f03e 682b 023f 3e91 8b3c
00000220: bc40 a23e 32bd 853a ba04 213f 984a 9a3e
00000230: fc95 ee3d 9c49 0c3d c30a 08bf 7e12 5d3e
00000240: 1f75 a9be 4cc8 cebe 11a6 a53e ca8b 6a3e
00000250: d2e8 203e 1284 933f
0.022874527 0.6320059 -0.23838738 0.043398008 0.99191624 0.627151 -0.61720634 -0.23312697
-0.4388551 0.021698216 0.5071668 -0.7680397 -0.62597114 -0.4312129 -0.6950357 0.0969699
-0.6718191 -0.37636533 -0.59008616 0.07602741 -0.67003113 -0.1839826 0.68874675 0.032409906
0.110601604 0.11609551 0.77067125 -0.029221034 -0.60241014 0.65659934 -0.002663135 0.53483486
-1.3055444 -0.041284956 -0.626935 -0.30593124 -0.13521351 0.54651713 0.38115647 0.036710467
0.78215754 -0.16724041 -0.03336598 -0.39818808 0.008343922 -0.08552378 -0.39400336 -0.363917
0.08593473 -0.6323222 -0.6029119 -0.113145955 -0.69346434 -0.18535683 -0.010938264 -0.0044999067
0.03314199 0.040623147 0.2780755 0.23449783 0.060223978 0.502068 -0.37948763 -0.14162134
0.7968955 1.0895443 -0.3887505 -0.3778074 -0.4272772 -0.5276555 -0.1623517 -0.11317591
0.3522324 0.11329795 0.5130271 -0.14283822 0.52478147 0.46628144 0.03892651 -0.036084734
0.5556195 0.48097777 0.15292498 0.45797792 0.07705021 -0.2312161 0.022112433 0.021336267
0.104913175 0.52208865 -0.033791073 -0.11015497 -0.51686424 -0.021397503 0.05962154 2.0520134
-0.12087899 0.80531514 -0.44847655 0.07535898 -0.75010246 0.24587609 0.54870874 0.19196181
0.017020311 -0.12966423 -0.5737015 -0.6130628 -0.042214513 -0.43007907 0.5327681 -0.08538752
0.24683124 1.008809 -0.044332545 -0.018283136 0.17121413 -0.04127159 -0.35077316 -0.052978523
0.018749222 0.6937746 0.9334571 0.02212223 0.4723414 0.9871824 0.5471882 0.19694018
0.41903234 -0.0789032 0.5594365 0.15197484 0.03987032 0.46879816 0.5084748 0.01703703
0.31690013 0.0010203479 0.6289784 0.30135036 0.11649701 0.034249887 -0.5314142 0.21589085
-0.3309717 -0.4038719 0.3235326 0.22904888 0.15713814 1.152468

bias f4 [50]
00000000: 495f e23e cea5 6d3e 0ec5 7bbf d919 f63f
00000010: 01e5 98be b5da 25bf 1fa1 29bf ef12 33bf
00000020: d105 e93e 03a1 46bf 4dfa 9cbe ef21 9c3e
00000030: 970a a93f ae32 7fbe 2906 18be 28b6 52bf
00000040: cb52 7abf 80b0 423f 66fc 9840 6da3 97be
00000050: be46 3a3d 43ed 3f3f b2c5 44bf f3e3 36bf
00000060: 3859 3d3f e00b 18be eb4a 4fbd 46a6 423f
00000070: 4479 1ebe 4866 4d3f 67a3 d7be 223b da3f
00000080: 9b38 043f 5b5c 0abf d7ce 613e 91e3 29bf
00000090: 77b3 103e e12b b23f cbb7 24bf 027d 53be
000000a0: 27aa 65be 6fa3 2140 7789 a9bd 2de1 05bc
000000b0: 0250 733d 7ed6 d73d 3420 913e 5a39 933e
000000c0: 0c1d 58bd 1418 8e3f
0.44213322 0.2320778 -0.98347557 1.9226638 -0.29862216 -0.64786845 -0.66261476 -0.69950765
0.4551225 -0.77589434 -0.30659714 0.3049464 1.3206357 -0.24921677 -0.148461 -0.823092
-0.9778258 0.7605057 4.7808104 -0.2961687 0.04547762 0.7497141 -0.7686416 -0.7144157
0.7396426 -0.1484828 -0.050608557 0.76034963 -0.15475947 0.80234194 -0.42116854 1.7049296
0.51648873 -0.54047173 0.2205156 -0.66362864 0.1413096 1.3919641 -0.64342946 -0.20653155
-0.22428189 2.5256002 -0.082781725 -0.008171362 0.059402473 0.10538958 0.28344882 0.28754693
-0.052762076 1.1101098

weight f4 [50, 50]
00000000: 89f4 023e aead 23be 9df8 523d b063 80bc
00000010: b9cd ebbd a0f0 3bbe 64dd 2fbd b5ec 003e
00000020: 818c 37bd f7eb fabc f508 f1bd 1f14 a73d
00000030: 78f7 68bc 41a5 8dbd c692 12be 65cb e2bd
00000040: 9fde 19bd 9283 d4bd c379 c03f 3450 443d
00000050: 12bd f93d 5c7f 4b3e 77a7 c0bd f3c3 c2bd
00000060: e93a 2abd 8632 dfbc ea98 9cbd b32c b43d
00000070: 2c73 c9ba 336c 913d 6d9d 253e 8d05 913e
00000080: 8ef4 6dbc 0ed2 fbba f2c0 63bd 9178 9ebd
00000090: 4c1a 86bd 58c2 f03c 1444 18be 75b9 85bd
000000a0: 57a9 6ebc f6a8 303e 86c6 f43d 8af5 643d
000000b0: 3777 80bc 3842 01bd 63c3 263e 8ad4 3b3d
000000c0: a645 0fbe 6b46 d13d b4f7 1bbe 59bb bf3d
000000d0: ff80 1b3e 56aa fc3e e3eb 92bc d78d 313e
000000e0: bb52 633d 2a90 a1bc 4a3c 8d3d 4648 99be
000000f0: 44e8 243e acab eb3d 0789 2fbe 0252 febd
00000100: 4322 313e 10ff a43d 56c4 5bbd 8a2c dc3d
00000110: 82f2 6bbf 6510 25be cbdf 18bd 7d30 0cbd
00000120: d7d5 7dbd b0e6 e53d c4a4 89bd c291 88bd
00000130: 9ae7 90bd d15d 723d b5c8 d1bb 4da0 153e
00000140: 9126 a2bd 3178 6ebe f737 3b3e 0134 1cbe
00000150: baab d4bd 5b39 243e 2aa6 1cb8 837a b23b
00000160: 1ea6 563e 482a 263e dc49 1ebd 8b79 b33d
00000170: 61bd 353a cbfe 34be 4e26 b13d 3af6 19be
00000180: 4e31 18be 2462 1cbe 0b35 8f3d 07b3 06be
00000190: e645 603d c89e e83d d117 fbbc cb55 1ebe
000001a0: e8f8 4d3d 1991 3abe b2f5 5d3d ad47 803d
000001b0: 702c 19bd cf06 cd3d 3c60 90bc 22e2 8fbd
000001c0: cc11 543d e4d5 bf3d c155 03be ae7a 813d
000001d0: 893c 34be e4ca 403d bb8b d63f 175e 973d
000001e0: da7c 1fbd e2b6 5e3d a9c0 39be 3d09 41be
000001f0: 6ada 983d c0ff bf3c f307 f73d 3082 2ebd
00000200: 3d3b 303e 277a 18be 6fb7 f83d 4846 973d
00000210: f8c3 de3c 5168 81bd 6c5b 8d3d 3eb8 3fbd
00000220: 9a07 e53b 94c2 c93d cc82 11be 2aaa bfbd
00000230: 90cb 9ebb 2fcc 6c3d 5001 e63d 280b 83bd
00000240: 86e4 1abe 40a6 a83d 972d 023e a52d bf3d
00000250: 440b f03c 719a 4e3e a2c0 ee3d f472 de3c
00000260: c756 e2bd 2b00 b23d cb99 08be e240 54be
00000270: 6cce 3f3d 220b 8abd 24d8 d3bc 0556 6bbe
00000280: 3f24 903d 29c4 e63d 7c33 24be e7b2 71bd
00000290: 0206 0bbe d197 e3bd 4f89 12be 3201 273e
000002a0: 8c60 c43f d8c3 6cbd 5081 92bc 9b66 203e
000002b0: 3945 cabd 447c 83bd 2107 023e d7f1 483d
000002c0: 49a8 c5bd 9164 ca3d 82ad 2c3d 9582 fbbd
000002d0: 79af 7dba dee7 19bc 3536 2b3e 8cc3 053e
000002e0: f051 a2bd 0a27 35b9 3c55 be3d 15fa 3d3d
000002f0: 62c7 e5bd ce95 f4bd b7e5 fc3d 8d8e a53d
00000300: be2a 933b 2f97 b33c 6551 083c 5fee a0bc
00000310: 5aec 4dbc c1fa 27bc 4fc4 debd 0344 103e
00000320: 4e7e fb3b e1a4 e8bd 7216 8d3d 6594 e2bc
00000330: 20a7 96bd 107f 353c 75b4 eabd c894 cf3d
00000340: 93a7 d0bd 7f56 d83c 4d10 a5bd d3bb 2cbc
00000350: 0514 22bd 39e9 b23d bbab 473d 5155 3cbd
00000360: e272 9dbd e4c4 36bc 9614 dbbf 5aea b63d
00000370: bca1 833d 62fc d7bc 60da e9bb 8cbe a83b
00000380: 8f52 68bd 7ab6 833d 6753 85bd dcc7 643c
00000390: 955e 9b3c b119 373d a85a 85bd c1ad e43e
000003a0: d600 73be b237 0e3e ee9e abbd 2630 dd3d
000003b0: a003 67bd a562 2b3e 60f0 383d 8b5f d0bd
000003c0: 5579 77bc 25ff 00bd 6954 39bd becd 46be
000003d0: 573a f2bc 6449 c13d 0894 a2bc 9a3d 4dbd
000003e0: dc13 aa3c cd47 fcb9 5253 cebd 56f9 f23c
000003f0: 4452 0ebe ef8f 02bf 0246 c23c 4898 673e
0.12788595 -0.15984222 0.051506627 -0.015672535 -0.11513848 -0.1835351 -0.042935744 0.12590297
-0.04481173 -0.030630095 -0.117692865 0.08158135 -0.014219157 -0.06916285 -0.14313802 -0.11073951
-0.037565824 -0.103766575 1.5037159 0.04792805 0.121942654 0.19872802 -0.094069414 -0.095100306
-0.041560087 -0.027245771 -0.076463535 0.08797588 -0.0015369407 0.071007155 0.16173334 0.28324547
-0.014523638 -0.0019212381 -0.05560393 -0.0773784 -0.065479845 0.029389545 -0.1486972 -0.06529514
-0.014566741 0.17251953 0.11951928 0.055898227 -0.015681846 -0.03155729 0.16285472 0.04585699
-0.13991413 0.10218509 -0.1523121 0.093619056 0.15185927 0.49348706 -0.017934745 0.17339264
0.05549882 -0.019722063 0.06896265 -0.29937953 0.16104227 0.11507353 -0.17142116 -0.124179855
0.17298226 0.08056462 -0.053654037 0.10750683 -0.9216691 -0.16119535 -0.0373228 -0.03422593
-0.06197151 0.11225641 -0.0672088 -0.06668426 -0.070754245 0.0591715 -0.0064021 0.14611931
-0.07917512 -0.23288037 0.18283068 -0.15254213 -0.10384317 0.16037504 -3.734805e-05 0.0054467334
0.20961806 0.16227067 -0.038644657 0.08763417 0.00069328217 -0.17675321 0.08649884 -0.15035334
-0.14862558 -0.15271813 0.06992539 -0.13154231 0.05475416 0.1135841 -0.030651005 -0.15462415
0.050286204 -0.18219413 0.05418939 0.06263671 -0.037395895 0.10011064 -0.017624013 -0.07025553
0.051774785 0.09366968 -0.12825681 0.063222274 -0.17601217 0.04706849 1.6761392 0.07390993
-0.038937427 0.05437363 -0.181399 -0.1885118 0.07463534 0.02343738 0.12062063 -0.042604625
0.17210098 -0.14890347 0.12144362 0.07386452 0.027193055 -0.06318725 0.06902203 -0.046806566
0.0069894316 0.09851566 -0.14210051 -0.09358628 -0.004846044 0.057811912 0.11230719 -0.06398612
-0.15126237 0.08234835 0.12712704 0.09334878 0.029302247 0.20176102 0.116578355 0.027154423
-0.11051708 0.08691438 -0.13339917 -0.20727876 0.04682772 -0.06740405 -0.0258599 -0.22982033
0.070381634 0.11267883 -0.16035265 -0.059008505 -0.1357651 -0.11112941 -0.14310192 0.1630905
1.5341964 -0.05780396 -0.017883927 0.15664141 -0.098764844 -0.06420186 0.12698032 0.04905876
-0.096512385 0.09882463 0.042157657 -0.12280766 -0.00096773315 -0.00939366 0.16719897 0.13062876
-0.079257846 -0.00017276048 0.09293601 0.046381075 -0.1121967 -0.119426355 0.12348502 0.0808383
0.0044911793 0.021922676 0.008320187 -0.019644914 -0.012568558 -0.0102526555 -0.10877287 0.14088444
0.007674969 -0.11359573 0.06889047 -0.02765865 -0.07356095 0.011077657 -0.11460201 0.101358
-0.10188212 0.026408432 -0.0805975 -0.010542828 -0.039569873 0.0873589 0.04874776 -0.0459798
-0.07687928 -0.011155341 -1.7115657 0.08931418 0.06427333 -0.026365463 -0.007136628 0.005149668
-0.05671936 0.06431289 -0.06510048 0.013963666 0.018965999 0.044702236 -0.06511432 0.44663814
-0.23730788 0.13888434 -0.08379923 0.10800199 -0.05639994 0.16736849 0.045151114 -0.101744734
-0.015104611 -0.031493325 -0.045246515 -0.19414422 -0.029568834 0.09437826 -0.019845977 -0.050107576
0.020761423 -0.0004811868 -0.10074486 0.029659908 -0.1389857 -0.51000875 0.023715023 0.22616684

bias f4 [50]
00000000: 65fb 55bd 09b9 1bbe 035f 093e 779b 103e
00000010: 8069 09be 9ea2 a03d e9e9 093e 6091 ef3d
00000020: b3bd eabe 6520 87bd 8ce2 fd3c f06c 853d
00000030: 0ec0 173e ba76 9bbd b519 043d ae56 2c3d
00000040: bf69 7d3d 270e b5bd 4108 f83d ff58 f6bd
00000050: 6dc0 d2be c879 41be 2192 48be ce80 a43d
00000060: 2eb4 9c3e baac b5bd d8b5 29be 3249 a63d
00000070: c66e b2bc 094b 3c3e dbe7 073e 0dfb bd3d
00000080: 7b14 ac3d 4643 ec3d caf2 c6bd a789 5e3e
00000090: eabd b6bd 978f b93d 79af ebbd 21cf f53d
000000a0: 9312 e53c 1355 74bd 25cc 173e 5d69 b53c
000000b0: 1985 3f3d 765f f03d 9907 18be 585d 013e
000000c0: cc8c 82bd 4433 e43d
-0.0522417 -0.15207304 0.1341515 0.14121805 -0.13419151 0.07843517 0.13468136 0.1169765
-0.45847854 -0.06597976 0.030991815 0.06514919 0.14819357 -0.07591005 0.03225108 0.04207485
0.061868425 -0.0884059 0.12110949 -0.120286934 -0.41162434 -0.18894112 -0.19586994 0.0803238
0.30606216 -0.088708356 -0.16573274 0.0811943 -0.021781337 0.18387999 0.1327204 0.092764
0.08402344 0.11536269 -0.09714277 0.21732198 -0.08922942 0.09060591 -0.11508078 0.12002397
0.027962958 -0.059651446 0.14823969 0.022144968 0.04675779 0.11736958 -0.14846648 0.12633264
-0.06374511 0.11142591

weight f4 [50, 50]
00000000: a9da 9fbc ddd7 aabc 4641 d9be cbaa dbbd
00000010: d768 ac3b 0baf 033e 9449 243c f82e cabd
00000020: c58a 0fbd c634 52bd 0c67 5f3c 00d6 b7be
00000030: 4ed5 0b3e 1f48 893d 6c1b 3abd 9dc8 49be
00000040: aabc 923e f1d2 d0bd a41a 98bd 8278 87bc
00000050: 0ffb b5bd a056 2a3e 43e0 adbb 0a62 223d
00000060: 4146 b03b e3cd 253e 5340 a43d eedf 8f3d
00000070: 99e5 0a3e b857 45be 587f 8ebd f06a 5a3e
00000080: 1ad7 1cbe f48e 93bd 3dda c73e b66e d33d
00000090: 9b3e a63e 984e 253e 040b b53d fc95 5cbb
000000a0: b641 7dbe b7f3 093e 696e e03d 9b4c 7e3c
000000b0: 578e 5bbe 6699 08be 34bf 553b 9625 40be
000000c0: 8f3f 56bc 4219 a23d 643d 033e 4a00 c73c
000000d0: 1577 3d3f b844 4f3e 2e32 1dbe 21f9 ac3d
000000e0: 5fdb 56be 24ea ce3d ccbc c7bc 4645 44be
000000f0: b12a dfbd 6efb 053f 5ae5 fabd 81a9 1a3d
00000100: 1128 98be cfb4 5fbd 14a5 143e 54db 6b3d
00000110: 14ef f0bd a328 18be 41ae 19be 9767 a5be
00000120: 56e3 ddbd 9271 2c3d 0cb0 023e a917 a7be
00000130: 0cf8 e8be 1bdd b23d 3f17 5ebe 336c 183f
00000140: 2854 a33e a2f7 23be 4b6c 693e 5372 183d
00000150: 9a52 0dbf 23f0 c4bd 531d 5bbe 9803 c8bd
00000160: ef50 403d e8ec 88bc 489e 863e e53f 55be
00000170: 959d 2f3d e467 953d 1934 dfbd 169f 9b3e
00000180: bb37 0b3c b84c 503e acec 463e 77d0 d83d
00000190: 51e6 f2bd b8a4 293e ddaf 0dbf a018 48be
000001a0: fffa 153f 581f 03be b6fd 763e 89ee b33d
000001b0: bf61 173e 5ca6 e03e 7d6e c0bc 386e e5be
000001c0: 6339 a83c b0ea babc dcba 493e a1b8 6abd
000001d0: 31bb d3bd bf48 7dbd 6ee2 f73d 9b3e 9f3d
000001e0: 8499 86bd b1c3 17bc a8d9 173e 44bf bd3d
000001f0: 2646 9f3d 587f ad3d 0560 ca3e 9691 2d3c
00000200: 16fa 813e d8d2 2ebf 06d1 c0be 87f7 853e
00000210: 22f1 4dbe 424f e33d 7c12 bc3e cb53 8f3e
00000220: 2882 583e d77b 753e f52f 45bd 19c4 26be
00000230: 5388 adbe 7d7f 083d 0302 c93c 5013 bbbd
00000240: cc10 16bc 0854 583e 3d46 eabd 1357 c9bd
00000250: b99c 9bbd ddd8 033e 3366 083e 760f 21be
00000260: bfbd 4f3e 4bd1 af3c 3419 b93b 52cf c0be
00000270: c972 44be 27e8 603c 3429 c53e da4e 15be
00000280: 7f89 d03e 04fc 6cbd e2aa c2be dbe7 92be
00000290: 3c61 55be 219e 88bd ed64 ef3d b2a7 00bd
000002a0: 44b3 823e 70b2 8b3c ba49 043f 7a2e 81be
000002b0: 355f e33e 4178 6b3e 48dc 43bf 0a5c ccbc
000002c0: a1e9 883d 7b25 04bc 63f4 14bd af43 0e3d
000002d0: 05db f5bc 5961 babe 7c84 e6bd a108 263e
000002e0: f5fd 393e 2177 19bf 5273 313d c91d b0bd
000002f0: 0c8a 0fbf e137 35be bfa2 10be 068f 2f3d
00000300: 7c73 1cbd b8fb f1bd e90b ddbe 64b6 0a3e
00000310: 03db 953e ef77 5d3c d828 68bd 7f61 343d
00000320: f1d7 dcbd 233d 153e 646e 23bf 9ec3 33be
00000330: d2f6 323e 7718 543d ed5f 5cbd e1b2 abbd
00000340: dd8f 693e e136 083d 96cf 29bd 2886 26bf
00000350: a725 10be 7132 90bd 0c6b a83e a55a b73c
00000360: a75c 5c3c b18b 44be ee79 333e 9696 493e
00000370: 6919 533e 29d3 513e be6a 143e 2116 0abc
00000380: 664f 30bd 4fd6 f93e 9613 023f 3b83 a13b
00000390: a09e 843c b90f 01bf eb76 9dbe d169 44be
000003a0: 7da0 48be 38b0 123d d474 303f 77e6 7b3c
000003b0: 0110 6e3e c7f5 ca3d b5ca 92bd 3907 073e
000003c0: 5405 cbbe c731 d53e d740 09bd fdef e93d
000003d0: 1aa6 3d3d a93c 48bd c22a c0bc 52e8 28be
000003e0: 9e30 92bd 3ba7 42be 5d78 143f f5d9 aebd
000003f0: f031 cd3e 29cf a13e 13ea 693e 1acc f3bd
-0.019513445 -0.020854885 -0.42432612 -0.107259355 0.0052615213 0.12859742 0.010027308 -0.0987224
-0.03504445 -0.05131986 0.013635408 -0.35905457 0.13655588 0.06703209 -0.045436308 -0.19705434
0.28659564 -0.10196484 -0.07426956 -0.016536955 -0.08885776 0.16634607 -0.005306275 0.03964428
0.0053794687 0.16191821 0.08020081 0.07025133 0.13564147 -0.19271743 -0.06957883 0.21329856
-0.1531643 -0.072050005 0.3903369 0.10323851 0.3246964 0.16143262 0.08839992 -0.0033658734
-0.24732098 0.13471876 0.10958559 0.015521194 -0.21441017 -0.13339767 0.0032615187 -0.18764338
-0.013076677 0.07914974 0.12816387 0.02429213 0.7400983 0.20241058 -0.15351173 0.08445955
-0.20982121 0.101032525 -0.024382018 -0.1916705 -0.108968146 0.52336776 -0.122507766 0.037759308
-0.29718068 -0.054615792 0.14516097 0.057582214 -0.117643505 -0.14859252 -0.15007879 -0.32305595
-0.108343765 0.042100497 0.12762469 -0.3263524 -0.45501745 0.08733579 -0.21688555 0.595401
0.31900144 -0.16012433 0.22795217 0.037218403 -0.55204165 -0.09616115 -0.21397905 -0.097663105
0.046952184 -0.016714528 0.26292634 -0.20825155 0.04287489 0.07295206 -0.10898609 0.3039481
0.008497174 0.20341766 0.1942622 0.105866365 -0.118603356 0.16566741 -0.5534647 -0.19540644
0.58586115 -0.12804925 0.2412022 0.08785731 0.14783381 0.43876922 -0.023490185 -0.44810653
0.020535177 -0.022816986 0.19700187 -0.057304982 -0.10338438 -0.061836954 0.12103735 0.07775613
-0.065722495 -0.009262965 0.14829123 0.09264997 0.07777052 0.084715545 0.39526382 0.010593792
0.25386113 -0.6829047 -0.37659472 0.2616541 -0.20111516 0.110991016 0.36732852 0.27993616
0.211434 0.23973022 -0.04814144 -0.16285743 -0.3389307 0.033324707 0.024537092 -0.09134543
-0.009159278 0.21125805 -0.11439178 -0.09831061 -0.07598252 0.12875696 0.13320236 -0.15728554
0.20287226 0.021462103 0.0056487564 -0.37658173 -0.19184412 0.013727224 0.38507998 -0.1458086
0.407299 -0.05785753 -0.38020998 -0.28692517 -0.20837873 -0.06670786 0.11689172 -0.031409927
0.25527394 0.017052859 0.51675 -0.2523077 0.44408575 0.22995092 -0.76508 -0.024946231
0.06685186 -0.008065577 -0.036365878 0.034732517 -0.030011663 -0.36402395 -0.11255738 0.16214229
0.18163283 -0.599474 0.04332287 -0.08599431 -0.5607002 -0.17697097 -0.14124583 0.042861007
-0.038196072 -0.1181559 -0.4317315 0.13546139 0.29268655 0.013517364 -0.056679577 0.044038292
-0.10783375 0.14574103 -0.6384032 -0.17555091 0.17476967 0.051781144 -0.05380242 -0.08383728
0.22808786 0.03325546 -0.041457735 -0.65048456 -0.14076863 -0.07040871 0.3289417 0.02238209
0.013449824 -0.19193913 0.17526981 0.1968635 0.20615162 0.20490707 0.14493844 -0.0084281275
-0.04304447 0.48796317 0.50811136 0.004928974 0.01618892 -0.50414616 -0.3075479 -0.19180991
-0.19592471 0.035812587 0.68928266 0.015374771 0.23248293 0.099101596 -0.071675695 0.13186349
-0.39652503 0.4163954 -0.0335091 0.11422727 0.046300985 -0.048885975 -0.023457889 -0.16494873
-0.07138179 -0.19009106 0.5799616 -0.08537666 0.40077162 0.31603363 0.22843198 -0.11904164

bias f4 [50]
00000000: 8383 003e 9735 f0bc e92e 33be 4150 02bf
00000010: 7b16 d5bd 21e3 3abd 0a88 c7bd 93ce 93bd
00000020: dc6a 88bc 9c7c 023c 6a65 b4bd 83d1 cabe
00000030: d84b 513e 7eb3 df3d 0c76 0a3e 1363 803d
00000040: 0c16 9bbd 61ff 1e3e 5228 31be 90d7 e73d
00000050: 5a41 973d c04f cabe 0ac5 a43d f889 413e
00000060: 870d fb3c 3f7c 853e d84e ab3d b6e3 ad3c
00000070: 9fbe 8ebe 62a5 ddbe 4db9 283f 4ec5 12be
00000080: bf33 c6be 106d af3d 5166 37be 07b0 b3bd
00000090: 30c4 59be 466f 5fbd e110 2e3e 9255 ab3e
000000a0: 3447 953e dc9a 1ebb 4da8 8b3e d451 ce3e
000000b0: 1b5d d93d 8140 2abc cd73 42be 09bf 27be
000000c0: 2923 8abc aec0 69be
0.12550168 -0.029322429 -0.17498364 -0.5090371 -0.104046784 -0.045626763 -0.09742744 -0.07217135
-0.016652517 0.0079642795 -0.08808406 -0.3961297 0.20439088 0.10922907 0.13521594 0.06268897
-0.075725645 0.15527107 -0.17300537 0.11320412 0.07385512 -0.3951397 0.08045395 0.18900287
0.030646099 0.26071355 0.083646476 0.021226745 -0.27879807 -0.4329024 0.65907747 -0.14333078
-0.38711354 0.08565724 -0.17910124 -0.08773809 -0.21266246 -0.054549478 0.16998626 0.33463722
0.29155886 -0.002420119 0.2727684 0.40296805 0.106134616 -0.0103913555 -0.18989487 -0.16381468
-0.016862469 -0.22827408

weight f4 [50, 50]
00000000: 1ab2 423b 84a6 31bd b2fb c53e 6e8a 803d
00000010: 7b24 253e 8d76 6e3e 7cdf 00bd 89e7 923e
00000020: c98f 613d 260e 8bbe daa2 1c3d 76c1 0f3e
00000030: 1fd5 0abe 8154 a2bd 9419 033b 349b 7dbd
00000040: a5a2 233c bcb0 02bd ed22 103e e640 71be
00000050: cddb e43d cebf 573e b39f 09bf 367a ca3c
00000060: 5f7e 633c 4fd9 acbe 4559 69be 933d 5bbe
00000070: d6b6 ba3e e8b9 79bd 35aa 49bd 743a 5a3d
00000080: e21d 0d3e 52a9 e43d 903c a2bd 30a6 023d
00000090: 05aa 87be 1ece 123e 9053 87bd 9ae3 14be
000000a0: af2b 0bbf 979b 9bbd 8fde 25be 4490 a43c
000000b0: f304 bbbd 0f63 b83e c00e 12be 313b 9d3e
000000c0: 838e 9a3e 164b 83bd bcf4 b53e 3023 c9bd
000000d0: a1d2 dcbc e341 a23f 33fb 4f3e 7151 fdbd
000000e0: 45de 4cbd 9b3f 3cbe 7e25 013e f803 39bf
000000f0: b9dc 52be c13e 5c3f 1a1f 2abe 6625 e7be
00000100: 2697 ebbd e5c5 91bb 678b db3e 80ff b6bd
00000110: b170 b8bd ca4d eebc 2bed a3bd 57f7 313f
00000120: 0b9e 88bd 7c19 04bd b7aa 03be ce3d 7bbe
00000130: ff7f 0f3e 2b1a b73d 87cc 6a3e 06cf 083e
00000140: ef2f a7bf 1b4e 4c3d 0ac2 153f 12cf 003e
00000150: b64e d83d a0bd 493e 38a8 bebd 46b6 8abe
00000160: 4d8d 2f3a 0454 bbbd 57e8 0cbe eb41 1abf
00000170: 36c6 4bbd bc5f 52be 1386 05bc 6cd2 8b3d
00000180: 3261 8b3c bbb9 053c aca9 aebd ce1f 3f3e
00000190: d8b6 43be 4d39 85bc d240 803c fbb7 9abf
000001a0: 2fca 59be 3982 433e 50c2 1bbe 9989 063d
000001b0: 500c 193e 8b2b f53e e9c8 0d3e 2408 4bbf
000001c0: 941d a83e 59dd 023f 681a 6f3e fdc5 843e
000001d0: 3b64 b1be 5228 ac3d d34f c13d ff12 463e
000001e0: 5dcb 7dbd ad57 0fbf e03e 203e 4125 743e
000001f0: 96f0 713e 7c27 bd3e 29ed fc3c 6b44 043d
00000200: a506 56be e94f 9bbe 8eee b83f 0988 a83d
00000210: 55b1 f9be c45b a63d 3cec 8f3c 4ae7 9dbd
00000220: 6e6f 71bd e21f bb3d 1507 c5bd 76e7 853e
00000230: adea d43d 84b2 ad3e d11f 993e 37a6 da3e
00000240: ee1a 2e3e c345 ec3d d33d 58be e72f 2ebd
00000250: ef4e ef3c 823f 53be ecaa f03d 1655 863e
00000260: 6e56 d0be b97c b3be 00e3 a7be 1552 5cbd
00000270: a22c 43be 2ae1 b1bd b3fa 1e3d 5fc4 613e
00000280: b3e6 0a3e 2239 b5be 3164 833e a332 6e3e
00000290: d78a 133d 2f2c 183e 3435 7cbd 9218 483d
000002a0: ddc5 17be f9fe 903e 6d90 b83c e6a3 2a3d
000002b0: 963b 9e3e 6a98 043e 81ec 193e d15b aa3e
000002c0: b3d8 a43e 4c6d c43d 9155 06bf 3f40 36be
000002d0: e18b 103e 3485 a1be b878 26be 6466 f33d
000002e0: b176 36bb 3747 a0bd 1492 4c3e 823b 873b
000002f0: 9020 05be ba80 153f 5919 083f 889a 293d
00000300: 31be 153f e6ee 833e 93c5 293e 495c a5bd
00000310: 2eae 06be 9918 57be 2c49 a0bd bbf3 05bd
00000320: 910c 92bc abd5 e13e 1dff d1be 810c 663c
00000330: c5eb 8dbe dfc5 18bd 1124 1d3e fb3c 49be
00000340: 907c afbe 9277 013e 5bdf 5a3d bfa2 0e3e
00000350: 109e a43e 6f7e d0bd f50a 33be 2ea0 243d
00000360: 2faf fb3b 9409 663c 2492 0dbc 94fb ca3e
00000370: f5ca 5cbe 7a25 453d 6363 b13e 0582 00be
00000380: 1336 be3c d274 273e 7e79 ae3e 52b1 873e
00000390: d135 85be 74a1 f23d 78ff 1ebe 3a9c 963d
000003a0: c764 ba3d 974d 59be a3c2 663e a21c 0a3e
000003b0: b135 953e 3fcb 693e c86a 01bd 6d76 223e
000003c0: 6b5d 3a3e 8bdb 423e a5cd 953e 61f0 1cbe
000003d0: 6cf0 253e 3e6f 37be f74c 8e3e 3a1b 3ebe
000003e0: 992f 08bf 87d8 783e 37cb 10be c73f 6abd
000003f0: e2c6 1d3e 239d 403e 51e7 d3bd 837f eb3e
0.0029708208 -0.043371692 0.3866859 0.06276403 0.16127197 0.23287411 -0.03146313 0.28692272
0.055068765 -0.27159232 0.038241245 0.14038643 -0.13557862 -0.07926274 0.002000426 -0.06191559
0.009987508 -0.03190683 0.14075823 -0.23559913 0.11174736 0.21069261 -0.53759307 0.024716478
0.01388511 -0.33759543 -0.2278796 -0.21410207 0.36467618 -0.06096831 -0.049234588 0.0532784
0.1378093 0.11165108 -0.07921708 0.03189677 -0.26496902 0.1433644 -0.06607735 -0.14539948
-0.5436353 -0.07598036 -0.1619818 0.020088322 -0.09131803 0.36013076 -0.14263439 0.30709222
0.30186853 -0.06410806 0.3553828 -0.098211646 -0.026955904 1.2676357 0.20310669 -0.12369049
-0.05001666 -0.18383639 0.12611958 -0.7227168 -0.20592012 0.86033255 -0.16613427 -0.4514572
-0.11503439 -0.0044486397 0.42879793 -0.089354515 -0.09005869 -0.029089827 -0.080042206 0.69518036
-0.06670769 -0.032250866 -0.12858091 -0.24535295 0.1401367 0.08940538 0.22929583 0.13360223
-1.3061503 0.049879175 0.58499205 0.12578991 0.10561888 0.19701242 -0.09309429 -0.2709219
0.00066967757 -0.09146884 -0.13760506 -0.6025683 -0.049749576 -0.20544332 -0.008149642 0.06827244
0.01701412 0.008161957 -0.08528456 0.18664476 -0.19112718 -0.016262675 0.015655909 -1.2087396
-0.21268533 0.19092645 -0.15210843 0.032846067 0.14946103 0.47884783 0.13846172 -0.79309297
0.32835066 0.51119 0.23349917 0.25932303 -0.34646782 0.08406128 0.094390534 0.19343184
-0.06196152 -0.5599316 0.15648985 0.23842336 0.23626933 0.36944187 0.030874806 0.03229181
-0.20900972 -0.30334404 1.4447801 0.08229072 -0.48768106 0.08122972 0.0175687 -0.077101305
-0.05894416 0.091369405 -0.096204914 0.26153153 0.10396323 0.3392526 0.29907086 0.42704937
0.1700246 0.115367435 -0.21117334 -0.042526152 0.029212443 -0.20629695 0.11751351 0.2623679
-0.4069094 -0.35056093 -0.32790375 -0.053789217 -0.19059995 -0.08685525 0.038813304 0.22047566
0.13564567 -0.3539515 0.25662377 0.23261504 0.03602108 0.14860605 -0.061574176 0.048851557
-0.14821573 0.2831953 0.022529805 0.041660212 0.30904835 0.12948766 0.15031625 0.33273175
0.32196578 0.09591159 -0.52474314 -0.17797945 0.1411586 -0.31546938 -0.16256988 0.11884764
-0.0027841742 -0.07826083 0.199776 0.004126967 -0.13000703 0.58399546 0.5316368 0.041407138
0.58493334 0.25768203 0.16579275 -0.080742426 -0.13152382 -0.21005477 -0.078264564 -0.032703143
-0.017828258 0.44108328 -0.41014948 0.014041067 -0.2771894 -0.03729808 0.1534579 -0.19652168
-0.3427472 0.12643269 0.053435665 0.1392927 0.32151842 -0.10180365 -0.17484649 0.04019182
0.0076807956 0.01404037 -0.0086408 0.39645064 -0.21561797 0.048131444 0.3464614 -0.12549599
0.023219144 0.16353157 0.34077066 0.26502472 -0.2601762 0.11847201 -0.15527141 0.073540166
0.09101253 -0.21221004 0.22535186 0.13487485 0.29142526 0.22831438 -0.031595975 0.15865488
0.18199699 0.19029061 0.29258457 -0.15326072 0.16204995 -0.1791353 0.27793095 -0.18565074
-0.5319763 0.24301349 -0.1414002 -0.05718973 0.15407899 0.18809943 -0.103468545 0.4599572

bias f4 [50]
00000000: 58cf 613d 8f77 bbbf 6130 b33f d752 a93e
00000010: 095e dabd 64d2 55be 9586 cf3d de84 01be
00000020: 0554 853d 3abc efbd ec1a d7bf a4c8 963f
00000030: f264 aabd 5fd0 a4bd fbcb c3bd 71b5 473e
00000040: 73b7 ac3f 053f 8a3c 4fb2 d3bf c909 a43f
00000050: 48ed 8bbd 2ffb f23c ce18 723d c8ad 74bd
00000060: 5329 5bbd a23d 7dbf 74a3 9b3f d345 f7bc
00000070: 301a bb3e f46d efbd 87a1 b63f 32df 1b3e
00000080: a87f 783d 6cfe b83f decb 273e 0804 003e
00000090: 9a5c a13d 3090 42bc aba8 473f d193 2ebd
000000a0: e897 46bd 2c59 b03b 5da7 aebf cd2c 90bd
000000b0: a91e b03d 5993 053f f7d3 e63d ca5e cabd
000000c0: 912f 483d 70a6 9dbe
0.05512938 -1.4645861 1.3999139 0.33071014 -0.10662467 -0.20881039 0.10133091 -0.12648341
0.06510166 -0.11705823 -1.6805091 1.1779981 -0.08320035 -0.08047556 -0.095603906 0.19502808
1.3493484 0.016875753 -1.653879 1.2815486 -0.06832367 0.02966079 0.059105687 -0.059736043
-0.053506207 -0.9892217 1.2159257 -0.030184662 0.36543417 -0.11690894 1.4268044 0.15221861
0.060668617 1.4452643 0.16386363 0.12501538 0.078789905 -0.011875197 0.7799174 -0.042621437
-0.048484713 0.005381724 -1.3644825 -0.07039795 0.08599598 0.5217796 0.11270898 -0.09881361
0.048873488 -0.30791044

weight f4 [3, 50]
00000000: 1fcf debd bf20 fd3c 7fe0 ea3d 58a9 463e
00000010: 441f 1e3e 0923 583c 4bc9 b63c 4602 02be
00000020: 4ffe 0bbe 708a 4dbe a53f e33b 47ca 1b3e
00000030: b14a a83b bccb 70be 7792 06be 69f6 bdbd
00000040: 1180 babd 82a0 44be db41 273c 6d6f 7a3d
00000050: 9f77 2a3e 009e 4f3a d754 9d3e 2a60 1ebd
00000060: 0ff9 af3d e563 fdbc 52eb b43d 0234 3fbe
00000070: 39a0 3e3e 9e6e 8e3d 412d 7ebd fd77 113e
00000080: 0c48 633e 89db 81bd 0b62 cd3e 0855 17bd
00000090: e672 d93c 2bdd 063c 0065 e43d 4eb9 9cba
000000a0: b2c2 eebb d39b da3d ce9c ab3d 7ff0 443a
000000b0: 9f7d c43d 030c ed3d c26f 1b3b c9c5 983b
000000c0: ad52 95bb 702b 77be ebb0 e939 1651 3c3d
000000d0: 6c2b 50bc 81d9 5eba 9308 c2b8 e51b c3b8
000000e0: a248 b939 8d8d 0f39 9705 8c39 6950 2539
000000f0: f498 d63d 7bc1 453b eddf 64ba 5931 5138
00000100: 59ed afb9 8f9d 2337 e682 383d 98f4 a9b6
00000110: df80 c0bd 028a 9c3d f06a 5237 a14e a139
00000120: 8477 a2b8 9909 00ba f9fe 62b9 e2f4 f4b8
00000130: 4309 a23c 266c 06ba 578f 9b38 ae75 523a
00000140: b865 283d 4713 aeb9 d675 aeb9 f082 c9bd
00000150: 4314 35b8 d2d6 8539 a2ea 86ba bfa9 9f3a
00000160: 3a75 1fb9 5dcd 6f3a 78cf 8fb5 5697 0fb9
00000170: bb75 5bbb 837e d339 a923 c939 7dec 6bb8
00000180: a98d 823a ea91 143a 8c40 1dbb 26d6 90ba
00000190: aa68 f1bc 387c 38be d00f 7e3e 9530 a43c
000001a0: 246c fe3d 4351 733d c28c a53b e068 2d3d
000001b0: 7d15 d13d 40d4 233e dbe0 88be 86f2 643e
000001c0: 3a05 c73b 7f93 af3d 01db 2c3e 3305 f4bd
000001d0: 786e 4d3e a807 503e 6bc6 35be bd12 023e
000001e0: 8a2b 67bd d5d7 ad3c d8ee 38be 3943 18bc
000001f0: dc30 1dbe 02b5 b3bd efef 513e fc19 51bd
00000200: ec0a 6a3d c1c7 7bbc d3c4 703e 9ef3 333d
00000210: 6060 30bd d539 763e 5159 a8be 1461 203c
00000220: c078 27be 8868 4a3c 66b0 273d 8c2e 03bd
00000230: 1782 b7bc a79c c03c d044 86be 60a2 db3a
00000240: 87af 8cbd 5b13 803d 9a51 3c3c 3620 8dbd
00000250: d0c3 703b f3b0 2bbd
-0.10879349 0.030899404 0.114686005 0.19400537 0.15441614 0.013191947 0.02231278 -0.1269618
-0.1367123 -0.20072341 0.0069350773 0.15213881 0.005135857 -0.23515218 -0.1314181 -0.09275515
-0.09106458 -0.19201854 0.010208572 0.06114142 0.16647194 0.0007919967 0.3072879 -0.038665928
0.08592426 -0.030931422 0.08833946 -0.18672183 0.18615808 0.06954692 -0.062054876 0.14205928
0.22195452 -0.06340701 0.40113863 -0.036946326 0.026544046 0.0082314415 0.11152077 -0.001195708
-0.007286393 0.10674252 0.083795175 0.00075126434 0.09594273 0.11574557 0.0023717736 0.0046622497
-0.004556975 -0.24137664 0.00044573037 0.045975767 -0.012705665 -0.00085010385 -9.252238e-05 -9.30352e-05
0.00035340065 0.00013690274 0.00026707046 0.00015765581 0.10478392 0.0030175138 -0.00087308773 4.987544e-05
-0.0003355544 9.752242e-06 0.04504671 -5.065067e-06 -0.0939958 0.076435104 1.2541874e-05 0.00030766896
-7.7470235e-05 -0.00048842427 -0.00021648024 -0.0001168044 0.019779807 -0.00051278097 7.417675e-05 0.00080284
0.04111263 -0.0003320223 -0.0003327566 -0.098394275 -4.3172633e-05 0.0002552779 -0.0010293315 0.0012181326
-0.00015207092 0.0009147728 -1.0714712e-06 -0.0001369392 -0.003348692 0.00040339315 0.00038364276 -5.6248613e-05
0.0009960431 0.0005667495 -0.0023994772 -0.0011050149 -0.029468853 -0.18016136 0.2481072 0.020042697
0.1242297 0.05940367 0.00505218 0.042336345 0.10209177 0.15998936 -0.2673405 0.2235814
0.006073621 0.085730545 0.16880418 -0.11915054 0.20061672 0.2031542 -0.17751472 0.1270246
-0.056438006 0.02122108 -0.18059862 -0.009293371 -0.1535067 -0.08774759 0.20501684 -0.05105017
0.057139322 -0.015367449 0.23512582 0.043933503 -0.04306066 0.24045499 -0.32880643 0.00978877
-0.16354656 0.012354024 0.04093971 -0.032026812 -0.022400899 0.023512198 -0.26224375 0.0016756766
-0.06869417 0.06253692 0.011494065 -0.068909094 0.0036737807 -0.0419168

bias f4 [3]
00000000: a68e 80bd ddbf aabc cc0d 6a3e
-0.06277208 -0.02084344 0.22856826
