基准测试/model_add_247.pt (torch, 104715 bytes, 30 tensors)

linears.0.weight f4 [50, 3]
00000000: 6463 0fbf a326 1fbe 14d9 88bf f9dc f7bf
00000010: 266e 95bf 40fc 0bbf dc5a a13b 24c5 30ba
00000020: 047a b9bd 6962 8fbf dbc0 ee3d c162 a3bf
00000030: eb72 023f ed3d cf3e 76d7 fc3f 9fa8 1f3f
00000040: 16d1 aa3f cb4d 8b40 71d9 e3bd b310 9e3b
00000050: ad76 a4bf a61f d8be c3bd e53b 5257 a4be
00000060: a6a8 93be 1772 e4bc 361b 12c0 81be 6dbf
00000070: de8c 1f3f 9b85 89c0 bbc6 3ebf 48ec 96bf
00000080: 7565 00c0 8579 583f 1b2e 5741 7fac f240
00000090: 0fc0 a83e 6dfb 5dbd 89da a23f a5d8 193f
000000a0: 6a8c f33e be7e 3b40 d090 1abf 17a0 ccbe
000000b0: 1bf4 21bf f0be 673e b2cb b13e 04a9 413f
000000c0: 6765 9ebf 6231 4dbf 0afb 15c0 8a4e 60bc
000000d0: 6020 4db6 c0ff 9ebd bab7 13bf 0de7 64bc
000000e0: 7bb2 81c0 e7a2 963f cc32 4f3f 06a0 c43f
000000f0: d365 ae3f 8676 50bf ef9e 9f40 e61c 9f3d
00000100: fb6c 033d 6cf2 dd3f 296b f3bf 9741 04bf
00000110: 5103 dbbf c78d 893d bc93 9c3d c59d 473f
00000120: 93ec bfbe ff43 8fbe 44a1 e6be 4baf 7dbc
00000130: 4695 2c38 4a74 e53d 3c0a 473f f03b 123f
00000140: b93f 0040 44dd 09bd 5d6b d33c 92a4 0fbe
00000150: f506 3dc0 3d8b 81be 6c57 92bf 8804 ffbc
00000160: 55d3 cfbc 0290 b4be 4324 18bf f6a7 bdbe
00000170: 7515 29c0 d36f b4bd 4a17 343e babb dabe
00000180: 486b 2b3e b689 343e 2133 983e 5206 4ebf
00000190: 789b a63e bc33 85c0 049f c1c0 8686 b4c0
000001a0: 84d8 cfbf 9cb6 cb3f 8525 bf3f 91cd a33f
000001b0: 875c 64c0 6824 e0c0 eaea d4bf 3988 a03f
000001c0: 712f cb3f 9985 a73f c15d 1dbf 077c eebe
000001d0: 37e1 8cbf abfa 1dbd 0bd5 0d3d 8eb1 69be
000001e0: 6855 3040 c303 4f3e a96d 893f 5620 833c
000001f0: 1d9b 2e38 cbd2 abbe 0870 ca3e 790d 993f
00000200: 8148 e83f e6fd be3f 1c00 483f 067a e53f
00000210: 3ef8 e9bf f18e cbbf a671 e0bf 0a1b 2e3e
00000220: 2a74 e23e 9fc6 163f 3878 e83e 02f1 eb3e
00000230: 4e4f c83f b3d0 8c40 de48 8540 1b04 2941
00000240: 0ae4 6840 b542 52ba b051 073c 841c 1fbf
00000250: ff2a 23bf 088c 6cc0
-0.56011033 -0.15542082 -1.0691247 -1.936431 -1.167424 -0.5468178 0.0049241614 -0.00067432434
-0.09056476 -1.1201907 0.11657878 -1.2764512 0.509566 0.40476933 1.9753253 0.6236667
1.3345058 4.353246 -0.11125458 0.004823768 -1.2848717 -0.42211646 0.0070111468 -0.3209787
-0.28839606 -0.027886434 -2.2829108 -0.9286881 0.6232432 -4.2975593 -0.7452199 -1.1790857
-2.0061924 0.84560424 13.448756 7.5835567 0.3295903 -0.054194856 1.2722942 0.600962
0.47568065 2.9296107 -0.60377216 -0.3996589 -0.632631 0.2263143 0.3472572 0.7564852
-1.2374696 -0.8015348 -2.3434472 -0.0136906 -3.0566225e-06 -0.07763624 -0.5770222 -0.013971102
-4.053037 1.1768464 0.80936885 1.5361335 1.3624824 -0.8143085 4.988151 0.07769184
0.032086354 1.7339606 -1.9017078 -0.5166258 -1.7110387 0.06716495 0.076453656 0.7797511
-0.3748518 -0.27981564 -0.4504491 -0.015483688 4.1147017e-05 0.11203821 0.7774999 0.5712271
2.0038893 -0.03365828 0.02580803 -0.14027622 -2.9535496 -0.25301543 -1.1432929 -0.03113009
-0.025369326 -0.3526612 -0.5943033 -0.37042207 -2.6419346 -0.08810391 0.17587009 -0.4272135
0.16740143 0.17630658 0.29726508 -0.80478394 0.32540488 -4.162565 -6.050661 -5.6414213
-1.623795 1.5915103 1.4933325 1.2797109 -3.5681474 -7.004444 -1.663419 1.2541572
1.5873853 1.3087646 -0.6147118 -0.46579 -1.100623 -0.038569134 0.034627 -0.22821638
2.7552128 0.20216279 1.0736591 0.01600663 4.1629293e-05 -0.3355926 0.39538598 1.1957237
1.8147126 1.4921234 0.78125167 1.7927864 -1.8278883 -1.5902997 -1.7534683 0.17002502
0.4422925 0.5889682 0.4540422 0.46082312 1.5649202 4.400476 4.165145 10.563502
3.6389184 -0.00080208044 0.008259222 -0.62152886 -0.6373748 -3.6960468

linears.0.bias f4 [50]
00000000: 8b26 98c0 cbea 2741 21b5 0f41 e835 51c0
00000010: 3a2a 0dbf 0759 0f40 0377 e340 0539 8b40
00000020: ce12 bc40 f5e1 ca40 a78a 8fc0 ce1f 40c1
00000030: fc1a 6640 d266 c4c0 6f8b 9bc0 4b6e 9140
00000040: 0e8c 99c0 3aee d740 fb13 2240 8e8d 2d40
00000050: fb2b 81c0 692a 60c0 892b 9940 d86f 97c0
00000060: 017e 94c0 74d6 d240 b340 09c1 9ac9 8940
00000070: 71c3 d740 f4f2 86be 47a6 23bf 65f1 3e40
00000080: 7869 dcc0 0a29 7440 bb65 7740 9640 eec0
00000090: 5331 9740 ba49 8b40 2600 d940 9f0a f440
000000a0: 5e86 cbc0 d528 cec0 0f12 c5c0 29a3 d9c0
000000b0: a182 fc40 8cd7 c9c0 ab4e a040 e3d5 ccc0
000000c0: b4e1 1b40 00ca c240
-4.754705 10.4948225 8.981721 -3.2689152 -0.5514256 2.2398088 7.108278 4.3507104
5.8772955 6.3400826 -4.4856753 -12.007765 3.595397 -6.1375513 -4.8607707 4.5447135
-4.7983465 6.7478304 2.5324695 2.7117648 -4.0366187 -3.5025885 4.7865644 -4.732403
-4.6403813 6.5886784 -8.578296 4.3058596 6.7426076 -0.26357234 -0.63925594 2.9834836
-6.8878746 3.8150048 3.8655841 -7.445384 4.724771 4.35275 6.781268 7.6262965
-6.3601522 -6.4424844 -6.1584544 -6.801167 7.890946 -6.307562 5.009603 -6.401109
2.4356508 6.087158

linears.1.weight f4 [50, 50]
00000000: 2d1f 033f f496 f63d 67c6 8b3f a61a 903e
00000010: 2961 383c dadb 25be a8e0 1cbe ec43 19be
00000020: 0352 6dbe ac1a 14be 294e 7e3e e3d7 6abf
00000030: d483 fcbe d6ed 1bbd 629d 0b3f d09f 73be
00000040: 4fcd 1e3f 1f6e 9fbe 5adb d63e 5844 f0bd
00000050: 4a17 3bbd b549 f33e fd7b 363e c24f 1740
00000060: c2c2 603f 3a6e 4a40 d8de 58be fdf7 93bf
00000070: d441 c3bd 0df4 28be 3cdc babe f5fc e8be
00000080: 5b9f 17bd 25a5 7b3e 20a5 6e3f fddf 233e
00000090: 67bf 6e3f ade0 31bf e4c7 cf3c 6718 b9bd
000000a0: 8c9e fa3c 6bd6 6cbf ea27 59be 3503 623d
000000b0: 2085 d9bd 7150 efbd 5570 35bf a186 53bf
000000c0: 337a 17bf 2577 5abe 8a79 86be 75c8 0c3f
000000d0: 3afe 9b3f f8c7 86be 8120 96be c3d0 a63e
000000e0: cf7c 3fbd 7a55 2bbd d8d9 ffbd 5fe2 0fbf
000000f0: 8e0a b33e 6e2e 0abf 8f6e bf3e 92c7 50be
00000100: 454b d03c 63be b5bc 1a21 493e fce0 0dc0
00000110: 29ff d33e e3d6 94bd 72e6 46bf 36fc d8be
00000120: f466 d43e 8ca1 13bf e785 ac3c f1a3 3a3f
00000130: d6c3 bcbe 7089 3ec0 8601 353e d7da 023e
00000140: 9345 4b3f f4ac 4fbe ed65 a83d 1d68 2d3e
00000150: 7869 8cbf ab58 08bd 5962 f53c 1692 babd
00000160: 4073 2f3e e307 7fbd 0b5b 0abe b299 5fbf
00000170: 0adb 763e 4715 18bd 6972 633f c5d9 0bbe
00000180: 83dd d93d 43ff 15bf be81 13be cc62 ae3e
00000190: 948d 4dbe 1ebd 733e b5c4 de3d e993 b53f
000001a0: 4353 0b3f e5f9 8a3e de2d e6bf 3db7 28bf
000001b0: e9f3 28bf 8f4e 6fbf 3cb8 84bd f79c a13e
000001c0: d6b9 89bd fa0d 043e 59ea 40be 7413 873e
000001d0: 33b4 d03c 263a d5be 2c6c ee3d f9a9 2b3e
000001e0: f5c2 b33e 37c2 123f 3865 8bbd 933d 2f40
000001f0: 4c9f 51be 243b f73e 0ee3 973d f5d7 bebf
00000200: 6644 e6be e18d 3dbe 0a6c e83d 78e5 bebe
00000210: 5001 303f 9e86 bbbd b3b0 123f 6786 0ebe
00000220: a52c 9dbe 8cbe 4e3e 0b00 a5be 6aff c2bf
00000230: a813 aabe ce52 8dbf b690 f0bd e5ca 8abd
00000240: 491d e03c 1b54 203f bfcb 90bd 27db ab3d
00000250: 0b06 ee3d af04 b2be b8a6 61be c6ab ab3c
00000260: efa4 293e 1cdc 98be adbb 45be 534a 253d
00000270: 0237 3cbe 5f42 19bf b570 5cbd 3b7f fa3e
00000280: 4787 9ebe a732 02bc 84c0 4e3f f56b e13d
00000290: befb eebd 1e2d 293e ac8a 543e 880c 7640
000002a0: 6ca7 21bd 72d2 0dbe 4a46 af3d 8fa1 473a
000002b0: e1b3 abbd 824d 42bf 7d4a b4be ef0a 8c3f
000002c0: e45e 0fbc 2ea2 35bf ab56 433d 8c54 9fbd
000002d0: ef64 5f3b f825 4f3e 9a18 44be 4f88 923d
000002e0: 56c2 d3bd 3c46 b2be 81a3 67be 4e28 b73e
000002f0: 99f2 843e efce 7c3e a872 bfbd 6ac3 b0bf
00000300: 75b9 62be 7f6a c0bd 1a71 5dbf a860 503e
00000310: a288 88bd 6500 253e 1b48 a93d 7f36 6abb
00000320: 4bcc 9b3d cdb8 8ebe 9e94 1ebe 916b 3bbe
00000330: e49f 893e 8890 a6bd e64b 49bd e780 a1be
00000340: 46aa 493e f995 c5be 1b96 b93b 8d78 d7bd
00000350: ee10 9e3e 25c5 dcbd 9132 8dbd a5b3 46be
00000360: 3687 293e a5a3 a7bf 3bd5 013e b2b3 313d
00000370: 9f4a 263d 5e7b 9b3e 7e11 893d 375e 0e3f
00000380: 7f9f 37be 1041 433f 0e3e 703e b116 75bf
00000390: 8b2c 21be b5b8 b33e 52e4 a0bd 777c 3c3d
000003a0: a0fa 503d 9fbb 053e c19b f3bc d9a4 76bd
000003b0: e1e7 e73d b9d9 82bc 3f20 803d e01e 95bd
000003c0: 66e3 673e 221e 59c0 f6e4 3a3d aa77 5e3e
000003d0: 508a 34be 3a98 acbd 27f3 203e 571f 4ebd
000003e0: dc15 bfbd 665b 7cbe e6e2 a93d 1613 673d
000003f0: b0d9 fe3d 47b5 1a3e d1e6 1f3e f778 563a
0.51219445 0.12040511 1.0919923 0.2814533 0.011253634 -0.16197148 -0.15320075 -0.14967316
-0.23175816 -0.144633 0.24834503 -0.91735667 -0.49319327 -0.038068615 0.5453702 -0.23791432
0.62032026 -0.31138703 0.41964227 -0.117317855 -0.045676507 0.47517172 0.17820735 2.364243
0.87797177 3.1629777 -0.21178758 -1.1560055 -0.0953404 -0.16499348 -0.3649615 -0.4550549
-0.037017208 0.24574716 0.9322071 0.16003413 0.93260807 -0.69483453 0.02536387 -0.090378575
0.03059318 -0.92514676 -0.21206632 0.05517884 -0.10621095 -0.11685265 -0.7087453 -0.826273
-0.59170836 -0.21334513 -0.26264602 0.54993373 1.2186959 -0.2632444 -0.29321674 0.32581148
-0.046749886 -0.041829564 -0.12492722 -0.5620479 0.3496899 -0.53977096 0.37389037 -0.2038863
0.025426516 -0.02218551 0.19641533 -2.216857 0.4140561 -0.07267549 -0.7769538 -0.42379922
0.41484797 -0.57668376 0.021059943 0.72906405 -0.3686816 -2.9771385 0.17676362 0.12778793
0.79403037 -0.2028082 0.08222566 0.16934247 -1.0969687 -0.033287685 0.029954122 -0.09109895
0.17133808 -0.06226338 -0.13511293 -0.87343895 0.24106994 -0.037129667 0.8884645 -0.13657291
0.10637953 -0.58592623 -0.14404961 0.3405975 -0.20073539 0.23802611 0.10877363 1.4185764
0.5442392 0.2714378 -1.7982748 -0.659046 -0.6599718 -0.93479246 -0.064804524 0.31565067
-0.067248985 0.12895957 -0.18839397 0.2638203 0.02547655 -0.41645926 0.11641726 0.16764058
0.35109678 0.573276 -0.06806415 2.7381332 -0.20470923 0.48287308 0.07416354 -1.4909655
-0.4497406 -0.18511154 0.11348732 -0.37284446 0.68752 -0.091565356 0.5730087 -0.13918458
-0.30698124 0.20189875 -0.32226595 -1.5234196 -0.33218122 -1.1040895 -0.117463514 -0.0677698
0.027357714 0.62628335 -0.070701115 0.08391409 0.11622246 -0.34769198 -0.22036254 0.020955931
0.16566823 -0.2985543 -0.19309874 0.040354084 -0.18380359 -0.598669 -0.053818423 0.48925194
-0.30962583 -0.007946647 0.80762506 0.11006919 -0.1166911 0.16521117 0.20756024 3.8445148
-0.039466307 -0.1384981 0.085583284 0.00076153217 -0.083839186 -0.7589952 -0.3521308 1.0940837
-0.008750651 -0.7095059 0.047690075 -0.07779798 0.003408726 0.20229328 -0.1915001 0.07154905
-0.10339801 -0.3481921 -0.22620966 0.35772938 0.25966337 0.24688314 -0.09348041 -1.3809636
-0.22141059 -0.093953125 -0.86500704 0.20349371 -0.06666686 0.16113432 0.08265706 -0.0035738049
0.07607325 -0.27875367 -0.1548638 -0.18302752 0.268798 -0.08133036 -0.049144648 -0.31543657
0.1969386 -0.38590983 0.005663646 -0.1052104 0.3087229 -0.1077979 -0.068944104 -0.19404466
0.16555485 -1.3096815 0.12678997 0.04338426 0.040598508 0.3036756 0.066927895 0.5561251
-0.17931937 0.7627115 0.23461172 -0.9573775 -0.15739648 0.35101858 -0.07856049 0.046017136
0.051020265 0.13059853 -0.029737355 -0.060215805 0.11323524 -0.015972959 0.062561505 -0.072812796
0.2264534 -3.3924642 0.04562851 0.21725336 -0.17630887 -0.084274724 0.15717755 -0.050322857
-0.09330341 -0.2464424 0.082952306 0.056414686 0.12443864 0.15108214 0.15615393 0.00081814773

linears.1.bias f4 [50]
00000000: 653b ecbe d767 3abd 3d6d f73d 91fa f03d
00000010: 344c 9fba b1cb 5c3c 8abd 853e df36 e23c
00000020: c0ad fbbe fe8d 03be 67e7 7f3f 26b1 1cbd
00000030: 1f1f 44be 1efa a1bc 94cd 2fbf 6dbb cbbd
00000040: 2750 c6be 73c4 6a3e 0c32 1ebf 05fc 7bbe
00000050: 5dbc dd3c b734 a13c 3f74 8a3c 5a5c 883e
00000060: aba0 2cbf 00e3 4fbf deb6 05bd 34ca 35bf
00000070: 4ba4 463c 3359 0cbf 6be3 edbe f655 a1be
00000080: ee57 a0bd 6a06 3c3f 7290 493f db70 05bf
00000090: 9795 a2bd de4b 0dbc 6541 67bf bdd1 273f
000000a0: 5565 39bd 9876 b4bd df33 30bf 4c14 cfbc
000000b0: 01fa 85bc b582 ac3c 85a0 353e fcb9 14bf
000000c0: d7a2 3bbb 5d6c c4be
-0.46139064 -0.045509186 0.120813824 0.11766542 -0.0012153448 0.013476298 0.2612117 0.027614055
-0.49155998 -0.12847134 0.99962467 -0.03825488 -0.19152497 -0.019772585 -0.6867306 -0.09947858
-0.38733026 0.22926502 -0.61795115 -0.24607857 0.027067358 0.019678457 0.016901134 0.2663296
-0.6743266 -0.8120575 -0.0326451 -0.7101166 0.012124131 -0.5482361 -0.4646257 -0.31510895
-0.07829271 0.7344729 0.7873603 -0.5212533 -0.07938688 -0.008624045 -0.9033416 0.6555441
-0.045262653 -0.088116825 -0.6882915 -0.025278233 -0.016354563 0.02105842 0.17737015 -0.5809629
-0.0028630996 -0.38363925

linears.2.weight f4 [50, 50]
00000000: 5425 433c ac35 15be 01c2 0dbf 5119 533f
00000010: 0471 aebf c4a9 a83f cb49 3e3f c6f6 ce3e
00000020: c894 cbbe 8f17 febd 0cec fb3e c488 16bf
00000030: fcb1 bc3b 548b 8e3f 4944 37bf ace6 a13c
00000040: 6c6b 383f 3dbb b63e 8b23 1abf 9680 e0be
00000050: 979e 95bf cfa1 a0bf b271 953f bb8e 4dbf
00000060: 431a 83bf e5e4 9cbf 56b1 6c3f abab ed3e
00000070: 09c5 6e3f bed4 fa3d 1ba1 313d e9d7 2e3f
00000080: 2f7b 983e e322 413f 97d5 eb3e 822a 40bf
00000090: 19c9 8cbd 9b82 113e e7ba 0f3f bc02 0d3f
000000a0: 84a7 f2be a7e1 3bbf a9d2 52bf 2458 d33f
000000b0: 9ddd f93d 28ad 633f 5246 8fbe d9b5 173f
000000c0: e2be 30bf 2f61 7bbf b5a4 073f af44 fabe
000000d0: e440 ce3f 2181 53bf 082b 163e 285a 5dbf
000000e0: 985e 533e 6719 72be ff00 6bbd a9b9 823e
000000f0: 1f6a 3e3d ddac 42bf 6b34 7bbe 6ed6 3dbf
00000100: a17b d5bf 6d70 9f3f 338b c3bd 9a78 30bd
00000110: cc80 a23e 7dee 143e a073 90be b636 f73f
00000120: bdb2 4abe 8522 85bf e450 543e 2be2 d23d
00000130: efee dcbf ffce ed40 aaa7 dabf 0e85 d6bf
00000140: ae04 6a3e ba3a 13be 9f3e 03c0 2e84 6a3e
00000150: 4e7b a73e 8bad 62bd 5a8e 64bc 7652 0cbf
00000160: 456a 1abc 424f cabd c925 f7be 7c77 a63e
00000170: 8dfa 963e da30 5cbf efc6 d8bf dd49 fbbf
00000180: 9cfa 723b 0271 553f cf4d bcbf a9e0 c0bc
00000190: 25a2 543e ef6a d23f a899 a33c c603 aabd
000001a0: 273b d43e 8202 353f b52e be3e 08f7 dbbe
000001b0: 5a82 0a3e 2e66 b13e f558 0c3e 86fb 88c0
000001c0: a852 11be c3ff 433f 508f 023d 8f9f 63bc
000001d0: c61a a6bf 736c e0bd 1a83 8abd 64c5 a13e
000001e0: 8486 cb3d 1e39 68bf bad9 c43e 2c11 07be
000001f0: 0a88 8a3c aab7 4e3e a8cf 26c0 73bc 2b3e
00000200: 2a04 a5be 66f2 acbd 5868 4c3e 02ea 25bd
00000210: 3dc2 d0bc 14ee 4eba c2ad e5bc 3dc5 383e
00000220: ae18 de3d 7c72 e83e 547e 6f3e 3258 2fbe
00000230: f95a 08be 63b6 7840 f5dd a93e a9a5 38bf
00000240: 90cc f4bf 2f6e 613e 072a 3cbd ec60 40be
00000250: e9ca b23d bf6d cb3c 3496 35bf 2002 05bf
00000260: 2923 45be 22e4 26c0 598c f6bf b54d 86bd
00000270: 972c 463f c596 9c3d 3b26 293e 68d9 98bf
00000280: 463a 7d3e cf7c e53f c54b f3be e996 9abf
00000290: 61e4 c9bd c51f 24bd 1191 0840 f86e 8bbe
000002a0: 1f82 7b3f ff00 27bf ebd1 c2bf 5e41 06bf
000002b0: f844 093e d2dd 583d ef7d e03e 66ad 05be
000002c0: 387b 3240 7f67 c73e 9c18 983f 9d0c 663e
000002d0: f8dc 9abd f0e5 be3f d94c 733e 7a47 41be
000002e0: 8181 1b3f 1af3 beba 25c4 16bf 2243 3abd
000002f0: f4d5 b5bd 812d d83e 7ec1 d6be 2e10 9abf
00000300: f545 e43d 13e0 4140 f643 ba3f 7e65 ad3e
00000310: 8031 6ebe 4a12 d53e 1df2 c83e 6b71 39bd
00000320: 799d 0cbf 5d37 f03f 900f 89bd 71da 8fbe
00000330: b780 8dbf b0d2 513f ef0d 693f 0885 3abe
00000340: 065e cf3d 5ecf 2dbf 3861 1dbd 175b 1540
00000350: d9e3 3cbf e2c1 54bf e237 d7be 6535 08bf
00000360: 67c0 1a3f 61c2 803d 7d53 d1bd f0c7 5fbe
00000370: 197f 34bf 573d 0e3f 9b07 d33d 2b29 56be
00000380: cbba 9a3d 19e5 2ebe 9112 a13f f734 b13e
00000390: 696c 5c3f c2c2 a6be 58d5 55be 74ca a03e
000003a0: c237 70bd ec91 6e3d cccf 8dbd ee06 2e3d
000003b0: 40ed 01be ed52 a9be a853 32bf 5e14 08bf
000003c0: 9ae4 9d3e 843f 9fc0 dc45 25be fdb5 853f
000003d0: 6ef3 8b3e 6914 773e 176a 95bd 5dea 153d
000003e0: f46e f5be 1691 53bd dc12 f4bd 5974 903d
000003f0: 9ea7 6cbe c329 8e3f 0c89 b9bd 9545 5d3f
0.011910755 -0.14571255 -0.5537415 0.82460505 -1.362824 1.3176808 0.7433135 0.40422648
-0.3976195 -0.12406837 0.49203527 -0.5880244 0.005758522 1.113627 -0.7158857 0.019763313
0.7203891 0.35689726 -0.60210484 -0.43848103 -1.1689023 -1.254938 1.1675322 -0.80295914
-1.024239 -1.2257353 0.92458093 0.46420035 0.932694 0.122476086 0.043366533 0.682982
0.29781482 0.7544386 0.46061394 -0.7506486 -0.06874294 0.14209978 0.56144565 0.550823
-0.4739343 -0.73391193 -0.8235269 1.6511273 0.122004725 0.8893609 -0.27983338 0.5926185
-0.69041264 -0.98195165 0.529857 -0.48880526 1.6113553 -0.8261891 0.14664853 -0.8646569
0.20641553 -0.23642503 -0.057373997 0.25532272 0.046487924 -0.7604502 -0.24531715 -0.7415532
-1.6678354 1.2456185 -0.095480345 -0.043083765 0.3173889 0.14544101 -0.28213215 1.9313571
-0.19794746 -1.040116 0.20733982 0.10297044 -1.7260417 7.431518 -1.7082417 -1.6759355
0.22853348 -0.14377871 -2.050697 0.22901985 0.32711262 -0.055341285 -0.013949955 -0.54813325
-0.009424751 -0.098783985 -0.48271015 0.32513034 0.2948803 -0.8601204 -1.693571 -1.9631916
0.0037075644 0.8337556 -1.4711245 -0.023544626 0.20764978 1.6438884 0.01997073 -0.08301501
0.4145138 0.7070695 0.3714501 -0.42961907 0.13526288 0.3464827 0.1370581 -4.2807035
-0.14191687 0.76562136 0.031874955 -0.013893022 -1.2976921 -0.10958185 -0.06763287 0.3159591
0.09937766 -0.90712154 0.38447362 -0.13190144 0.016910572 0.2018725 -2.6064243 0.16771106
-0.3222974 -0.08444671 0.19961679 -0.04050637 -0.025483245 -0.0007893753 -0.028036956 0.1804399
0.10844551 0.45399845 0.23388034 -0.17123488 -0.13315953 3.886132 0.33177152 -0.7212778
-1.9124928 0.22014688 -0.045938518 -0.18786973 0.08730108 0.024832604 -0.70932317 -0.5195637
-0.19251694 -2.6076741 -1.9261581 -0.0655779 0.7741179 0.076459445 0.1651849 -1.1941347
0.24729261 1.7928714 -0.47518745 -1.2077304 -0.09858013 -0.04006936 2.1338542 -0.272331
0.98245424 -0.65235895 -1.5220312 -0.5244349 0.13405216 0.05294592 0.4384608 -0.13054428
2.7887707 0.3894615 1.188251 0.22465749 -0.07561678 1.4913921 0.23759784 -0.18874922
0.6074448 -0.00145683 -0.5889304 -0.04547418 -0.08878699 0.42222217 -0.41944498 -1.2036188
0.11146156 3.0293014 1.455199 0.33866495 -0.2326107 0.41615516 0.39247218 -0.04527418
-0.54927784 1.8766896 -0.066924214 -0.28096345 -1.1054906 0.8196211 0.91036886 -0.1821481
0.101253554 -0.6789454 -0.038422793 2.3336847 -0.7378517 -0.8310834 -0.42034823 -0.53206474
0.6044983 0.06287075 -0.10221002 -0.21853614 -0.70506436 0.5556235 0.10304185 -0.20914142
0.07555159 -0.17079581 1.2583791 0.3461072 0.8610292 -0.32570463 -0.20882165 0.3140446
-0.058646925 0.05824463 -0.069244 0.042487077 -0.1268816 -0.3307108 -0.696589 -0.5315608
0.30838472 -4.9765034 -0.1613993 1.0446163 0.2733416 0.2412888 -0.07295626 0.03660046
-0.47936213 -0.051652037 -0.1191766 0.070534416 -0.23110816 1.1106495 -0.09059343 0.864343

linears.2.bias f4 [50]
00000000: 56c6 2f3f 19bb cf3d 0f2a 0fbe e88e 0f3d
00000010: 2411 343e 2c83 553d ac31 abbf 6e0d 6dbf
00000020: 9906 e4bc 59e3 c53b 4bd7 2bbf 4792 44bd
00000030: 2092 003e 6b20 04be fb47 8d3f 79ea a6be
00000040: d8c3 9bbe bfd6 5abf 6e69 04be 3ae7 c5bd
00000050: eccf 683d fae6 96be eeae 31bf dc75 413e
00000060: d161 c23e 6864 34bf 0f77 ca3e bf19 d8be
00000070: 7fe9 c13d 8615 8cbe 0ca3 0bbd 1e00 12be
00000080: d744 f1bc a1a9 bd3d 4d90 a4be 249d 91be
00000090: a73f ed3c 1ea0 e0be edbf 15be 1bd9 e4be
000000a0: 8c63 6ebe 346e 83bd 1cc2 873e 55b3 9cbc
000000b0: 4a7d 8c3e 0570 183f d7ec 4cbe 694c 0abe
000000c0: 1dc9 87bd d1bf 56be
0.6866201 0.10143108 -0.13980888 0.035048395 0.17584664 0.05212705 -1.3374534 -0.9259862
-0.027835177 0.006039065 -0.67125386 -0.047991063 0.12555742 -0.12902991 1.1037592 -0.32600763
-0.30422854 -0.85483927 -0.12930843 -0.096632436 0.056838915 -0.29473096 -0.69407547 0.18892616
0.37965253 -0.7046571 0.3954396 -0.42207143 0.09468364 -0.2736017 -0.03409104 -0.14257857
-0.02945177 0.0926087 -0.32141343 -0.284402 0.028961016 -0.4387216 -0.14623995 -0.44696888
-0.23280162 -0.06417504 0.2651528 -0.01912848 0.27439338 0.5954593 -0.20012222 -0.1350571
-0.06630156 -0.2097161

linears.3.weight f4 [50, 50]
00000000: 3d8c a53d f350 c2be 61b6 8cbf f9df 8c3e
00000010: 0fe9 85be 35fe 43bf b7b5 8d3d c2ea 35bf
00000020: 0a0a 7fbf c952 883e a783 76be f085 b73d
00000030: 4ad5 35bc 7d1c 1b3d b09c 0d3e 9002 363b
00000040: 3ee0 93bf 85bb 2f3e 63b6 1bbf 6601 8e3e
00000050: d815 623d 5d1b 5dbf 4ca2 ad3e 812c 693d
00000060: 5974 75bc 500d fdbd af1f 483f 229d 5abd
00000070: 949c 5bbf 13ed 32bc f180 95bf 7a59 063e
00000080: 226c 2bbf 32b1 82bd ddfc 6b3e c962 dc3c
00000090: 2e4f eebd d6c0 8abd c247 b93e 2b5d 5bbf
000000a0: 1de8 40bf a9f5 24bd c89d 153e a7c1 f0bc
000000b0: 9c0a 943e 61b1 963f ec01 3bbe 8b23 ba3e
000000c0: d699 2f3e 29de d23e 98c3 dabe 7927 79bc
000000d0: 8463 ccbe 6cf4 b63e d3f3 5abe 55ac 56bd
000000e0: 6be5 583f 6596 373f 7916 2e3f 77bc b23f
000000f0: b8a7 483f 05ee 71be e4b2 bbbf c777 53be
00000100: 8d0a 7abf 3f84 20bf e763 2fbf 9b4a b93e
00000110: ded6 b1bd 0a69 fa3e 5542 47be 90dd 2e3f
00000120: 84aa 993e 86f7 5fbf 3bf7 76be bdfb 103e
00000130: 481a bdbd 53ca a43b 2b49 22be 64ec 52be
00000140: 92bd 10c0 f991 3d3e 2c3b b33e 109e dbbf
00000150: e9c1 593e e4ab 153f 815d 82bd 26ea a73e
00000160: aa66 edbf b3f1 373f 0a19 83be c4a5 ca3e
00000170: a102 60bf 5b54 1f3e e7ea 85be 896f 1bbe
00000180: 21f4 57bf 6d27 74bd 8ad0 3e3e dc87 aebe
00000190: 4389 c63d 70a1 eabd 4697 7f3f 28c1 8e3f
000001a0: 4a4e 8d3d 69f1 ae3f 6104 52be eb61 48be
000001b0: c594 7e3f ca24 a23f 10dd 20bf 5c3b 073e
000001c0: 4260 2fbf c992 883e e0cd 833e 7049 273e
000001d0: 3b43 a93e 7c1a 003e 7732 c3bf 7b0f ad3e
000001e0: ad9a ef3e ef24 843e 6352 0abd 4358 78bf
000001f0: 0c2c a1bd aa8a 8bbd d707 a6bc c669 8abd
00000200: 2990 aa3d 3ec0 62bf 168f b8bf a6dc 17be
00000210: 35e6 933f 8f6a 37bf 229d 523f 0c36 45be
00000220: 7377 063f 23d6 123e 6432 133e 7f3e 45bc
00000230: caf6 9a3f 7398 953e 663d 13bf 2430 32bf
00000240: 3554 74be d38d adbc 24c1 0440 b028 553f
00000250: 9975 35be dde1 b63e 024c b9bf 6ecc 9cbd
00000260: c8aa 033f e360 193f c3f3 773e e799 c93f
00000270: a71e 4e3d 0755 803e 55e9 123f 48cd 433f
00000280: 84a1 123f f267 c43d f705 99be 5275 fb3e
00000290: a5d0 28bf bf3b 903e e8ca 483f 32f0 f83d
000002a0: 8c0c 28bf 2f74 a8bd 6505 c13e c70c 0a3f
000002b0: 820f 953e b321 c9be f49f fb3d 7a29 45be
000002c0: f8ee 9abe e991 2cbe 1492 c03f 831e eabe
000002d0: de56 2b3f 3846 ca3d 24ef dfbe bc1e c5be
000002e0: 74ae d6bc 85d0 143f b814 df3d 19dd 913f
000002f0: 5389 9d3e 6b46 b2bb 3e4a d93f 8eb8 f2be
00000300: 370f 433f ed92 573f c76e 74be 2376 24bf
00000310: c659 11bf bd28 b0bd 230c 4cbf 4f47 3a3e
00000320: e235 cdbe c48a 1ebe 9a57 d1be cb51 b6be
00000330: 0ced 143f 50dd a73f 00ab 713e be7e 2bbd
00000340: 835e d83f 3d45 d43f a76d a8be 6251 43bf
00000350: 0576 9fbf 3839 8e3f 83cb 11be e620 423f
00000360: fb9c 2a3e 38b8 16be ecf1 94bf 7021 67bf
00000370: f86c 413f 943d 893f a786 57be aaf6 43be
00000380: ae85 95bf 6767 d2be 8015 78be efe0 a63e
00000390: 6982 243f 6a04 cdbf 25c4 42bf 277e 133e
000003a0: f211 bb3f 8404 07c0 a768 613e d485 85bf
000003b0: 7d2d b63f 2e51 153f a20b 143f 4568 15bf
000003c0: b74a d53f e66e bd3f 4dd6 0ebf 5cd2 4abf
000003d0: 1949 903d d6fe 5c3e 2cd5 52bf 9f1e 7bbe
000003e0: cd9b 99be 38f0 7ebd e306 22bf da89 99be
000003f0: 5d96 453f a358 0f3d 2f27 46be 1d02 a73f
0.08083389 -0.37952384 -1.0993158 0.27514628 -0.26154372 -0.76559764 0.06919425 -0.71061337
-0.99624693 0.2662566 -0.24073659 0.089610934 -0.011098215 0.037868965 0.13829303 0.0027772523
-1.1552808 0.17161377 -0.60825175 0.27735442 0.055196613 -0.8636988 0.33912885 0.056927208
-0.014981353 -0.12356055 0.78173345 -0.05337251 -0.85785794 -0.010920781 -1.1679975 0.1312007
-0.6696187 -0.063814536 0.23045678 0.026902573 -0.11636196 -0.06775062 0.3618756 -0.8568904
-0.75354177 -0.040273342 0.1461097 -0.029389216 0.28914344 1.1772882 -0.18262452 0.36355242
0.17148528 0.4118512 -0.4272735 -0.015207165 -0.39919674 0.35733354 -0.21382074 -0.052410442
0.84725064 0.7171386 0.6800304 1.3963765 0.7838092 -0.23625953 -1.4663968 -0.2065116
-0.9767235 -0.6270179 -0.68511814 0.36189732 -0.08683561 0.48908263 -0.19458897 0.6830683
0.30012906 -0.87487066 -0.24117748 0.1415853 -0.092335284 0.0050290017 -0.15848224 -0.20597988
-2.2615705 0.18512715 0.35006082 -1.7157612 0.21265377 0.5846541 -0.06365491 0.3279583
-1.8546956 0.7185318 -0.2560504 0.39579594 -0.8750401 0.15559523 -0.2615578 -0.15179266
-0.84356886 -0.05960791 0.18634239 -0.34088027 0.09694149 -0.11456573 0.998402 1.1152697
0.06899698 1.3667423 -0.20509483 -0.19568603 0.99445754 1.2667477 -0.62837315 0.13206238
-0.6850625 0.26674488 0.25743008 0.16336608 0.33059105 0.12510103 -1.5249776 0.33800873
0.46797696 0.25809428 -0.033769976 -0.97009677 -0.078697294 -0.068135574 -0.02026741 -0.06758456
0.083282776 -0.8857459 -1.4418666 -0.14830264 1.1554629 -0.7164697 0.82271016 -0.19258898
0.52526015 0.14339499 0.14374691 -0.012038826 1.2106564 0.29217872 -0.5751556 -0.69604707
-0.23860247 -0.021185791 2.0742884 0.8326521 -0.17720641 0.35719195 -1.4476321 -0.07656179
0.51432467 0.5991346 0.24214081 1.5750092 0.0503222 0.2506487 0.57387286 0.7648511
0.57277703 0.095901385 -0.29887363 0.49112946 -0.65943366 0.28170583 0.7843461 0.121551886
-0.65644145 -0.08225285 0.37699428 0.53925747 0.29113394 -0.39283523 0.12286368 -0.19254103
-0.30260444 -0.16852535 1.504458 -0.45726404 0.66929424 0.098766744 -0.43737137 -0.3850001
-0.026206233 0.58130676 0.10892624 1.1395599 0.30768833 -0.0054405234 1.6975782 -0.4740643
0.7619509 0.84208566 -0.23870383 -0.6424276 -0.5677761 -0.0860152 -0.7970602 0.18191265
-0.40080172 -0.15482622 -0.40887147 -0.35609278 0.58174205 1.3114414 0.23600388 -0.041868918
1.6903843 1.658363 -0.32896158 -0.76296055 -1.2457892 1.1111212 -0.1423779 0.7583145
0.16661446 -0.14718711 -1.1636329 -0.90285397 0.755569 1.0721917 -0.2104746 -0.19137064
-1.1681421 -0.41094515 -0.24226952 0.32593486 0.6426149 -1.6016972 -0.7608054 0.14403592
1.4614851 -2.1096506 0.22012578 -1.0431466 1.4232632 0.58326995 0.5783025 -0.5836223
1.6663426 1.4799469 -0.5579575 -0.7922723 0.07045192 0.21581587 -0.82356524 -0.245234
-0.3000168 -0.06224081 -0.6329176 -0.29987985 0.7718256 0.03499664 -0.19350885 1.304752

linears.3.bias f4 [50]
00000000: 0234 273f 5b5b 61bf 275c e33d 31c2 71be
00000010: 6f57 e03d bbc1 553e 0d96 e53e bc20 f1be
00000020: 04ff 323d 9c4c 1b3f 3dfa aebd d103 cd3d
00000030: 035e db3d 2c75 9e3f 3e3e 29be a982 f33e
00000040: 02c1 c5be 3e36 aa3f 14ad e53d 66f1 82bd
00000050: c576 c3be 7c32 373e 9842 84be c0b0 6a3d
00000060: 64ae 7a3f 661e 853e 3e9b 56bf 7f49 6a3e
00000070: fd1d e0bc f2d4 efbe f80c cf3e c123 10bf
00000080: dcef c73f 6261 b63e ce25 8b3f f36c 8bbe
00000090: a447 ef3d 08cf ccbd 6fb5 8bbf 2d49 54bd
000000a0: 0649 8ebd 0084 74be 9c77 a5bf eddd 953f
000000b0: a28d aabe 2f8b 143f ff47 94bf 73a1 46bc
000000c0: 5b0f eebe 2dc0 f2bd
0.6531373 -0.8803002 0.11101561 -0.23609234 0.10954177 0.20874684 0.44841042 -0.47095287
0.043700233 0.6066377 -0.08543823 0.100104935 0.10711291 1.2379508 -0.1652765 0.47560623
-0.38623816 1.3297803 0.11214653 -0.06393699 -0.3817655 0.17890352 -0.25832057 0.05729747
0.9792235 0.25999755 -0.8383063 0.22879599 -0.02735805 -0.46842152 0.40439582 -0.56304556
1.5620074 0.35621172 1.0870912 -0.2723156 0.11683586 -0.100004256 -1.0914744 -0.0518276
-0.06947522 -0.23878479 -1.2927127 1.1708351 -0.33311182 0.5802488 -1.1584471 -0.012123453
-0.4649609 -0.11853061

linears.4.weight f4 [3, 50]
00000000: e079 78bd 265a ccbe d7cf e0be 6c97 a23d
00000010: d46f cbbc 7a1f 173f f703 8cbe 9b8b 57be
00000020: ab90 893d 8441 993a 1937 553d 56e1 78bd
00000030: c1a7 b5be 24da 3abd edcd 94be b6ac 92bc
00000040: 9151 10bf 4074 6ebf 999f e4ba bff4 85bf
00000050: 9b77 4c3e 0d76 903f f364 b2ba 5535 063e
00000060: 115c 2cbd 40d1 41bf a192 f63e 70b6 d73c
00000070: d58f 203d ddc9 a83e e306 e63e 5dc7 a3bd
00000080: ade1 fd3c 807d 91bd 3728 4ebd 5d96 bd3d
00000090: afc3 263f eb25 02bc 6e26 18bf 30a3 32bd
000000a0: ab68 733c 74f5 e73c 2bad 42bc ffff 063f
000000b0: d855 95bf 1dd2 c53c 34fd acbc 5c4b 02bf
000000c0: c41b 5f3e 870c fdbe 36e0 f4b9 f715 a93c
000000d0: 4990 46bb 72bc 5f39 044a 02bb d933 1039
000000e0: b0d3 73b9 9f42 17ba 0c4f 99ba 9093 29b9
000000f0: fc6d cf39 448c efb9 5531 6c39 4c19 433a
00000100: a061 2638 fcef b039 72bb b3b9 cc82 7a3a
00000110: 2dc3 3939 84c2 94ba 41ea 1fb7 9b73 b239
00000120: c5e6 99b9 bad2 763a 62f9 fe38 4c11 6239
00000130: 12a1 ecba dd1e 22bb 6737 9639 71d3 ec39
00000140: 42fe 5bba 1428 8c39 89f6 873b e9e0 46ba
00000150: d42b 963a 7787 c13a 089e 843a de06 ba3a
00000160: 2dd5 bf3a ccaa 63ba 1a31 5c39 6114 8b39
00000170: 32d5 03bc 2a19 edb9 36b5 9ab9 88c0 4eb9
00000180: 20fc 0eb9 1f04 73ba 9ddc a43a cc77 8739
00000190: f15c ccbd 6995 5abe ef78 333c 403b 4f3c
000001a0: d9ed 113c c81e 3cbc c548 af3c e09c 813e
000001b0: 94b8 0cbd 9d7f 5dbb 9dee 12bb 77d2 5fbb
000001c0: 1071 f93a cef7 453c d0c3 cb3d 4be6 f6bc
000001d0: f665 ba3e a8f9 643c b7d5 a33d 35a9 87bc
000001e0: d442 debb 48af 12bf f68c afbb 4a81 343b
000001f0: 2562 97bc c994 773b 9423 2ebf a573 0d3d
00000200: c9b9 02bc fb8a c3bd d8fd 1bbc 9369 abb9
00000210: b916 2c3d f0ff 413c f227 373e b0e3 c73a
00000220: c7e8 32bc c327 9b3c 56c1 4d3b 9a24 313d
00000230: d131 fbbc bcc0 86bc e9d2 fcbe d149 c73e
00000240: dc25 333f d04c 4dbd 6c2b 90bc 0160 233c
00000250: 2356 873e c809 3c3b
-0.060663104 -0.39912528 -0.4390857 0.07939038 -0.024833597 0.59032404 -0.27346775 -0.21049349
0.06717046 0.0011692499 0.0520545 -0.060761772 -0.3547955 -0.04561819 -0.2906336 -0.01790462
-0.5637446 -0.93146133 -0.0017442583 -1.0465316 0.19967501 1.1286026 -0.0013610407 0.13106282
-0.04207999 -0.75709915 0.48158744 0.02633211 0.03919967 0.3296651 0.4492713 -0.0799701
0.0309914 -0.07104015 -0.05033132 0.09257195 0.6514234 -0.007943611 -0.5943364 -0.04361266
0.014856498 0.028315283 -0.011882107 0.5273437 -1.1666822 0.024148041 -0.02111683 -0.5089624
0.21787935 -0.4942362 -0.00046706357 0.020640356 -0.0030298403 0.00021337139 -0.0019880543 0.00013752225
-0.00023253146 -0.000577012 -0.0011696531 -0.00016172067 0.0003956406 -0.00045690138 0.00022525091 0.0007442429
3.9668404e-05 0.00033748138 -0.00034281198 0.00095562334 0.00017715683 -0.0011349474 -9.53168e-06 0.00034036938
-0.0002935437 0.0009415556 0.00012158115 0.00021559483 -0.0018053374 -0.0024737634 0.00028651507 0.00045170964
-0.00083920744 0.0002673274 0.0041492623 -0.0007586615 0.0011457154 0.0014765103 0.0010117898 0.001419272
0.0014635675 -0.00086848135 0.00020999127 0.0002652733 -0.008046435 -0.0004522291 -0.00029508182 -0.00019717414
-0.00013636099 -0.00092703284 0.0012577955 0.00025838462 -0.09978665 -0.21346058 0.010954126 0.012648404
0.008906805 -0.011481948 0.021397004 0.25315 -0.034355715 -0.0033797987 -0.0022420057 -0.0034152546
0.0019030888 0.012083007 0.09949458 -0.03013911 0.36405915 0.013975538 0.07999747 -0.016560176
-0.006782869 -0.5729871 -0.00535738 0.0027542883 -0.018479416 0.0037777892 -0.6802304 0.034534115
-0.007978865 -0.09547993 -0.00952097 -0.0003269432 0.042013858 0.011840805 0.17886332 0.0015250351
-0.010919756 0.018939858 0.0031395755 0.043247797 -0.030663403 -0.016449325 -0.49379662 0.38923505
0.69979644 -0.050122082 -0.01759883 0.00997162 0.26432905 0.0028692354

linears.4.bias f4 [3]
00000000: 4266 8e3e 70c3 c73b 1413 f93e
0.27812392 0.006096296 0.48647368

exp_avg f4 [50, 3]
00000000: 4693 b02a ba34 9429 92a7 3429 cbf6 8c31
00000010: a296 b6b0 43b3 68af e6d6 17b8 0791 e2b6
00000020: 8bc0 9638 7ac4 0e32 00a4 d331 ce9c 5eb2
00000030: 19f1 4ab0 17a1 0aaf bcb8 372f 7f71 b22c
00000040: c0ee 0a2b 26e9 e2ab 002c 7cb4 a525 8935
00000050: d9d4 40b2 e263 8cb4 e187 19b5 07cb 2eb4
00000060: 17f5 d730 ee9a 1033 0a3b 382f 9c2a 29b2
00000070: 17dc 11b2 5ae6 8330 f569 b42a bf1d 6ba8
00000080: 12e9 f428 4c66 a6b0 33e8 6d2a e8e2 8eaf
00000090: 7196 1eb2 6104 d8b3 dd5e 0d30 bfdc 42af
000000a0: 20a4 f2af 610b b32f c73d a02a 501d 56a7
000000b0: d362 d1a9 131c 232a ecd4 9329 78c7 46a9
000000c0: d297 242a 7a40 8ea8 b142 35a6 eb0b e4bf
000000d0: 4aa7 74be 580c 18bb 4afd cc30 2c08 61b2
000000e0: 0614 96af bc55 85ac 9bfc 432b 1ddf 33aa
000000f0: f265 a230 fb7c 24b2 e3de ebb0 2c02 e5b4
00000100: 067e 1334 f0c4 762f c4f7 b0af 50af cdb0
00000110: 8a75 a131 e527 0435 cf4a a7b4 8f73 e733
00000120: a917 552a f749 9729 3b1a d1aa 983f d7bd
00000130: b441 73bc b6a0 a13b 1959 bc30 f6e2 6831
00000140: f046 b830 1a1b c337 1d09 b336 e110 0f36
00000150: c040 2bb1 40ad 82b1 e088 15b2 49fd abb1
00000160: e53b 6732 e48b 77b1 b6f9 02b0 dc07 842d
00000170: f63e adad 36a1 04b5 a8f1 b7b4 2052 d0b3
00000180: 4e7a 1db4 857c 94b5 64ec 57b4 f214 3831
00000190: 3b34 30b2 1dec 3eb0 fbb1 3fae adcc 8cad
000001a0: b910 0731 0716 6331 00ad 5f31 5bbe cf30
000001b0: cca7 662e cc4e 20af e58c 5931 66f5 90ab
000001c0: 1912 aca7 7740 5c29 aeaa c530 ce72 0b31
000001d0: 69c5 34b2 0d97 42b5 9a5e 15b4 317d 28b1
000001e0: e4bd 9531 2fb4 2ab1 49fa 3db0 bdb2 68be
000001f0: 9d11 3fbc f919 98b9 f0f7 e0af fcb9 efb0
00000200: 9e3e 9cb0 c4ec b131 37d5 3fb0 921c 4eaf
00000210: e12d 52b1 fb73 34b1 9584 4bb0 f877 bd32
00000220: e5ea 9eb1 6545 8f32 5c3c bca9 bd2b 8828
00000230: 9f09 ca26 5bcc 30ad aa08 99ae a266 762c
00000240: f776 9ab3 5fa4 6d38 6cc2 3d38 49a2 1ab1
00000250: 7436 7eaf 83f3 55b1
3.1366072e-13 6.581667e-14 4.0113373e-14 4.1025934e-09 -1.3285055e-09 -2.1163964e-10 -3.6201345e-05 -6.7522083e-06
7.188421e-05 8.3101614e-09 6.159553e-09 -1.2957754e-08 -7.382979e-10 -1.2608257e-10 1.6709384e-10 5.071665e-12
4.935878e-13 -1.6122978e-12 -2.3485336e-07 1.0218251e-06 -1.1224267e-08 -2.6149706e-07 -5.719467e-07 -1.6278874e-07
1.5712968e-09 3.366852e-08 1.6755677e-10 -9.846783e-09 -8.4901535e-09 9.596974e-10 3.2047946e-13 -1.3051571e-14
2.719052e-14 -1.2107164e-09 2.1130389e-13 -2.5990876e-10 -9.231017e-09 -1.005908e-07 5.143031e-10 -1.7722622e-10
-4.4136161e-10 3.2567996e-10 2.8464576e-13 -2.9714356e-15 -9.298608e-14 1.4487048e-13 6.5650474e-14 -4.4137843e-14
1.46188e-13 -1.579313e-14 -6.2887374e-16 -1.7816137 -0.2389194 -0.0023200717 1.4914943e-09 -1.3098582e-08
-2.7299069e-10 -3.7896058e-12 6.9628477e-13 -1.5975802e-13 1.1816026e-09 -9.574474e-09 -1.7161849e-09 -4.2656154e-07
1.3736289e-07 2.2443536e-10 -3.2190262e-10 -1.496554e-09 4.6990793e-09 4.9231886e-07 -3.1160604e-07 1.0777796e-07
1.8926409e-13 6.718578e-14 -3.714406e-13 -0.105101764 -0.014847208 0.0049324883 1.3704123e-09 3.3889456e-09
1.3407924e-09 2.3258432e-05 5.3356766e-06 2.1318485e-06 -2.4920581e-09 -3.803194e-09 -8.704063e-09 -5.00555e-09
1.3459588e-08 -3.602275e-09 -4.7648585e-10 1.5010153e-11 -1.9695783e-11 -4.9408425e-07 -3.4262234e-07 -9.700693e-08
-1.4666259e-07 -1.1063099e-06 -2.0109434e-07 2.678743e-09 -1.0256424e-08 -6.9457134e-10 -4.358645e-11 -1.6007052e-11
1.9654591e-09 3.3045369e-09 3.254911e-09 1.5115335e-09 5.244498e-11 -1.457991e-10 3.1657745e-09 -1.0299927e-12
-4.775921e-15 4.8905727e-14 1.4382147e-09 2.029242e-09 -1.0522265e-08 -7.249044e-07 -1.3911122e-07 -2.451838e-09
4.358059e-09 -2.4840678e-09 -6.9113476e-10 -0.22724433 -0.011661914 -0.0002901105 -4.0921533e-10 -1.7442399e-09
-1.1368291e-09 5.178295e-09 -6.978839e-10 -1.8745741e-10 -3.0585101e-09 -2.6259375e-09 -7.403938e-10 2.2057051e-08
-4.6251096e-09 1.6678948e-08 -8.359348e-14 1.5118002e-14 1.4019173e-15 -1.0049818e-11 -6.9591735e-11 3.5015675e-12
-7.1928234e-08 5.6658286e-05 4.524218e-05 -2.2502198e-09 -2.3120511e-10 -3.1134e-09

exp_avg_sq f4 [50, 3]
00000000: eeb7 0e17 92f1 8c18 6da3 9014 6bbe b226
00000010: 3016 3e28 5baa 4225 67ad d833 7bcd 8735
00000020: a939 9835 33d7 392a f0b7 a92e 373b d829
00000030: 80c1 2127 6408 e327 c49e 4f21 ea75 9219
00000040: 4c20 111a a4c4 6218 807b 8032 06fa 4233
00000050: 8fe2 8a32 f41b d431 10bc 5f33 0a7a 0a31
00000060: 834c 2f30 1c22 1932 a020 0029 f394 c42a
00000070: 1730 002f 0bf6 842c 63b4 4515 e34e bf14
00000080: 37af 0c12 5bdf dc26 a7ec 121c b0a1 3624
00000090: 5f5a 422d 6275 732f 0b72 d126 05bd f927
000000a0: eef0 3028 5e29 b725 a7a5 a415 8397 5d15
000000b0: d301 5216 9d4a 7a16 3288 1117 7db4 7f15
000000c0: 979f 3814 f5a6 3614 ddb8 f210 ef9b 4448
000000d0: aad1 ff44 50af 7141 0bc6 5a28 e34a cf2c
000000e0: 67b6 9c23 3210 f318 26a0 4d18 0591 ca17
000000f0: b326 bd2b de74 072d e586 102a 90cf 2030
00000100: 1e3e 0231 5b07 1c28 5dfe d428 95b4 d629
00000110: 19e1 1b26 da27 bc33 f612 0435 2566 b032
00000120: cc06 f519 9389 ca1a c58b 2f1a e250 3a47
00000130: d31c db43 0e47 c140 a109 0a28 f772 2529
00000140: 573e 2d26 8f60 0c38 c622 f335 1063 c532
00000150: 2995 9d28 d151 d629 e68f 812c c52a 792f
00000160: 7754 a12e 9c4e bf29 8a75 9a22 156f 5a23
00000170: abf8 7c1c e85f b12f 089d e42e f2af 022f
00000180: 38d8 7d30 a63e 3d32 db51 1f2f 3a3e 2530
00000190: 9d17 4931 4fff 9329 b524 521f 922d 241f
000001a0: e793 8124 b5ae ab29 dc8b a32a 8209 872a
000001b0: 4ae8 b41d 185f 421f 7c3c d324 3b7a 2d17
000001c0: c750 a416 7a01 8615 1416 1728 1859 e529
000001d0: e510 792c c7b4 8238 cb80 2536 be56 6c2e
000001e0: c0ac 0d2b a11f d62b 094f b92c 1810 9647
000001f0: bbb5 3044 41d6 f740 8ecd cb27 a5d0 0329
00000200: 0e20 2727 beb8 8e28 06ca 8729 3778 0826
00000210: 27f8 7729 ac2b 8d2a 0f9d c426 92f0 3730
00000220: e6ae 1630 a6af 1430 5d30 8914 db3a 2b15
00000230: ee03 c911 8d28 e61a 6406 091e 7b57 ce1a
00000240: be73 0c2b 6e06 c833 e51e 5f34 7a87 1327
00000250: e33a 0c29 4e0a c026
4.6114827e-25 3.6433075e-24 1.4604744e-26 1.2402844e-15 1.055193e-14 1.6884536e-16 1.00898255e-07 1.0118086e-06
1.1341664e-06 1.6505963e-13 7.717904e-11 9.602599e-14 2.2448135e-15 6.3014254e-15 7.0344453e-19 1.5143671e-23
3.0011386e-23 2.9309094e-24 1.4957322e-08 4.539654e-08 1.6168341e-08 6.17319e-09 5.2092275e-08 2.0151014e-09
6.377336e-10 8.913528e-09 2.8450007e-14 3.4919948e-13 1.1658617e-10 3.778982e-12 3.9926133e-26 1.9317187e-26
4.439218e-28 1.5326107e-15 4.8613214e-22 3.9601914e-17 1.104769e-11 2.2142424e-10 1.45332e-15 6.931632e-15
9.822206e-15 3.177347e-16 6.6500426e-26 4.4750116e-26 1.696424e-25 2.0218383e-25 4.702393e-25 5.163922e-26
9.3210996e-27 9.221578e-27 9.5736997e-29 201327.73 2046.552 15.105301 1.2144375e-14 5.891608e-12
1.6990804e-17 6.283038e-24 2.6576483e-24 1.3090552e-24 1.3439999e-12 7.699811e-12 1.283657e-13 5.8502625e-10
1.89528e-09 8.6613346e-15 2.364704e-14 9.534835e-14 5.408149e-16 8.761681e-08 4.9201424e-07 2.0535547e-08
2.5335151e-23 8.3767505e-23 3.6302057e-23 47696.883 438.2252 6.0399237 7.662627e-15 3.6737076e-14
6.010592e-16 3.346853e-05 1.8115031e-06 2.2978867e-08 1.749519e-14 9.517702e-14 3.6823765e-12 2.2661613e-10
7.336436e-11 8.4957405e-14 4.1866233e-18 1.1841326e-17 8.37012e-22 3.2264258e-10 1.0396134e-10 1.188594e-10
9.234813e-10 1.10154925e-08 1.4490047e-10 6.011508e-10 2.9262772e-09 6.5724004e-14 4.4499593e-20 3.4766046e-20
5.619539e-17 7.624232e-14 2.9051663e-13 2.3987415e-13 4.7885785e-21 4.1159758e-20 9.160913e-17 5.605359e-25
2.6546607e-25 5.41245e-26 8.386971e-15 1.0185098e-13 3.5394407e-12 6.2325555e-05 2.4661883e-06 5.373723e-11
5.0333e-13 1.5214393e-12 5.266791e-12 76832.19 706.83954 7.744904 5.656668e-15 2.9268814e-14
2.3193283e-15 1.5845286e-14 6.03025e-14 4.73474e-16 5.5060255e-14 2.5076935e-13 1.3642803e-15 6.6916883e-10
5.481823e-10 5.40917e-10 1.3852541e-26 3.4579604e-26 3.171463e-28 9.5191284e-23 7.254041e-21 8.5340935e-23
4.9898616e-13 9.314395e-08 2.0779733e-07 2.047379e-15 3.113732e-14 1.3325469e-15

exp_avg f4 [50]
00000000: b682 3dab 7006 2730 bad8 b7b0 406a a12e
00000010: cb81 96ae 0cfa 742d 60ce 93b0 fece 1cb3
00000020: 998d ed2f a164 822e 0788 5bab ccf0 79af
00000030: ad05 a8b0 191d 762f c716 1aab 1226 bc29
00000040: 99ef d8aa 4a26 60bb 7ee5 34b0 e488 862d
00000050: 0045 4eae bfc0 beb1 a2d3 b530 4cfd 2133
00000060: 592e dcaa 8966 b3b9 c00b 7e30 7074 8034
00000070: 3944 5eb1 07e5 262f 468f 5d30 2e94 04b2
00000080: 146f 35b3 1bef 4e30 b47a bf2e 5742 e230
00000090: 849f 6530 c5e1 6b2c 7460 01b1 4bb5 6cb1
000000a0: c63b 6430 67ca b1b9 d3b3 4bb0 ea16 6830
000000b0: edd7 bfb0 82cc 3c31 bfbe 0e2a ebdc 84ae
000000c0: 0b21 0b35 8c72 09b1
-6.7327686e-13 6.0763394e-10 -1.33766e-09 7.340306e-11 -6.844266e-11 1.3925316e-11 -1.0754313e-09 -3.650984e-08
4.321066e-10 5.929591e-11 -7.7993205e-13 -2.2731966e-10 -1.2225222e-09 2.2383907e-10 -5.47434e-13 8.355481e-14
-3.8535562e-13 -0.003420251 -6.5809747e-10 1.5294828e-11 -4.690026e-11 -5.5516405e-09 1.3229633e-09 3.7716106e-08
-3.911201e-13 -0.00034217935 9.242136e-10 2.3926577e-07 -3.2344032e-09 1.5178979e-10 8.0602935e-10 -7.717103e-09
-4.224337e-08 7.528215e-10 8.707471e-11 1.6462519e-09 8.35364e-10 3.3520836e-12 -1.8826798e-09 -3.4445573e-09
8.303086e-10 -0.00033910872 -7.4106515e-10 8.443367e-10 -1.3958449e-09 2.747385e-09 1.2678312e-13 -6.041908e-11
5.182962e-07 -2.0001236e-09

exp_avg_sq f4 [50]
00000000: ce31 6f17 bbfc e525 937b 0d2f 5593 a428
00000010: 0d44 1f26 08b0 fe1d 8905 3330 adfb e82e
00000020: 9865 fb2b 9bcd 2a2a ff17 e616 c45f 3524
00000030: 3269 fd28 5033 0826 775d bc16 7672 ab16
00000040: b0f8 ed16 1474 3e3f 28e2 8227 269f fc1b
00000050: d57c fc27 723f 8b2b 4c6c 0a28 6a10 9e30
00000060: 505f 1a19 23de 273e 7545 cb25 fa6b 472f
00000070: 6c5e f429 ccc4 0d2a 72bc 5222 6bb2 af2c
00000080: 1491 1c2d da64 ca2b e6de 0123 c7ca 0929
00000090: 67e8 3e23 2121 0719 0f0b dd29 8aa8 8b2f
000000a0: 30ab 8f2a cbfa 863e a9ef 2427 52d9 9627
000000b0: 0851 c028 70a4 c62d 57b4 9c15 b270 cc1d
000000c0: 9584 e52d 2299 0c27
7.7287927e-25 3.9896424e-16 1.2867778e-10 1.8271553e-14 5.525643e-16 6.7415252e-21 6.5127687e-10 1.0594845e-10
1.7862821e-12 1.5170367e-13 3.7173648e-25 3.9329235e-17 2.8134264e-14 4.725402e-16 3.0432023e-25 2.7698775e-25
3.844636e-25 0.7439587 3.6327447e-15 4.179275e-22 7.0079394e-15 9.894154e-13 7.684022e-15 1.1500678e-09
7.9808616e-24 0.16393332 3.5261952e-16 1.8137306e-10 1.0852156e-13 1.2591593e-13 2.856007e-18 4.9936075e-12
8.899787e-12 1.4380955e-12 7.040305e-18 3.0595992e-14 1.0349134e-17 6.986027e-24 9.81629e-14 2.5403707e-10
2.5520688e-13 0.26363215 2.2889492e-15 4.1868983e-15 2.1351424e-14 2.2583019e-11 6.3292424e-26 5.4114875e-21
2.6093164e-11 1.9511916e-15

exp_avg f4 [50, 50]
00000000: eb21 a635 2b21 a635 13b6 93b5 da21 a635
00000010: e320 a6b5 d721 a6b5 5521 a635 5521 a635
00000020: 5a21 a635 4f21 a635 eb21 a635 4821 a6b5
00000030: 1b22 a6b5 3f21 a6b5 eb21 a635 eb21 a6b5
00000040: eb21 a635 ed8b c3b6 f521 a635 de21 a6b5
00000050: 5721 a6b5 fa21 a6b5 3a21 a635 3321 a6b5
00000060: eb21 a635 7388 3e35 3421 a6b5 bd77 a635
00000070: 3a21 a635 9a21 a635 3021 a635 e430 a635
00000080: 3821 a6b5 5721 a635 3d21 a635 3421 a6b5
00000090: 3a21 a635 eb21 a6b5 3421 a635 c1e0 ab35
000000a0: 3a21 a6b5 1337 9835 3a21 a6b5 3a21 a6b5
000000b0: 3a21 a635 2b21 a6b5 eb21 a6b5 4e21 a6b5
000000c0: 5324 9fb5 4821 a635 dfa5 f237 37a3 f237
000000d0: d866 f5b7 dfa5 f237 13a6 f2b7 eda5 f2b7
000000e0: 27a3 f237 27a3 f237 1ba3 f237 f49f f237
000000f0: dfa5 f237 63a7 f2b7 dfa5 f2b7 7ea2 f2b7
00000100: dfa5 f237 dfa5 f2b7 dfa5 f237 634d 1ab8
00000110: dda2 f237 eda5 f2b7 5b9f f2b7 dda1 f2b7
00000120: faa4 f237 27a3 f2b7 dfa5 f237 d05a 07b8
00000130: 27a3 f2b7 85a5 f237 b3a2 f237 f2a4 f237
00000140: c9a5 f237 66a3 f237 27a3 f2b7 e49f f237
00000150: 48a9 f237 83a9 f2b7 b1aa f237 dfa5 f2b7
00000160: 2ea3 f237 efd2 f237 83a2 f2b7 c8e3 9b39
00000170: a1a8 f2b7 b6a3 f2b7 09aa f237 2ea3 f2b7
00000180: dfa5 f2b7 68a6 f2b7 40d6 efb7 24a3 f237
00000190: a146 0033 cdea 0133 a146 00b3 9ec1 0433
000001a0: a146 00b3 a146 00b3 29a7 19b3 c0e3 13b3
000001b0: bdfc 0b33 e4b0 52b3 a146 0033 a146 00b3
000001c0: 837b 04b3 a346 00b3 a146 0033 a146 00b3
000001d0: a146 0033 7746 00b3 6b82 0333 a146 00b3
000001e0: cc05 4f33 53d9 12b3 7946 0033 3b17 27b3
000001f0: a146 0033 7f46 00b3 8d45 00b3 5a3a 00b3
00000200: 0f50 fb32 bf3c 0033 a146 0033 5f7e 0db3
00000210: a9c5 fdb2 17d5 99b2 8546 0033 7b52 00b3
00000220: 4b46 0033 a146 00b3 228f 0033 a546 00b3
00000230: 4a06 f6b2 8146 0033 2746 00b3 d345 00b3
00000240: cb41 0033 f189 59b3 a146 00b3 a146 00b3
00000250: c926 f7b2 a146 0033 11c9 1339 11c9 1339
00000260: db35 10b9 11c9 1339 11c9 13b9 11c9 13b9
00000270: 11c9 1339 11c9 1339 11c9 1339 11c9 1339
00000280: 11c9 1339 11c9 13b9 11c9 13b9 11c9 13b9
00000290: 11c9 1339 11c9 13b9 11c9 1339 e6c4 00b8
000002a0: 11c9 1339 11c9 13b9 11c9 13b9 11c9 13b9
000002b0: 11c9 1339 11c9 13b9 11c9 1339 ddfe cf38
000002c0: 11c9 13b9 11c9 1339 11c9 1339 11c9 1339
000002d0: 11c9 1339 11c9 1339 11c9 13b9 11c9 1339
000002e0: 11c9 1339 11c9 13b9 11c9 1339 11c9 13b9
000002f0: 11c9 1339 10c9 1339 11c9 13b9 13bf b9b9
00000300: 11c9 13b9 11c9 13b9 11c9 1339 11c9 13b9
00000310: 11c9 13b9 11c9 13b9 8eb8 13b9 11c9 1339
00000320: 9d6f de39 1470 de39 9d6f deb9 9d6f de39
00000330: 8f6f deb9 9c6f deb9 5f70 de39 5070 de39
00000340: 2770 de39 de6f de39 9d6f de39 606f deb9
00000350: a46f deb9 6d70 deb9 9d6f de39 9d6f deb9
00000360: 9d6f de39 4743 f6b7 6e6f de39 9c6f deb9
00000370: b86f deb9 c66f deb9 1e71 de39 5470 deb9
00000380: 9d6f de39 aa16 b639 6470 deb9 5370 de39
00000390: 9970 de39 ab6f de39 8f6f de39 5270 de39
000003a0: 4a70 deb9 b66f de39 6974 de39 6670 deb9
000003b0: df71 de39 9d6f deb9 1170 de39 4f70 de39
000003c0: d870 deb9 a6a1 d9b9 b270 deb9 d970 deb9
000003d0: 6270 de39 ed6f deb9 9d6f deb9 906f deb9
000003e0: bd6f deb9 a46f de39 6e3d eeb6 7243 eeb6
000003f0: 6992 3437 8e3d eeb6 363f ee36 6e3d ee36
1.2377835e-06 1.2377617e-06 -1.1005344e-06 1.2377816e-06 -1.2377535e-06 -1.2377812e-06 1.2377665e-06 1.2377665e-06
1.237767e-06 1.2377658e-06 1.2377835e-06 -1.237765e-06 -1.237789e-06 -1.237764e-06 1.2377835e-06 -1.2377835e-06
1.2377835e-06 -5.8277424e-06 1.2377847e-06 -1.237782e-06 -1.2377667e-06 -1.2377852e-06 1.2377634e-06 -1.2377626e-06
1.2377835e-06 7.0979075e-07 -1.2377627e-06 1.2402812e-06 1.2377634e-06 1.2377743e-06 1.2377623e-06 1.2382193e-06
-1.2377632e-06 1.2377667e-06 1.2377637e-06 -1.2377627e-06 1.2377634e-06 -1.2377835e-06 1.2377627e-06 1.2805905e-06
-1.2377634e-06 1.1340911e-06 -1.2377634e-06 -1.2377634e-06 1.2377634e-06 -1.2377617e-06 -1.2377835e-06 -1.2377657e-06
-1.1856995e-06 1.237765e-06 2.8925888e-05 2.892465e-05 -2.9254166e-05 2.8925888e-05 -2.8925982e-05 -2.8925913e-05
2.8924622e-05 2.8924622e-05 2.89246e-05 2.8923132e-05 2.8925888e-05 -2.8926594e-05 -2.8925888e-05 -2.8924314e-05
2.8925888e-05 -2.8925888e-05 2.8925888e-05 -3.6788533e-05 2.8924487e-05 -2.8925913e-05 -2.8922854e-05 -2.8924022e-05
2.8925471e-05 -2.8924622e-05 2.8925888e-05 -3.2271084e-05 -2.8924622e-05 2.8925724e-05 2.892441e-05 2.8925457e-05
2.8925848e-05 2.8924736e-05 -2.8924622e-05 2.8923103e-05 2.8927476e-05 -2.8927583e-05 2.8928132e-05 -2.8925888e-05
2.8924635e-05 2.8946872e-05 -2.8924323e-05 0.00029733614 -2.8927172e-05 -2.8924882e-05 2.8927827e-05 -2.8924635e-05
-2.8925888e-05 -2.8926137e-05 -2.8590788e-05 2.8924616e-05 2.986656e-08 3.0248703e-08 -2.986656e-08 3.090974e-08
-2.986656e-08 -2.986656e-08 -3.577512e-08 -3.4433242e-08 3.2593324e-08 -4.9055316e-08 2.986656e-08 -2.986656e-08
-3.0845978e-08 -2.9866566e-08 2.986656e-08 -2.986656e-08 2.986656e-08 -2.986641e-08 3.061943e-08 -2.986656e-08
4.8201215e-08 -3.419093e-08 2.9866417e-08 -3.8903845e-08 2.986656e-08 -2.9866438e-08 -2.986558e-08 -2.9855393e-08
2.9256652e-08 2.985757e-08 2.986656e-08 -3.2944055e-08 -2.9542962e-08 -1.7908446e-08 2.986646e-08 -2.9877338e-08
2.9866253e-08 -2.986656e-08 2.99325e-08 -2.9866573e-08 -2.8641029e-08 2.9866445e-08 -2.9866126e-08 -2.9865827e-08
2.986216e-08 -5.0649707e-08 -2.986656e-08 -2.986656e-08 -2.8772222e-08 2.986656e-08 0.00014093916 0.00014093916
-0.00013752973 0.00014093916 -0.00014093916 -0.00014093916 0.00014093916 0.00014093916 0.00014093916 0.00014093916
0.00014093916 -0.00014093916 -0.00014093916 -0.00014093916 0.00014093916 -0.00014093916 0.00014093916 -3.0700954e-05
0.00014093916 -0.00014093916 -0.00014093916 -0.00014093916 0.00014093916 -0.00014093916 0.00014093916 9.918001e-05
-0.00014093916 0.00014093916 0.00014093916 0.00014093916 0.00014093916 0.00014093916 -0.00014093916 0.00014093916
0.00014093916 -0.00014093916 0.00014093916 -0.00014093916 0.00014093916 0.00014093914 -0.00014093916 -0.0003542831
-0.00014093916 -0.00014093916 0.00014093916 -0.00014093916 -0.00014093916 -0.00014093916 -0.00014087764 0.00014093916
0.00042426298 0.00042426644 -0.00042426298 0.00042426298 -0.00042426257 -0.00042426295 0.00042426863 0.0004242682
0.000424267 0.00042426487 0.00042426298 -0.0004242612 -0.00042426318 -0.00042426903 0.00042426298 -0.00042426298
0.00042426298 -2.9356814e-05 0.0004242616 -0.00042426295 -0.00042426377 -0.00042426417 0.00042427419 -0.0004242683
0.00042426298 0.0003473063 -0.00042426877 0.00042426828 0.0004242703 0.0004242634 0.00042426257 0.00042426825
-0.00042426802 0.0004242637 0.00042429872 -0.00042426883 0.0004242798 -0.00042426298 0.00042426636 0.00042426816
-0.00042427215 -0.00041509903 -0.00042427104 -0.00042427218 0.0004242687 -0.0004242653 -0.00042426298 -0.0004242626
-0.0004242639 0.00042426318 -7.100104e-06 -7.1008044e-06 1.0762925e-05 -7.1001186e-06 7.1003114e-06 7.100104e-06
