案例1/model_res.pt (torch, 104715 bytes, 30 tensors)

linears.0.weight f4 [50, 3]
0	0x3ee1060b	0.43949923
1	0x3eb137bb	0.3461283
2	0x3e5672fa	0.20942298
3	0xbebdef96	-0.37096852
4	0xbf4bd67f	-0.7962417
5	0xbec9231a	-0.39284593
6	0x3e19e572	0.15028933
7	0x3c81130e	0.015756156
8	0x3e6fae80	0.2340641
9	0x3d3411b5	0.0439622
10	0x3d3f5e70	0.046720922
11	0x3e69fd7f	0.22850607
12	0x3ca56d18	0.020193622
13	0x3be8678d	0.0070924223
14	0xbd36ac58	-0.044597954
15	0x3eefefee	0.4686274
16	0x3ed3153c	0.41227138
17	0x3e31c9f6	0.17362198
18	0x3d1f3b3f	0.03887486
19	0x3d9009ca	0.07033117
20	0x3ed475fc	0.41496265
21	0x3d23136e	0.03981345
22	0x3da06121	0.07831026
23	0x3e2abb39	0.16672982
24	0x3cfc5695	0.030803004
25	0xbc40a367	-0.011757708
26	0x3de74b66	0.11293678
27	0xbec06102	-0.3757401
28	0xbe382cbe	-0.17985818
29	0xbea81ff2	-0.32836872
30	0xbe478424	-0.19484001
31	0xbf1c587a	-0.61072505
32	0xbf16b675	-0.5887216
33	0xbdaaaea0	-0.08334088
34	0xbce4b97b	-0.027920475
35	0xbe31cc4d	-0.17363091
36	0x3bde6b3b	0.006787685
37	0x392b7094	0.0001634977
38	0xbde5e3f3	-0.112251185
39	0x3e480d0b	0.19536225
40	0x3e9cfbd5	0.30660883
41	0x3e30e19f	0.17273568
42	0x3db096cc	0.08622512
43	0x3d5f991f	0.054589387
44	0x3dfbf2f9	0.12302203
45	0xbb912fde	-0.004430755
46	0x37fee78d	3.0386984e-05
47	0x3d856c57	0.06514805
48	0xbb8caec4	-0.0042932946
49	0xb7bef780	-2.2765016e-05
50	0x3cf64933	0.030064201
51	0xbf479f75	-0.7797769
52	0xbf2e0356	-0.6797384
53	0xbd08d735	-0.033408362
54	0xbcfc8cd1	-0.030828865
55	0xbae0a15c	-0.0017137933
56	0xbf1716d2	-0.59019196
57	0x3d5cd648	0.053915292
58	0x3d56eefe	0.052474014
59	0x3d36dff8	0.044647187
60	0x3f2c0c48	0.6720624
61	0x3e73b9cf	0.23801349
62	0x3e998670	0.2998538
63	0xbd57cd07	-0.052685764
64	0xbc9d8491	-0.019228252
65	0xbe4c0554	-0.19923908
66	0xbd87815c	-0.0661647
67	0xbdc37a51	-0.095448144
68	0xbe1c3d3e	-0.15257737
69	0x3e91333b	0.28359398
70	0x3e6b2409	0.22962965
71	0x3e784898	0.24246442
72	0x3d8c015f	0.06836199
73	0x3c8d7dc1	0.017271878
74	0x3e2b5d70	0.16734862
75	0xbdbc7408	-0.09201819
76	0xbc32294d	-0.010874105
77	0xbe66fd1f	-0.22557496
78	0xbea83028	-0.3284924
79	0xbe90f503	-0.2831193
80	0xbe1ac4fe	-0.15114209
81	0xbe6c48e0	-0.23074675
82	0xbe8fcd57	-0.2808635
83	0xbd888821	-0.066665895
84	0xbe105ab1	-0.14097096
85	0xbc865a84	-0.016400583
86	0xbea1d323	-0.31606397
87	0xbbbf8901	-0.0058451896
88	0xba10e073	-0.00055266096
89	0x3de840a7	0.113404565
90	0xbd033335	-0.032031257
91	0xbd842860	-0.064530134
92	0xbe599109	-0.21246733
93	0x3d1cba25	0.03826346
94	0x3b895103	0.0041905656
95	0x3e831e72	0.25609165
96	0x3ca1701d	0.01970678
97	0x3bbf5f73	0.005840236
98	0xbd943f93	-0.07238688
99	0x3d19b298	0.037523836
100	0x3cc6b504	0.024256237
101	0x3a84e637	0.001013941
102	0xbb77fa77	-0.0037838498
103	0xb9091aac	-0.00013075274
104	0xbcfe8710	-0.031070262
105	0xbb8a023c	-0.004211692
106	0x3c06a7a8	0.008218683
107	0xbd71e626	-0.059057377
108	0x3d1b5c3e	0.037929766
109	0x3ca77e08	0.020445839
110	0xbd9fc172	-0.07800569
111	0x3e8b639f	0.27224442
112	0x3e10db3f	0.14146136
113	0x3e90f827	0.28314325
114	0xbe0c277f	-0.13686942
115	0xbc70a183	-0.014686945
116	0xbe92b47b	-0.2865332
117	0x3d690359	0.05688796
118	0x3c351433	0.011052179
119	0x3ec643c2	0.3872357
120	0xbd2260d6	-0.03964313
121	0xbd167294	-0.036730364
122	0xbd00ed02	-0.03147603
123	0x3d0ee06b	0.03488199
124	0x3d13450e	0.035954528
125	0xbbf1c6a5	-0.0073784166
126	0xbd023fa3	-0.03179897
127	0xbd29d1d0	-0.04145986
128	0xbd3ab938	-0.045586795
129	0x3d03d5c3	0.03218628
130	0x3ce476c0	0.027888656
131	0x3da4f4c8	0.08054501
132	0xbd33766e	-0.043814115
133	0xbd68fc2d	-0.05688112
134	0x3c5ac12c	0.01335172
135	0xb9a25a93	-0.0003096653
136	0x3873674f	5.803193e-05
137	0xbe95f771	-0.29290345
138	0x3d28f86c	0.04125254
139	0x3d23cf0d	0.03999238
140	0x3cf3c22c	0.029755674
141	0xbd1e2e21	-0.03861821
142	0xbd7b7b63	-0.061396968
143	0xbea48de7	-0.32139513
144	0x3f1c5c1b	0.6107804
145	0x3f0a006b	0.5390689
146	0x3e573d27	0.21019422
147	0x3e8441bb	0.25831398
148	0x3db8f141	0.090303905
149	0x3f07a863	0.5299131

linears.0.bias f4 [50]
0	0x3eba6207	0.36402914
1	0xbf7432f9	-0.9539028
2	0x3ed0c51c	0.40775383
3	0x3f2dd740	0.6790657
4	0x3ae0c0e0	0.0017147325
5	0x3f29c75d	0.6631983
6	0x3e0c2c23	0.13688712
7	0x3f2ee9d8	0.6832557
8	0x3e482ef7	0.19549166
9	0xbf7edc46	-0.9955486
10	0xbe944678	-0.28960013
11	0xbe8d912a	-0.27649814
12	0x3f23352b	0.63753
13	0x3ed6ca04	0.41951
14	0xbd4e24fe	-0.050328247
15	0x3f3e9874	0.74451375
16	0x3f717505	0.9431918
17	0xbee6ff50	-0.45116663
18	0x3ec166b7	0.37773678
19	0x3deba4d6	0.11506049
20	0x3ea67ee8	0.32518697
21	0x3e71ab9c	0.2360062
22	0xbf6a6533	-0.9156067
23	0x3d80ba7e	0.062855706
24	0x3ec6b45d	0.3880948
25	0xbe0d9c5a	-0.13829175
26	0x3db8fa35	0.09032098
27	0xbec553f5	-0.38540617
28	0xbebda9d7	-0.3704364
29	0xc00c3a74	-2.1910677
30	0xbd05f02e	-0.032699756
31	0xbe56d56d	-0.20979853
32	0xbd0ab970	-0.033868253
33	0x3f5ac979	0.8546367
34	0x3f75be36	0.95993364
35	0x3e12da01	0.14340974
36	0xbedfef36	-0.4373719
37	0x3f86729e	1.0503728
38	0xbeadc0ca	-0.3393615
39	0x3ea6b0e2	0.32556826
40	0x3e3c6510	0.18397927
41	0x3f7fc02b	0.999026
42	0xbf374128	-0.71583796
43	0xbe7701e3	-0.24121813
44	0xbf5bfec3	-0.8593561
45	0x3f110ba1	0.5665837
46	0x3d152308	0.03641036
47	0xbdc5c307	-0.09656339
48	0x3fc7352f	1.5563105
49	0x3f56c54d	0.8389481

linears.1.weight f4 [50, 50]
0	0xbe572008	-0.21008313
1	0x3e48c682	0.19606975
2	0xbe688f63	-0.22710948
3	0x3d8fcab6	0.07021086
4	0x3d5e7483	0.054310333
5	0x3d1c1b22	0.038111813
6	0xbd9d9f8e	-0.07696448
7	0x3d76e6c8	0.060278684
8	0x3e2b22b1	0.16712452
9	0x3e82f380	0.255764
10	0xbd0ef824	-0.034904614
11	0xbdffc425	-0.124885835
12	0xbb8e4545	-0.0043417537
13	0xbe15a5a3	-0.14613967
14	0x3d31d51f	0.04341614
15	0xbe8f7fbb	-0.28027138
16	0xbec5b7bb	-0.38616738
17	0x3e533dd1	0.2062905
18	0xbdb4df6c	-0.08831677
19	0x3e45c100	0.19311905
20	0x3d8ab072	0.067719355
21	0xbdf34323	-0.1187804
22	0x3d7fd2f9	0.06245706
23	0xbe2bc79c	-0.16775364
24	0xbe338545	-0.17531307
25	0xbe316aa5	-0.17325838
26	0x3e79ceef	0.24395345
27	0x3e20bbd6	0.15696654
28	0xbd814a8a	-0.06313045
29	0x3d5cf26d	0.053942133
30	0xbe07bc1a	-0.13255349
31	0x3d7d4418	0.061832517
32	0x3d81c771	0.063368686
33	0xbe3bedc9	-0.18352427
34	0xbeeebb72	-0.46627384
35	0xbe60d987	-0.2195798
36	0x3b7e6a57	0.0038820708
37	0x3d856edf	0.065152876
38	0xbda41f4c	-0.08013782
39	0x3e0c693a	0.13712016
40	0xbd34be24	-0.044126645
41	0xbe3d2a2d	-0.1847312
42	0xbe02a696	-0.1275886
43	0xbd02e77c	-0.031959042
44	0x3c73e322	0.014885696
45	0x3dcc951c	0.09989378
46	0xbe3de9f3	-0.18546276
47	0x3e808c25	0.25106922
48	0xbda71ab4	-0.0815939
49	0x3c293e5a	0.010329807
50	0xbe12a3ac	-0.14320248
51	0xbb8abdd5	-0.0042340555
52	0x3e25173e	0.16122147
53	0x3d459f7f	0.04824781
54	0xbea5ffda	-0.32421762
55	0xbea19f76	-0.31566972
56	0xbe8d7978	-0.27631736
57	0x3db1012d	0.086428024
58	0x3dcf5022	0.10122706
59	0x3e85717f	0.26063153
60	0x3e984a74	0.29744303
61	0x3e74f9f7	0.23923479
62	0xbe1aa503	-0.1510201
63	0x3de7c7ee	0.113174304
64	0xbe102ce8	-0.1407963
65	0xbddd32eb	-0.108007275
66	0xbe30f550	-0.1728108
67	0x3d13f31e	0.036120526
68	0xbe0827b9	-0.13296403
69	0x3d479227	0.048723366
70	0xbe27d566	-0.16389999
71	0x3e49a8d7	0.19693314
72	0x3eaedf79	0.3415487
73	0xbe2de8f7	-0.169834
74	0xbd96f2d9	-0.07370538
75	0x3defc6e1	0.11707855
76	0x3c3518f0	0.011053309
77	0xbd8ccc29	-0.06874878
78	0xbd96137b	-0.07327934
79	0x3e866c7a	0.26254636
80	0x3e1e8dfb	0.15483849
81	0xbe4d0798	-0.20022428
82	0xbbfa13df	-0.0076317634
83	0xbe66b412	-0.22529629
84	0x3dedf892	0.11619677
85	0x3e15259c	0.14565128
86	0xbdcd5016	-0.10025041
87	0xbeaef25b	-0.34169278
88	0x3cf59949	0.029980319
89	0xbdce8393	-0.100836895
90	0x3dec4b5e	0.11537813
91	0xbe7ebf72	-0.24877718
92	0xbd618c8d	-0.05506568
93	0xbe204dc0	-0.1565466
94	0x3e2f8756	0.1714147
95	0x3d07e0f9	0.033173535
96	0xbe0d1867	-0.1377884
97	0x3e5dc25c	0.21656173
98	0xbe12c1cb	-0.14331739
99	0xbdf40b97	-0.11916273
100	0x3da74922	0.08168246
101	0x3d7e68ed	0.062111784
102	0xbe4b3d97	-0.19847713
103	0xbd7dc58e	-0.06195598
104	0xbe5c5983	-0.21518521
105	0x3d60d1dd	0.05488764
106	0xbde14457	-0.10999363
107	0x3e46ea8a	0.19425407
108	0x3e805656	0.2506587
109	0xbb928945	-0.00447193
110	0x3db5b1e8	0.088718235
111	0xbcd95e82	-0.026534323
112	0xbdd016e4	-0.10160616
113	0xbd3ad8f8	-0.045617074
114	0xbe060a33	-0.13089828
115	0xbeb1df8a	-0.3474086
116	0xbe96adf0	-0.2942958
117	0xbd984f87	-0.07437044
118	0x3e73d70c	0.23812503
119	0x3e31b614	0.17354614
120	0xbe68fd0a	-0.22752777
121	0x3d8b7d57	0.06811016
122	0x3d2dab49	0.04239968
123	0x3e44d5c6	0.19222173
124	0xbd930c02	-0.07180025
125	0xbe453ecb	-0.19262235
126	0x3e06bc63	0.13157801
127	0x3d3d3219	0.046190355
128	0x3d83272a	0.06403954
129	0xbd914c2e	-0.07094608
130	0x3da2b1ee	0.07944094
131	0xbc11ee77	-0.008906952
132	0x3e49884e	0.19680902
133	0x3e3f822c	0.18702
134	0xbd45a9cc	-0.048257634
135	0xbc817dc3	-0.015807038
136	0x3d85a495	0.06525532
137	0xbd8350f5	-0.06411926
138	0x3e4be2af	0.19910692
139	0x3e13d2bb	0.14435856
140	0x3d8789a7	0.06618052
141	0xbc38ea21	-0.011286289
142	0xbddd43e5	-0.108039655
143	0xbe002672	-0.12514666
144	0x3e1c4933	0.15262298
145	0xbe5e7297	-0.217234
146	0x3df26454	0.11835542
147	0x3dcfeec0	0.1015296
148	0xbe616203	-0.22010045
149	0xbe274410	-0.16334558
150	0x3e076171	0.13220765
151	0x3e202dce	0.15642473
152	0xbb1217a5	-0.0022291925
153	0xbd56b1e5	-0.052415747
154	0x3d972b24	0.07381275
155	0x3c20aaad	0.009806317
156	0x3e049edb	0.12951224
157	0x3d796b12	0.060893126
158	0xbc465e78	-0.012107484
159	0x3e312d51	0.17302443
160	0x3de3b495	0.11118428
161	0x3d9458b6	0.07243483
162	0x3dee405c	0.11633369
163	0xbdce01e3	-0.100589536
164	0xbde05334	-0.1095337
165	0xbe93e82c	-0.2888807
166	0xbe3ff70f	-0.18746589
167	0x3e1cdd68	0.15318835
168	0xbde43c57	-0.111443214
169	0x3e484d43	0.19560723
170	0x3c7612b7	0.01501911
171	0x3dded2db	0.10880061
172	0x3d1c556f	0.038167413
173	0xbe085830	-0.13314891
174	0xbe413e10	-0.18871331
175	0x3e2fd24d	0.17170067
176	0x3c9e015a	0.019287754
177	0x3e7fa71c	0.24966091
178	0x3de71f05	0.112852134
179	0x3de9f37b	0.11423393
180	0xbe162822	-0.14663747
181	0x3dd89b93	0.105765484
182	0x3d9d529b	0.07681771
183	0x3dfcbca1	0.123406656
184	0xbe376dfa	-0.17913046
185	0x3e5fb273	0.21845417
186	0x3e36f42e	0.17866585
187	0xbd4a970b	-0.049460452
188	0xbcb383d3	-0.021913445
189	0x3b59e8e9	0.0033250398
190	0xbe100567	-0.14064561
191	0x3e3fe8b8	0.18741119
192	0x3da0c834	0.07850686
193	0xbe16fc57	-0.14744698
194	0xbe1bbd51	-0.15208937
195	0xbe2380a7	-0.15967046
196	0x3e4dc3b7	0.2009419
197	0xbd8c0b38	-0.06838077
198	0xbe087f60	-0.1332984
199	0xbdf0e9bb	-0.117633305
200	0x3da6a608	0.08137137
201	0x3e5960aa	0.2122828
202	0xbd14094a	-0.03614167
203	0x3dfa1759	0.122114845
204	0x3e449fa1	0.19201519
205	0x3e5df4f5	0.21675475
206	0x3d694816	0.056953512
207	0xbd5f67ac	-0.05454223
208	0xbdf41b6d	-0.119192936
209	0xbd839ede	-0.06426786
210	0xbe416dfe	-0.18889615
211	0xbd2084d6	-0.039189182
212	0xbe82fe46	-0.2558462
213	0x3e6a0a5c	0.22855514
214	0x3e50d6fa	0.20394507
215	0x3ecc3efd	0.39891806
216	0x3f0d8901	0.55287176
217	0xbca51e06	-0.020155918
218	0x3e4ea5ed	0.20180483
219	0x3d0d059b	0.034429174
220	0xbe581837	-0.21102987
221	0xbd9574df	-0.07297682
222	0xbce30b7c	-0.027715437
223	0xbdf8ffa4	-0.121581346
224	0x3c152a51	0.009104327
225	0x3db43819	0.08799762
226	0x3cc44732	0.02395973
227	0xbdee1747	-0.116255336
228	0xbe43faaf	-0.19138597
229	0xbd41ecb1	-0.047344867
230	0xba9de9df	-0.0012047848
231	0x3e0996e5	0.13436468
232	0x3e03012e	0.12793419
233	0x3dbb1a21	0.09135843
234	0xbd25b473	-0.040455293
235	0xbe15c034	-0.14624101
236	0x3bdffb37	0.006835367
237	0xbe1599e6	-0.14609489
238	0x3c8ba9e2	0.01704878
239	0x3dd9eac7	0.10640483
240	0xbe028178	-0.12744701
241	0x3e393736	0.18087468
242	0xbe4e9ce6	-0.2017704
243	0xbde3f018	-0.111297786
244	0xbdc283a3	-0.09497764
245	0x3d6a9da4	0.057279244
246	0xbdf67424	-0.12033871
247	0x3da11be3	0.07866647
248	0xbe6398f0	-0.2222631
249	0xbe6d3e74	-0.23168355
250	0xbe56f1ea	-0.2099072
251	0x3d9b3ef9	0.075803705
252	0x3e3d7a3a	0.18503657
253	0x3bed1d9b	0.0072361953
254	0xbd92e195	-0.071719326
255	0x3d998ea8	0.07497913

linears.1.bias f4 [50]
0	0xbd04e419	-0.032444093
1	0xbe1b6d5c	-0.15178436
2	0xbc1ff06c	-0.009761911
3	0xbca68602	-0.020327572
4	0x3ca9741b	0.020685246
5	0xbbe16c30	-0.006879352
6	0xbc01c71e	-0.007921008
7	0x3c9cd019	0.019142197
8	0xbc631eeb	-0.013862352
9	0x3d12e05b	0.035858493
10	0xbcdad79b	-0.026714137
11	0x3c997b25	0.018735478
12	0xbcbbc7ab	-0.022922358
13	0x3c4c9a05	0.012487893
14	0xbb8f335c	-0.004370136
15	0xbbf58232	-0.007492327
16	0xbab0731c	-0.001346204
17	0xbc638ae9	-0.013888099
18	0xbb0f2bd6	-0.0021846197
19	0xbd50ba05	-0.050958652
20	0x3d2866dc	0.04111372
21	0xbcb88779	-0.022525536
22	0x3cb00630	0.021487325
23	0xbc840385	-0.01611496
24	0x3d202b06	0.03910353
25	0x3cb926fe	0.0226016
26	0xbca8956c	-0.020579062
27	0x3c191e63	0.009345624
28	0x3b4d6a18	0.0031343754
29	0x3c9783f9	0.018495547
30	0xbca317d1	-0.019908817
31	0xbc8c0774	-0.017093398
32	0xbc0024cd	-0.007821274
33	0x3cd04abc	0.025426261
34	0x3b7c7328	0.0038520787
35	0x3dd3f6c5	0.10349802
36	0xbcd23007	-0.025657667
37	0x3d8411ce	0.064487085
38	0x3dbc54ef	0.09195887
39	0x3c9d17fa	0.019176472
40	0xbcc0a345	-0.023515353
41	0x3c0159b4	0.007894922
42	0xbd8f75d2	-0.07004894
43	0x3ccd1ee9	0.025039153
44	0x3be4969f	0.0069759632
45	0xbcec9a65	-0.028882215
46	0x3d113ecf	0.03546029
47	0x3c0f8082	0.008758666
48	0xbd3c606c	-0.045990393
49	0x3c384a80	0.011248231

linears.2.weight f4 [50, 50]
0	0xbf53b1a3	-0.8269293
1	0x3e72b631	0.23702313
2	0x3c948720	0.018130839
3	0x3ea59a10	0.32344103
4	0xbd0f4107	-0.034974124
5	0xbe26af7c	-0.1627788
6	0x3dfe62d1	0.124211915
7	0x3f37dd95	0.7182248
8	0xbf3ab06f	-0.72925466
9	0x3d8a889e	0.06764339
10	0x3ecdba06	0.40180987
11	0x3e69fa96	0.22849497
12	0xbff35783	-1.9011081
13	0x3f7ff140	0.99977493
14	0x3c0326cb	0.008004854
15	0x3f00ce58	0.50314856
16	0xbe1c5ade	-0.15269038
17	0xbda45b9c	-0.080252856
18	0x3e1473c5	0.14497288
19	0x3e9205f5	0.2852017
20	0xbe8b0f93	-0.2716032
21	0xbe29d874	-0.16586477
22	0x3e3d7283	0.18500714
23	0xbe31571d	-0.17318387
24	0x3f5152a3	0.8176672
25	0x3d94c027	0.07263213
26	0xbe755f78	-0.239622
27	0x3e9a0b0a	0.30086547
28	0x3ed52f28	0.4163754
29	0xbe7f799c	-0.24948734
30	0x3dabd429	0.08390076
31	0xbfa843d7	-1.3145703
32	0xbf081a64	-0.5316527
33	0xbdb352a8	-0.08756
34	0xbe0f0b42	-0.13969138
35	0x3d206a95	0.039164145
36	0x3dc885d6	0.09791152
37	0xbdc2219a	-0.09479065
38	0x3e13e362	0.14442208
39	0x3ec21573	0.3790699
40	0xbe26500c	-0.16241473
41	0xbe0d03c5	-0.13770969
42	0x3d006c23	0.031353127
43	0xbe15b408	-0.14619458
44	0xbcc9b842	-0.024623994
45	0x3e0e18b1	0.13876607
46	0x3e543316	0.20722613
47	0x3eae231b	0.34011158
48	0xbd354ede	-0.044264667
49	0x3eb931b9	0.36170748
50	0x3cf6a133	0.030106163
51	0x3e564b7c	0.20927233
52	0x3ddd6251	0.10809768
53	0x3dd753ba	0.105140164
54	0xbe2e8f28	-0.17046797
55	0xbd3f3d17	-0.04668912
56	0x3e2852b7	0.16437803
57	0x3dba3188	0.090914786
58	0xbeb9238f	-0.36159942
59	0xbe8d1106	-0.2755205
60	0xbb909cb1	-0.0044132103
61	0xbec790a4	-0.3897754
62	0xbebd44a9	-0.36966446
63	0xbc9066b7	-0.017627103
64	0x3eb2cccb	0.3492187
65	0xbe818d39	-0.25303057
66	0xbe5567a8	-0.20840323
67	0xbe109dc7	-0.14122687
68	0xbef5c6ee	-0.48003334
69	0x3d0494e9	0.032368574
70	0x3dda9ccc	0.10674438
71	0x3e9da1bb	0.30787453
72	0xbd112ec1	-0.03544498
73	0x3e508065	0.20361479
74	0xbe21ceef	-0.15801595
75	0x3d7d1cb6	0.06179496
76	0xbebd04cd	-0.36917725
77	0xbe124886	-0.14285478
78	0xbe49e022	-0.19714406
79	0x3cef002b	0.029174885
80	0xbdd3179e	-0.10307239
81	0xbe7abe01	-0.24486543
82	0xbdcbee1c	-0.09957525
83	0xbdea15de	-0.11429952
84	0x3e0ac3f2	0.1355131
85	0xbed710c4	-0.4200498
86	0xbd5d0b2f	-0.053965744
87	0xbdafe1c9	-0.08587987
88	0xbed866cc	-0.42265928
89	0xbed5dac6	-0.41768473
90	0xbcd8512a	-0.02640589
91	0xbe971b20	-0.29512882
92	0x3dba1b30	0.09087217
93	0xbe4bd273	-0.19904499
94	0xbe406339	-0.1878785
95	0x3eb9c756	0.36284894
96	0xbdb1b8d6	-0.08677833
97	0xbdbf311c	-0.09335539
98	0x3e5370e5	0.20648535
99	0x3eade455	0.33963266
100	0xbf1a43fa	-0.60259974
101	0x3d774dec	0.060377046
102	0x3dd5eb8a	0.10445316
103	0x3df22d18	0.11825007
104	0xbd9a6e40	-0.0754056
105	0xbe260d0e	-0.16215917
106	0x3e1f51ba	0.1555852
107	0x3f93e408	1.1553965
108	0xbdf9877c	-0.12184045
109	0xbe8873f1	-0.26650956
110	0xbe88a0fd	-0.26685324
111	0xbe24b74a	-0.16085544
112	0xbf30e25d	-0.690954
113	0x3f333d2e	0.7001523
114	0xbe2e4207	-0.17017375
115	0x3e8ba154	0.2727152
116	0xbe5df12e	-0.21674034
117	0xbcaf48ca	-0.021397013
118	0x3d522146	0.051301263
119	0x3dbeedd9	0.093227096
120	0x3f79491d	0.97377187
121	0xbd896aab	-0.067097984
122	0x3e8c9121	0.27454475
123	0xbe467e0c	-0.1938402
124	0x3e087108	0.13324368
125	0x3e5c0cc6	0.21489248
126	0x3e55b6c6	0.20870504
127	0x3dd967f7	0.10615533
128	0x3e153cc9	0.14573969
129	0xbd6cafee	-0.057784967
130	0xbe1b4387	-0.15162478
131	0xbef2c25c	-0.4741391
132	0x3cd5c4b0	0.026094764
133	0xbe8e812c	-0.27832925
134	0xbcb3448d	-0.021883273
135	0x3e6c5535	0.23079379
136	0xbe96f52d	-0.2948393
137	0xbe129749	-0.14315523
138	0x3e1c9bf6	0.1529387
139	0xbe00661f	-0.12538956
140	0xbdaed7a4	-0.08537224
141	0xbde362bc	-0.111028165
142	0xbdff2495	-0.12458149
143	0x3ea13c99	0.31491545
144	0x3d54d924	0.051964894
145	0x3df1b5ff	0.11802291
146	0x3e4d0ad2	0.20023659
147	0x3cb5d6fa	0.022197235
148	0xbf7aae18	-0.97921896
149	0x3e6430ce	0.22284243
150	0x3f647d6c	0.8925388
151	0xbe43fbcf	-0.19139026
152	0x3f145849	0.5794721
153	0x3f914432	1.1348937
154	0xbe9f648b	-0.31131396
155	0xbe4db5be	-0.2008886
156	0x3e5d6c89	0.21623434
157	0xbf5c322f	-0.86014074
158	0x3fef9663	1.8717769
159	0xbf690d5b	-0.91036004
160	0x3f3d586a	0.73963034
161	0x3e7f0957	0.24905907
162	0x3f9d797b	1.2302698
163	0xbd9c2906	-0.07625012
164	0x3f215fbc	0.63036704
165	0xc04c4d59	-3.192221
166	0xbf444c87	-0.7667927
167	0x3f9d843b	1.2305979
168	0x3e2af800	0.16696167
169	0x40031ba2	2.0485616
170	0xbfb64b8e	-1.4241807
171	0xbdaa5fec	-0.08319077
172	0xc0590e43	-3.3914955
173	0xbe3aef1a	-0.18255273
174	0xc03ead31	-2.9793208
175	0xbf2303a2	-0.6367742
176	0xbef9decb	-0.4880279
177	0x3e709597	0.23494564
178	0x3f63e44a	0.89020216
179	0x3e72410f	0.2365763
180	0xbeab1309	-0.3341296
181	0x3f65da85	0.8978656
182	0x3f8401b6	1.0313022
183	0x3e83e2a7	0.2575886
184	0xbfb8eafb	-1.444671
185	0xbe1f09d0	-0.15531087
186	0x400db5c6	2.2142196
187	0xbf8b4ecf	-1.0883425
188	0xbe118c55	-0.14213689
189	0xbf9aafbf	-1.2084883
190	0xbf7c9bda	-0.9867531
191	0x3e328157	0.17432152
192	0x3d90a7e9	0.07063276
193	0x3f992ca7	1.1966752
194	0xbf9c09d2	-1.2190497
195	0x3e89c05e	0.26904577
196	0xbfb5ebcd	-1.4212586
197	0xbe365a41	-0.17807867
198	0x4030f563	2.7649772
199	0xbf4c29a4	-0.7975104
200	0x401a8c77	2.4148233
201	0x3e003fbb	0.12524311
202	0x3dfa9cb9	0.12236924
203	0xbaed2aa7	-0.0018094376
204	0xbed70609	-0.41996792
205	0x3e01ec4a	0.12687793
206	0x3e3e70b1	0.18597676
207	0xc014edf2	-2.327023
208	0x3eaadce3	0.33371648
209	0x3d758c13	0.05994804
210	0x3ee39c1a	0.44455034
211	0x3e52d1b0	0.20587802
212	0x3fc4c0c1	1.5371324
213	0xbfd9ad18	-1.7005949
214	0xbdc2ef24	-0.09518269
215	0xbf2b54f1	-0.66926485
216	0x3dfacdfe	0.12246321
217	0x3e5c09b6	0.2148808
218	0xbd860f8a	-0.065459326
219	0x3e9948f4	0.2993847
220	0xbf954f8a	-1.1664898
221	0xbde403ff	-0.11133575
222	0xbf5b2400	-0.85601807
223	0x3e0bd401	0.13655092
224	0xbec44bdd	-0.3833913
225	0xbe068e41	-0.13140203
226	0x3d78d78e	0.060752444
227	0x3e1b1216	0.15143618
228	0xbdff409e	-0.124634966
229	0xbe8e345f	-0.2777433
230	0x3de2b352	0.11069359
231	0x3f3d9c63	0.7406675
232	0x3c7fb335	0.015606691
233	0xbe112850	-0.14175534
234	0x3ebbb129	0.366586
235	0xbd9ad133	-0.07559433
236	0x3e44fe07	0.19237529
237	0xbd5d5f94	-0.05404623
238	0xbe0d94b1	-0.13826253
239	0x3d3a7ee8	0.045531183
240	0x3f277eff	0.65428156
241	0xbe716e63	-0.23577265
242	0xbde4c437	-0.111702375
243	0xbf627788	-0.8846364
244	0x3e17e4a8	0.14833319
245	0xbc2c2788	-0.010507472
246	0xbef75607	-0.4830782
247	0x3e07d49f	0.13264702
248	0x3fd36b7d	1.6517178
249	0x3d3481d9	0.044069145
250	0x3f3406c7	0.7032284
251	0xbe18120f	-0.14850639
252	0x3e560a32	0.20902327
253	0xbea8d876	-0.32977647
254	0xbeab1341	-0.33413127
255	0xbd89988c	-0.06718549

linears.2.bias f4 [50]
0	0x3bbb9292	0.0057242597
1	0xbe94d0d2	-0.29065567
2	0x3c60bee1	0.013717384
3	0xbbdec53d	-0.006798415
4	0xbcd1670f	-0.025561837
5	0xbca9cbab	-0.020727
6	0x3bc00cc2	0.005860896
7	0xbc499844	-0.012304369
8	0x3cc1e4f7	0.02366875
9	0xbdaa5956	-0.08317821
10	0x3d296857	0.04135927
11	0xbcaddbbe	-0.021222945
12	0x3ebb9865	0.36639705
13	0xbde17a27	-0.11009627
14	0xbbe13963	-0.006873296
15	0xbd02837d	-0.03186368
16	0x3d9fd255	0.078037895
17	0x3db9359c	0.09043428
18	0xbd645608	-0.05574611
19	0x3dd0bebf	0.10192632
20	0xbb7b8808	-0.0038380641
21	0xbcb5e405	-0.022203455
22	0xbe0eddc1	-0.1395178
23	0xbc1fe794	-0.009759802
24	0xbc0529e9	-0.008127668
25	0x3c8d6e33	0.017264461
26	0xbcf638e7	-0.03005643
27	0xbca5cb63	-0.020238584
28	0x3cf76729	0.030200558
29	0x3c772b0d	0.015085948
30	0xbb846ea4	-0.0040415097
31	0xbcc6c8d4	-0.024265684
32	0xbc3ec83b	-0.011644418
33	0xbe176c68	-0.14787447
34	0xbd71c180	-0.059022427
35	0x3c3d299d	0.011545566
36	0x3d4611cd	0.04835682
37	0x3d2a1779	0.04152629
38	0xbdb0458b	-0.08607014
39	0xbcea440b	-0.028596899
40	0xbcabc7f8	-0.020969376
41	0xbc9c1746	-0.019054066
42	0x3b8a6376	0.0042232824
43	0xbc0b38fc	-0.008497473
44	0xbd87ba9f	-0.06627392
45	0xbcca600f	-0.024704007
46	0xbe6dff13	-0.23241834
47	0x3e27643e	0.16346833
48	0x3d688281	0.056765083
49	0xbc4db953	-0.012556392

linears.3.weight f4 [50, 50]
0	0x3e90e55d	0.2829999
1	0x3d8ee7a5	0.069777764
2	0xbd2c35a8	-0.042043358
3	0xbc2b100a	-0.010440836
4	0xbc7aa1d0	-0.015297368
5	0x3dc1b873	0.09459009
6	0x3dd746e9	0.10511572
7	0xbe609f49	-0.21935762
8	0x3e57e0c2	0.21081832
9	0xbd453b27	-0.048152115
10	0x3e30d4e9	0.17268719
11	0x3e2b6564	0.16737896
12	0x3e1c403a	0.15258875
13	0xbd82920f	-0.06375515
14	0x3d71b61b	0.05901156
15	0x3e22586b	0.15854041
16	0xbe1868be	-0.14883706
17	0xbe208cea	-0.15678754
18	0x3e6c8543	0.2309771
19	0xbe01c78b	-0.12673776
20	0xbe489385	-0.19587524
21	0xbbdadf53	-0.0066794544
22	0xbe99ec39	-0.30063036
23	0xbdce97e6	-0.10087566
24	0xbd31dc6a	-0.043423094
25	0xbea4c053	-0.32177982
26	0xbd2d3ec2	-0.04229618
27	0x3e328391	0.17433001
28	0x3ea5b5c1	0.3236523
29	0x3e9505f9	0.2910612
30	0xbe20fdb5	-0.15721782
31	0x3e29aa6d	0.16568919
32	0xbe980a72	-0.2969547
33	0x3e77e0c0	0.24206829
34	0x3e79042b	0.24317996
35	0x3e552efe	0.20818707
36	0x3de7c699	0.11317176
37	0x3e49fc82	0.1972523
38	0xbc6e86ed	-0.014558536
39	0x3e2e239c	0.17005771
40	0xbd765894	-0.06014307
41	0x3b515639	0.0031942262
42	0xbddd806b	-0.108155094
43	0xbcebeb2f	-0.028798668
44	0xbe507144	-0.20355707
45	0xbe1ab8d1	-0.15109564
46	0xbbb93332	-0.005651855
47	0x3e66f635	0.22554858
48	0xbcea046d	-0.028566564
49	0xbd399374	-0.045306638
50	0xbf0de774	-0.55431294
51	0xbd824cdc	-0.06362316
52	0xbebcb3a3	-0.36855802
53	0x3e1d0481	0.1533375
54	0x3ecd16b6	0.4005639
55	0xbd77076a	-0.060309805
56	0xbe950a53	-0.2910944
57	0x3e8bb1ad	0.27283993
58	0xbef17bf1	-0.47164872
59	0x3ec74a74	0.3892399
60	0x3c7bb765	0.015363549
61	0x3f19e233	0.6011078
62	0xbe77bf97	-0.2419418
63	0xbd1c6723	-0.038184296
64	0xbdf35dea	-0.11883147
65	0xbe1e2bdb	-0.15446417
66	0x3e60caa8	0.21952307
67	0x3e3ccea8	0.18438208
68	0xbe93723f	-0.287981
69	0xbe58a96c	-0.2115838
70	0xbcf098fd	-0.029369825
71	0x3f513d0b	0.8173377
72	0xbd3cdbda	-0.046108104
73	0xbdb71445	-0.08939413
74	0x3f0c88e7	0.54896396
75	0xbeb8d46a	-0.3609956
76	0xbbde4998	-0.0067836754
77	0xbe60c47b	-0.21949951
78	0xbe5ca48f	-0.21547149
79	0xbdb19e58	-0.0867278
80	0x3e8fb178	0.28065085
81	0x3e5e8fe0	0.21734571
82	0x3bcfea01	0.006345034
83	0x3e317afa	0.17332068
84	0x3dca081e	0.098648295
85	0xbe94f9f9	-0.29096964
86	0x3e160805	0.14651497
87	0x3de6a6b1	0.112622626
88	0x3e6d6031	0.23181225
89	0x3e9b99f4	0.30390894
90	0x3ce53620	0.02797991
91	0x3ec4a5a1	0.38407615
92	0xbf347521	-0.70491225
93	0x3f23a40f	0.6392221
94	0x3d2ab8fd	0.041680325
95	0x3ece5428	0.4029858
96	0x3e4d5456	0.20051703
97	0x3e7d57c3	0.2474051
98	0xbe4831be	-0.19550225
99	0x3da43ec2	0.080197826
100	0x3ee54868	0.44781804
101	0xbe00e566	-0.12587509
102	0x3e788719	0.24270286
103	0xbeaedbfd	-0.34152213
104	0xbdbe1e85	-0.09283165
105	0xbe95e202	-0.29273993
106	0x3dc01cc7	0.09380489
107	0xbe3244a9	-0.17409004
108	0x3e91b6b3	0.284597
109	0xbedfd7e7	-0.43719408
110	0x3ca06af4	0.01958225
111	0xbe52cdfc	-0.2058639
112	0x3df15f80	0.11785793
113	0xbe8ba1ae	-0.2727179
114	0xbe2279a7	-0.15866719
115	0x3ba0bfd1	0.004905679
116	0xbe4ea786	-0.20181093
117	0x3e6549ca	0.2239143
118	0xbcb44a58	-0.022008106
119	0x3e2a3111	0.1662028
120	0xbe694064	-0.2277847
121	0xbebbb483	-0.36661157
122	0xbe6fe3c3	-0.23426728
123	0xbc07ea5a	-0.00829562
124	0xbe9255ad	-0.2858099
125	0x3ec110e3	0.37708196
126	0x3d4c2122	0.049836285
127	0xbc9b5fc0	-0.018966556
128	0x3ecc2291	0.39870122
129	0x3dd074dc	0.10178539
130	0xbf042392	-0.51616776
131	0xbe1807fd	-0.14846797
132	0x3e0b9a10	0.13632989
133	0xbe8bdca2	-0.27316767
134	0x3e8aa87f	0.27081677
135	0x3efdabb0	0.4954505
136	0xbcec6141	-0.028854968
137	0x3d7201f2	0.059083886
138	0x3e22906f	0.1587541
139	0xbe7ceabb	-0.24698918
140	0x3d726613	0.059179377
141	0xbe991a21	-0.29902747
142	0x3cfdb880	0.030971766
143	0xbe837a40	-0.25679207
144	0xbcbea812	-0.023273502
145	0xbf0ad579	-0.54231983
146	0x3bf75508	0.0075479783
147	0x3e85d0d1	0.26135877
148	0xbdaf0fc4	-0.08547929
149	0x3e1687fd	0.14700313
150	0x3f6e8b7a	0.93181574
151	0x3def8a8f	0.1169635
152	0x3efaf679	0.4901617
153	0xbe95f498	-0.29288173
154	0xbf273d9b	-0.6532838
155	0x3daa922b	0.083286606
156	0x3cd5fd05	0.026121626
157	0xbe267124	-0.16254097
158	0x3f6048d8	0.8761115
159	0xbd98e279	-0.07465071
160	0xbe1bf30d	-0.15229435
161	0xbe098a61	-0.13431694
162	0x3db8e305	0.090276755
163	0xbdb1b389	-0.08676822
164	0xbe278602	-0.16359714
165	0x3d723a9e	0.059137933
166	0xbe1d2fe3	-0.15350299
167	0x3dc28db2	0.094996825
168	0x3d600cfb	0.05469988
169	0x3f04f430	0.519351
170	0xbea82413	-0.32840022
171	0xbf204247	-0.6260113
172	0xbdc85116	-0.09781091
173	0xbeccaf4f	-0.399775
174	0xbf259990	-0.6468744
175	0x3e07d40f	0.13264488
176	0xbd8d4373	-0.068976305
177	0x3ebe770b	0.37200198
178	0x3ee33027	0.44372675
179	0x3dfeffcc	0.12451133
180	0xbeb47634	-0.35246432
181	0xbeba2bf8	-0.3636167
182	0xbe1b5bc7	-0.15171729
183	0x3e0a6277	0.13514124
184	0xbe3683a1	-0.1782365
185	0x3e6a934a	0.22907749
186	0x3e8d4593	0.27592143
187	0xbcb0c4fd	-0.021578306
188	0x3db4d01c	0.08828756
189	0xbe6c9584	-0.2310391
190	0x3d0d5634	0.034506038
191	0xbe721514	-0.23640853
192	0x3f18315c	0.59450316
193	0xbf0c4107	-0.54786724
194	0xbe975ddb	-0.29563794
195	0xbf4fad37	-0.8112368
196	0xbd9c7f5a	-0.07641478
197	0x3d868094	0.06567493
198	0xbcb8bef8	-0.022551998
199	0x3e0d3988	0.13791478
200	0xbe02c4d6	-0.127704
201	0xbe10397f	-0.14084433
202	0xbe6d9cfd	-0.23204418
203	0xbed69c1c	-0.41915977
204	0xbe6200d2	-0.22070625
205	0xbdf0ffc0	-0.117675304
206	0x3edb82b0	0.42873144
207	0x3d9b7a59	0.07591695
208	0x3e667267	0.22504579
209	0x3c116f52	0.0088766385
210	0x3e1240d8	0.14282548
211	0xbdab9b3f	-0.0837922
212	0xbe3e18d7	-0.18564163
213	0x3dd8222f	0.10553395
214	0xbd5ca109	-0.053864513
215	0x3d985cfe	0.07439612
216	0xbc57e2e1	-0.013176651
217	0xbe4230dc	-0.18963951
218	0x3e5a3f8f	0.21313308
219	0xbe37a5b3	-0.17934303
220	0xbd395f7d	-0.04525708
221	0xbe17f6d0	-0.14840245
222	0x3e3ccefb	0.18438332
223	0xbe27c4f5	-0.16383727
224	0xbde93dbe	-0.113887295
225	0x3e30c305	0.17261894
226	0xbe3224c2	-0.17396834
227	0xbda697fc	-0.081344575
228	0xbe2e5afc	-0.17026895
229	0x3e9b1f18	0.3029716
230	0xbe9a9e6d	-0.30198994
231	0x3ca3a848	0.019977704
232	0xbe39a618	-0.18129766
233	0x3e672a87	0.22574817
234	0x3ced89f1	0.02899644
235	0x3e58c224	0.21167809
236	0x3d8c9be3	0.068656705
237	0xbe6cbe30	-0.23119426
238	0x3ce4467f	0.027865646
239	0xbec8f0a2	-0.39246088
240	0xbc5c5d30	-0.013449952
241	0xbdf5620f	-0.11981594
242	0xbdff9762	-0.12480046
243	0xbe870133	-0.26368102
244	0xbe51a640	-0.20473576
245	0x3d985e68	0.074398816
246	0xbd8ad065	-0.06778029
247	0x3e1b3c61	0.15159751
248	0xbd0360fc	-0.032074913
249	0x3be6723e	0.0070326617
250	0xbd9d6c3c	-0.0768666
251	0x3e8172ce	0.25282902
252	0xbdd1a25b	-0.10236045
253	0xbe3ff609	-0.18746199
254	0x3e66688c	0.22500819
255	0xbda88f0f	-0.08230411

linears.3.bias f4 [50]
0	0x3db4339a	0.08798905
1	0x3cb99dac	0.022658192
2	0x3d1b0f4b	0.03785638
3	0x3d4f8c3b	0.050670844
4	0xbb81aa0a	-0.003957038
5	0xbe2341f0	-0.15943122
6	0xbe35abe6	-0.17741355
7	0xbd7f9c8c	-0.062405154
8	0xbddcd8bd	-0.10783527
9	0x3dadf6fb	0.084943734
10	0x3d2cd708	0.042197257
11	0x3e5afaec	0.21384782
12	0xbc9993e9	-0.018747287
13	0x3e1ae9f7	0.15128313
14	0x3e80aa32	0.2512985
15	0xbd16412a	-0.03668324
16	0x3d441efd	0.047881115
17	0xbdd9c908	-0.10634047
18	0xbaac21ee	-0.001313267
19	0x3cbbc7fb	0.022922507
20	0xbd879c43	-0.066216014
21	0x3e1e4e78	0.15459621
22	0x3e1d5718	0.15365255
23	0x3ced7fa9	0.028991537
24	0xbccb3878	-0.0248072
25	0x3cb7df87	0.022445453
26	0x3d870b8d	0.06594
27	0x3d4280f1	0.04748625
28	0x3d1f501a	0.03889475
29	0xbe2a14a6	-0.16609439
30	0x3e22ddba	0.15904894
31	0x3d2ec24b	0.04266576
32	0xbe14f2a6	-0.14545688
33	0x3e0479c3	0.12937073
34	0xbd70a661	-0.05875242
35	0xbd655dd8	-0.0559977
36	0xbda85a10	-0.08220303
37	0x3dfd3791	0.12364114
38	0xbd92734e	-0.07150899
39	0x3c3bd2be	0.011463819
40	0x3cac5c1f	0.02104002
41	0xbc0ab3e1	-0.008465738
42	0xbd8c3366	-0.06845741
43	0x3d31b87e	0.043388836
44	0x3e8bf077	0.27331898
45	0x3e19d7b3	0.15023689
46	0xbd7dde38	-0.061979502
47	0xbc886d95	-0.016653815
48	0x3e1906a3	0.14943938
49	0xbce4dfaf	-0.027938692

linears.4.weight f4 [3, 50]
0	0x3cdb3dd1	0.026762875
1	0x3edd08a2	0.4317065
2	0x3e07e030	0.13269114
3	0xbec483af	-0.38381717
4	0x3e99411a	0.2993248
5	0xbda82f73	-0.08212175
6	0xbd8d8f2c	-0.069120735
7	0xbe848b5c	-0.25887573
8	0x3e2fc7e5	0.17166097
9	0x3e32119f	0.17389534
10	0x3f2ee0e7	0.68311924
11	0xbe727627	-0.23677884
12	0xbe4e6744	-0.2015658
13	0x3f6d85eb	0.9278247
14	0xbf28c294	-0.659219
15	0x3ec5bc04	0.38620007
16	0x3f606581	0.8765488
17	0xbed12fdc	-0.40856826
18	0x3e9fb7d5	0.3119494
19	0x3e5a9d46	0.21349058
20	0xbf0d4ef4	-0.551986
21	0xbe64812f	-0.22314905
22	0x3eb1e59d	0.34745494
23	0x3e8051af	0.2506232
24	0xbeef4389	-0.46731213
25	0xbeb4cbce	-0.3531174
26	0xbc7b8852	-0.0153523255
27	0x3f3e953b	0.7444646
28	0xbeaa4f21	-0.33263496
29	0xbede9e93	-0.43480358
30	0x3cd567e5	0.026050517
31	0xbc875e4b	-0.016524455
32	0xbe4a800e	-0.19775411
33	0x3f4ffb1a	0.81242526
34	0xbf2a6c36	-0.66571367
35	0xbee47733	-0.44622192
36	0xbe672fc2	-0.22576812
37	0xbd6da89b	-0.058022123
38	0xbdb80958	-0.08986157
39	0xbedae8ed	-0.42755833
40	0x3ec37ba7	0.38180277
41	0x3d5c0861	0.05371893
42	0xbf180f56	-0.593984
43	0xbd04df5c	-0.032439575
44	0x3e877bb7	0.26461574
45	0x3e441650	0.19149137
46	0x3eb7d168	0.35901952
47	0xbf280fbd	-0.65649015
48	0xbeddb286	-0.43300265
49	0xbe9d70a3	-0.30749997
50	0xbd03fb06	-0.032221816
51	0xbe2b1e5e	-0.16710803
52	0x3d79b7f2	0.06096644
53	0xbe4bbd08	-0.19896328
54	0x3d02c63b	0.03192733
55	0x3dbd40d3	0.0924088
56	0x3c9f05f3	0.019412016
57	0x3d710a61	0.05884779
58	0xbd93bf95	-0.07214276
59	0xbc0cc930	-0.008592889
60	0xbd446ce3	-0.047955405
61	0xbd19e02a	-0.037567295
62	0x3d95fc29	0.07323486
63	0xbbae8ee5	-0.005327093
64	0x3cd1b1de	0.025597509
65	0xbc37c3b4	-0.011216093
66	0x3d9778fe	0.07396124
67	0xbce3d7cc	-0.02781286
68	0xbbca5101	-0.006174207
69	0xbd566ed8	-0.052351803
70	0xbd5ec2c7	-0.054384973
71	0x3c821f79	0.015884148
72	0xbe30cec2	-0.17266372
73	0x3c5dd0ae	0.013538523
74	0xbbeb0e1c	-0.007173313
75	0xbc02b3b4	-0.007977415
76	0x3d862607	0.06550222
77	0xbbd9d6f0	-0.006647937
78	0x3d264b4a	0.040599145
79	0xbaba1477	-0.0014196773
80	0x3e7805c8	0.24220955
81	0xbb8d334a	-0.0043090926
82	0xbe84f31f	-0.25966737
83	0xbb0d8f07	-0.0021600144
84	0x3bacd321	0.005274192
85	0x3d1a15c4	0.037618414
86	0xbc250dcc	-0.01007409
87	0xbdbd6e76	-0.092495844
88	0x3d7c18b7	0.061547007
89	0x3c5d5c9e	0.013510851
90	0xbd63fbdb	-0.05566011
91	0x3d916aad	0.07100425
92	0x3ce606b7	0.028079374
93	0xbd03d96e	-0.03218978
94	0xbe167111	-0.14691569
95	0xbd273af1	-0.040827695
96	0xbd59a532	-0.05313606
97	0x3bcd987e	0.006274282
98	0x3a242262	0.0006261227
99	0x3b2688fc	0.002541124
100	0x3e8e1069	0.27746895
101	0x3e8f183e	0.27948183
102	0xbe801acf	-0.25020453
103	0x3dbf0997	0.09328001
104	0xbe1ee1d0	-0.15515828
105	0xbeaa1611	-0.3321996
106	0xbeafbb4c	-0.34322584
107	0xbe809bf2	-0.25118977
108	0xbeb0ef5b	-0.34557614
109	0x3e8f445f	0.2798185
110	0x3eb0369b	0.3441666
111	0x3cfffc95	0.03124837
112	0x3e8d7615	0.27629152
113	0xbf0578b8	-0.5213733
114	0x3d8a9883	0.067673706
115	0xbe846f30	-0.2586608
116	0xbe8b1653	-0.2716547
117	0xbdec39fd	-0.11534498
118	0xbee079be	-0.43842882
119	0xbed1aefd	-0.40953818
120	0xbe38d27e	-0.18049046
121	0x3e8fc949	0.28083256
122	0x3d913eb6	0.07092039
123	0xbf01ce31	-0.5070525
124	0xbbdcb31a	-0.0067352178
125	0x3e833597	0.25626823
126	0x3ec12650	0.37724543
127	0xbe0c4ac7	-0.137004
128	0x3eb6dd72	0.35715824
129	0x3d3c8ee1	0.046034697
130	0x3ec014e8	0.3751595
131	0x3f09699d	0.5367678
132	0xbe613e5a	-0.21996441
133	0xbf0b6c69	-0.54462296
134	0xbe80d5ca	-0.25163108
135	0xbea3d5e4	-0.31999123
136	0x3ea6627c	0.32497013
137	0x3ebc6743	0.36797532
138	0xbdf0df69	-0.11761362
139	0x3e6bc236	0.23023304
140	0x3dbc074a	0.09181078
141	0xbe3273e4	-0.17427021
142	0x3e9b9ac1	0.30391505
143	0x3e9dc664	0.30815423
144	0x3ec1941d	0.37808314
145	0x3eb6ac16	0.35678166
146	0xbec3d917	-0.38251564
147	0x3e89ba4a	0.2689994
148	0x3eaaede1	0.33384612
149	0xbcf77cb2	-0.030210827

linears.4.bias f4 [3]
0	0x3dd07534	0.10178605
1	0x3d76c390	0.060245097
2	0x3d8de37c	0.06928155

exp_avg f4 [50, 3]
0	0xaeee2089	-1.08287664e-10
1	0xaea0aab5	-7.306281e-11
2	0xb113bc2e	-2.1498283e-09
3	0x2cb0e553	5.027681e-12
4	0x2bdb7e97	1.5596022e-12
5	0xaf3876bc	-1.6776885e-10
6	0x318fac5c	4.1814427e-09
7	0x359d8367	1.1735655e-06
8	0x3337904b	4.273924e-08
9	0x321846ed	8.863691e-09
10	0x33df8c35	1.040975e-07
11	0x328ac0bd	1.6152962e-08
12	0xb901b798	-0.00012370793
13	0xb7e509b5	-2.7303447e-05
14	0xb8c3bd88	-9.3336275e-05
15	0x2ee2b5f6	1.0309613e-10
16	0x2e4a66db	4.6020836e-11
17	0x31927179	4.2620596e-09
18	0x31ea150e	6.81269e-09
19	0x32198857	8.936772e-09
20	0x2ffc33f3	4.5875445e-10
21	0xb25748fd	-1.2531243e-08
22	0x331c49e6	3.638879e-08
23	0x32841d74	1.5380216e-08
24	0xb5ab1361	-1.2746133e-06
25	0xb6c889e0	-5.9765152e-06
26	0xb5356536	-6.7575036e-07
27	0xaf6168ef	-2.050091e-10
28	0xafe9d3a7	-4.253284e-10
29	0xb083b88e	-9.583958e-10
30	0x2d3eb426	1.0840251e-11
31	0xabb8b32d	-1.3123718e-12
32	0xaeda7415	-9.9341126e-11
33	0x323dc614	1.1046286e-08
34	0x3549ad23	7.513028e-07
35	0x33b2c25c	8.324125e-08
36	0x3cc1fd0a	0.023680229
37	0x3ac6d5a4	0.0015169871
38	0xb9622a4b	-0.00021568795
39	0xb0d4849e	-1.5462722e-09
40	0xb01973d0	-5.5825655e-10
41	0xb21baaae	-9.0609955e-09
42	0x328d104c	1.6421971e-08
43	0x348fccd6	2.6784863e-07
44	0x34062ac3	1.2495279e-07
45	0xc076311e	-3.8467479
46	0xbe31ab89	-0.17350592
47	0xbd81f11a	-0.063448146
48	0xc091cc23	-4.556169
49	0xbd040ee7	-0.032240774
50	0xbd68e3d4	-0.0568579
51	0xb0e3e1e1	-1.6580622e-09
52	0xb033929a	-6.5328154e-10
53	0xb4183c58	-1.4178056e-07
54	0x34b22c3e	3.3187274e-07
55	0x365e0ffe	3.3089887e-06
56	0x338e9b47	6.640635e-08
57	0xb4008fef	-1.1973292e-07
58	0xb5870e0f	-1.0062375e-06
59	0xb46293a6	-2.1101604e-07
60	0xac60a64a	-3.1924624e-12
61	0xaf0e82ae	-1.2961252e-10
62	0xafaa08ab	-3.092898e-10
63	0xb312c124	-3.4168934e-08
64	0xb51dc01b	-5.876661e-07
65	0xb3aaa9b2	-7.947109e-08
66	0xb215ac47	-8.712113e-09
67	0xb290b585	-1.6846352e-08
68	0xb3090ae7	-3.1907714e-08
69	0xb04106dc	-7.022274e-10
70	0xb02062f4	-5.834828e-10
71	0xb22d7d88	-1.0098468e-08
72	0xb06bfe93	-8.5854274e-10
73	0x35b292f6	1.3304805e-06
74	0x336265a3	5.2712164e-08
75	0xb1e14f7a	-6.5573973e-09
76	0xb5acdc27	-1.2879071e-06
77	0xb38f4c48	-6.672832e-08
78	0x30d98cc1	1.5828833e-09
79	0x30510bb4	7.605039e-10
80	0xafb4c2e2	-3.2880282e-10
81	0xb22a27ae	-9.9043245e-09
82	0xb1487199	-2.9168403e-09
83	0xb374109a	-5.6825776e-08
84	0x320e7814	8.2927905e-09
85	0x363bbad2	2.7973915e-06
86	0x33d8a4a0	1.0088229e-07
87	0xbc56f100	-0.013118982
88	0x3a9a58fe	0.0011775789
89	0x38a8ec84	8.054919e-05
90	0x32d83872	2.5171378e-08
91	0x33c9a0f3	9.3890684e-08
92	0x33336029	4.1764142e-08
93	0x350775c3	5.0462785e-07
94	0x36fe90f6	7.5866656e-06
95	0x34f0129b	4.471702e-07
96	0xb9177287	-0.00014443147
97	0xb81e8281	-3.7791677e-05
98	0x3750468c	1.2414192e-05
99	0x35e39479	1.6956029e-06
100	0x3591fc8c	1.0876843e-06
101	0xb475350c	-2.2836701e-07
102	0xc0c9217f	-6.285339
103	0xbe4539f1	-0.19260384
104	0x3cd19c6f	0.025587289
105	0xbdee1757	-0.116255455
106	0xbbf161bc	-0.007366387
107	0x3a857847	0.001018294
108	0x3806c56a	3.2131946e-05
109	0x37f386f4	2.90307e-05
110	0xb6c5780b	-5.8850324e-06
111	0x2f93d162	2.688792e-10
112	0x302ebf14	6.357237e-10
113	0x30bae101	1.3597231e-09
114	0xb15976fc	-3.164529e-09
115	0x331ecf48	3.6975763e-08
116	0x324b62e3	1.1838639e-08
117	0xb31646db	-3.498904e-08
118	0xb510b38a	-5.3905444e-07
119	0xb1f7cb30	-7.211746e-09
120	0xb5a57349	-1.232701e-06
121	0xb56bf548	-8.7901253e-07
122	0x35409c72	7.175323e-07
123	0x34b49bdb	3.3641012e-07
124	0xb46df7ef	-2.2162543e-07
125	0xb4c5bd2d	-3.6831753e-07
126	0xb4256bf1	-1.5406091e-07
127	0xb4b6655e	-3.3973896e-07
128	0xb4379f9b	-1.7101267e-07
129	0x35083d4e	5.075316e-07
130	0x36b4c92e	5.3878384e-06
131	0x359b2093	1.155788e-06
132	0x35bdfba0	1.415483e-06
133	0x34808dde	2.394508e-07
134	0xb4c7f53f	-3.7245078e-07
135	0xbfd8964a	-1.6920865
136	0xbd8761bc	-0.06610438
137	0x3a54796a	0.00081052503
138	0xb6141120	-2.2063687e-06
139	0x34f20ce4	4.5085392e-07
140	0xb523c3db	-6.100724e-07
141	0x32a15669	1.8782162e-08
142	0x3416090e	1.3973133e-07
143	0x32a2b10c	1.8939794e-08
144	0x2cc0af4c	5.47643e-12
145	0x2c2c781a	2.450934e-12
146	0x30a41e63	1.1941207e-09
147	0x2fba08ac	3.3839365e-10
148	0x31161865	2.184174e-09
149	0x2ef8a270	1.1306589e-10

exp_avg_sq f4 [50, 3]
0	0x2498c974	6.626077e-17
1	0x253ba084	1.6274049e-16
2	0x28b0b5e9	1.9618816e-14
3	0x21930781	9.963094e-19
4	0x21226e95	5.503409e-19
5	0x24a8730c	7.305328e-17
6	0x2bb043ee	1.2524406e-12
7	0x30a9ff12	1.2368864e-09
8	0x2c8f95ae	4.0809222e-12
9	0x2f460549	1.8009873e-10
10	0x2e97acc5	6.897375e-11
11	0x2a6a22ef	2.0795495e-13
12	0x33320a55	4.145325e-08
13	0x313fbf60	2.7902942e-09
14	0x31200888	2.3287914e-09
15	0x24be4784	8.252052e-17
16	0x24b6e192	7.931205e-17
17	0x2890eb1c	1.6089174e-14
18	0x3605a2bd	1.991327e-06
19	0x30624c90	8.2327123e-10
20	0x2ea88c1f	7.664646e-11
21	0x2ec45bfc	8.929388e-11
22	0x2b95f62a	1.0655411e-12
23	0x2a4af547	1.8026302e-13
24	0x353193e5	6.6152853e-07
25	0x32c49961	2.2887152e-08
26	0x2e9eaf3c	7.216136e-11
27	0x24f3a678	1.0566646e-16
28	0x26b7121a	1.2703082e-15
29	0x277e30b1	3.5275977e-15
30	0x24f7aef5	1.07415563e-16
31	0x22fc9d83	6.847151e-18
32	0x24d6d94d	9.317583e-17
33	0x2d0e5897	8.091436e-12
34	0x30d2203e	1.5288675e-09
35	0x2d71a542	1.37359586e-11
36	0x3f220d49	0.6330152
37	0x3c94299c	0.018086247
38	0x3ad03335	0.0015884402
39	0x270bab66	1.938304e-15
40	0x255ad5c5	1.8980914e-16
41	0x28d79247	2.3933233e-14
42	0x2cf2c908	6.9003726e-12
43	0x2e997f14	6.980208e-11
44	0x2b3ab16e	6.632671e-13
45	0x48fa5b97	512732.72
46	0x458b1d5b	4451.6694
47	0x42790009	62.250034
48	0x4a15d264	2.454681e+06
49	0x46b9e7e3	23795.943
50	0x438571d0	266.88916
51	0x24f1a00a	1.04788206e-16
52	0x239da48e	1.7091666e-17
53	0x2af3dcb6	4.331862e-13
54	0x382de3cd	4.145857e-05
55	0x3588d467	1.0194607e-06
56	0x2ea7ab91	7.624757e-11
57	0x31a9058a	4.919177e-09
58	0x2dc4cb9e	2.2373044e-11
59	0x2d360537	1.034666e-11
60	0x228cd1b8	3.8169124e-18
61	0x246e6f74	5.1702428e-17
62	0x262330e4	5.6618244e-16
63	0x2e105f40	3.2826408e-11
64	0x3025195e	6.00627e-10
65	0x2cc2ab75	5.532847e-12
66	0x2745dd96	2.7459364e-15
67	0x2a3d0f2b	1.6791835e-13
68	0x29039b96	2.9222793e-14
69	0x2646be2f	6.8952796e-16
70	0x26b163f4	1.2308935e-15
71	0x278ac636	3.8517595e-15
72	0x2b1e1480	5.6161326e-13
73	0x2fca0335	3.6745865e-10
74	0x2c14da9f	2.1153424e-12
75	0x2b0438ed	4.697482e-13
76	0x2f638194	2.0691565e-10
77	0x2b5cd141	7.84501e-13
78	0x26a2463b	1.1260044e-15
79	0x26db14e8	1.5201844e-15
80	0x2a7389b6	2.1630514e-13
81	0x27a507b5	4.5805056e-15
82	0x26964e5c	1.042958e-15
83	0x2abc5a09	3.3457983e-13
84	0x2c94bd91	4.227459e-12
85	0x3181e107	3.7799768e-09
86	0x2d42a8df	1.106512e-11
87	0x3dab309a	0.083588794
88	0x3b2b8672	0.0026172665
89	0x39838526	0.0002508547
90	0x4002fd7f	2.0467222
91	0x3aac59a4	0.0013149274
92	0x385af79f	5.2205865e-05
93	0x34b35c06	3.3408304e-07
94	0x328ab39c	1.6146991e-08
95	0x2d88a3f3	1.5534218e-11
96	0x349f3612	2.96554e-07
97	0x32e62062	2.679025e-08
98	0x31f1638e	7.025341e-09
99	0x38a80ff4	8.013836e-05
100	0x36aade6e	5.092289e-06
101	0x34b9dc86	3.4619387e-07
102	0x4990d065	1.1863166e+06
103	0x463efcdc	12223.215
104	0x42b95927	92.674126
105	0x42de88f7	111.26751
106	0x3ff9b3f6	1.9508045
107	0x3bed5cb9	0.0072437194
108	0x3e622287	0.22083484
109	0x3aeca5cd	0.0018054784
110	0x381902cc	3.6480647e-05
111	0x24244379	3.5618983e-17
112	0x25f740ab	4.289149e-16
113	0x2600b865	4.465882e-16
114	0x2a966682	2.6716482e-13
115	0x2eb3b450	8.1720075e-11
116	0x2b0143c2	4.592404e-13
117	0x2fde31ed	4.041704e-10
118	0x2fd4644f	3.863385e-10
119	0x2b59e2e3	7.7408755e-13
120	0x396a10c1	0.0002232222
121	0x35b4ab9a	1.3460988e-06
122	0x331e448e	3.6849592e-08
123	0x3dbb49e5	0.09144954
124	0x3a0a926d	0.00052861014
125	0x37652ec3	1.3660351e-05
126	0x3d6e356b	0.058156412
127	0x393db520	0.00018091919
128	0x36657701	3.4192929e-06
129	0x30798c0f	9.078471e-10
130	0x2ff85dce	4.517759e-10
131	0x2cffd72d	7.271425e-12
132	0x31a286fe	4.7301674e-09
133	0x2cd4ffe0	6.0538102e-12
134	0x2c70ca4c	3.4218349e-12
135	0x455a29d5	3490.6145
136	0x421e7a66	39.61953
137	0x3dc7ddad	0.09759078
138	0x3540f8e0	7.1887735e-07
139	0x313e7a08	2.7718006e-09
140	0x2e684e69	5.2820335e-11
141	0x36050142	1.9819277e-06
142	0x30a746f8	1.217102e-09
143	0x2d3c192f	1.0692155e-11
144	0x21b0d274	1.198193e-18
145	0x22441cd1	2.6578209e-18
146	0x26697e8f	8.1009633e-16
147	0x266e8c65	8.276311e-16
148	0x279ac9b5	4.2962278e-15
149	0x24df51c1	9.684933e-17

exp_avg f4 [50]
0	0xafefb6fc	-4.3603865e-10
1	0x2e845648	6.017992e-11
2	0x3313ff19	3.4458115e-08
3	0x31fdccef	7.3865674e-09
4	0xb5c233ca	-1.4469199e-06
5	0x304653bc	7.2150974e-10
6	0x30783761	9.030057e-10
7	0x31db61d2	6.3848598e-09
8	0xb3ef12f3	-1.11327516e-07
9	0xb00044a6	-4.6663684e-10
10	0x2ca83fb1	4.7819184e-12
11	0x32f998d1	2.9056908e-08
12	0xb6ce891d	-6.1552405e-06
13	0xb0c50722	-1.4335664e-09
14	0x32de0668	2.5847115e-08
15	0xbc80a521	-0.01570374
16	0xbcbcc1ae	-0.023041572
17	0xb292bd13	-1.7082618e-08
18	0x335f6bea	5.201938e-08
19	0xb3aa978e	-7.9438095e-08
20	0xafaa4302	-3.0970432e-10
21	0xb2b3fa0c	-2.095205e-08
22	0xb1de0597	-6.461686e-09
23	0xb0c06b47	-1.4000329e-09
24	0x332b6865	3.9908986e-08
25	0xb312df0b	-3.419613e-08
26	0xaffc80e8	-4.5930126e-10
27	0xb16a75e0	-3.4118486e-09
28	0x33b33567	8.345051e-08
29	0x388d0d33	6.7258625e-05
30	0x323f56c5	1.1137392e-08
31	0x342dff95	1.6204861e-07
32	0xb49ab912	-2.8819392e-07
33	0x3303bd11	3.067277e-08
34	0xbcc10963	-0.023564046
35	0xb9bfb643	-0.00036566154
36	0xb52af1ff	-6.3682086e-07
37	0x2fdb1892	3.9853326e-10
38	0x2fb0a45e	3.2131003e-10
39	0xb25a98e4	-1.2724033e-08
40	0x31502d75	3.0293823e-09
41	0xb281e090	-1.5119696e-08
42	0xb2ee3b40	-2.773379e-08
43	0x3458e0fd	2.0198418e-07
44	0x3279a199	1.4530451e-08
45	0xbb69ee46	-0.0035695
46	0xb140842e	-2.8014813e-09
47	0x326b872f	1.37095375e-08
48	0x2f6069d0	2.0410273e-10
49	0x2f27727c	1.5229235e-10

exp_avg_sq f4 [50]
0	0x26f1c17e	1.677518e-15
1	0x244c724a	4.4332255e-17
2	0x2ac835c2	3.556444e-13
3	0x2856c139	1.1921285e-14
4	0x2c0afe22	1.9752052e-12
5	0x26b19350	1.2321771e-15
6	0x2d224c67	9.225599e-12
7	0x28ac8895	1.9155069e-14
8	0x2cab7dfa	4.8740985e-12
9	0x26d85805	1.5011869e-15
10	0x24e1f28b	9.798908e-17
11	0x2b16f800	5.3634874e-13
12	0x36778850	3.6885212e-06
13	0x263861de	6.397046e-16
14	0x291eaaf2	3.523132e-14
15	0x3fdb3b34	1.7127442
16	0x410f9961	8.974946
17	0x27043ad4	1.835057e-15
18	0x2f2fccda	1.5988935e-10
19	0x2a2558c6	1.4685743e-13
20	0x25622320	1.9614276e-16
21	0x2a8436cb	2.348593e-13
22	0x27a746b1	4.6428455e-15
23	0x2654c24d	7.38156e-16
24	0x2a3b573e	1.6639205e-13
25	0x297ca870	5.6101337e-14
26	0x28150ef5	8.274405e-15
27	0x28488d88	1.113292e-14
28	0x2ba0dbab	1.1429654e-12
29	0x34f80055	4.619384e-07
30	0x36dd4016	6.593774e-06
31	0x2c2f691f	2.492735e-12
32	0x2ccecf2b	5.8778724e-12
33	0x3059b221	7.9197277e-10
34	0x40931923	4.5968184
35	0x39e670f7	0.00043953184
36	0x350210c8	4.8453194e-07
37	0x25de935b	3.8610713e-16
38	0x28e8f663	2.5864027e-14
39	0x29e12a6e	9.9993676e-14
40	0x30881cc3	9.903477e-10
41	0x34b3d099	3.3493123e-07
42	0x346a19be	2.1802313e-07
43	0x2b326677	6.33805e-13
44	0x290a7de1	3.0751338e-14
45	0x3c7114ce	0.014714433
46	0x2c56f9e8	3.0549955e-12
47	0x2d1680b3	8.55509e-12
48	0x255dd930	1.924228e-16
49	0x2485843f	5.790359e-17
