案例1/model_add_163.pt (torch, 104715 bytes, 30 tensors)

linears.0.weight f4 [50, 3]
0	0xbe522503	-0.20521931
1	0xbe0f6092	-0.14001682
2	0xbe464c54	-0.19365054
3	0x3ed9386e	0.42425865
4	0x3ef1fe8e	0.47264522
5	0x3fbe5dc1	1.4872361
6	0x3d9eaadd	0.07747433
7	0x3db9f45d	0.09079812
8	0x3ecaf41d	0.3963937
9	0x3e196062	0.14978173
10	0x3da86c68	0.08223802
11	0x3e354e14	0.17705566
12	0x3e948678	0.29008842
13	0x3e38f00b	0.18060319
14	0x3fb94355	1.4473673
15	0x3e756145	0.23962887
16	0x3b912f98	0.0044307224
17	0x3fa96a44	1.3235555
18	0xbe160dae	-0.14653656
19	0xbda0f9f1	-0.078601725
20	0xbf3f3cb7	-0.7470202
21	0x3e5251b4	0.2053898
22	0x3e378335	0.17921145
23	0x40041351	2.063679
24	0xbdeee70a	-0.11665161
25	0xbd902361	-0.07037998
26	0xbe40dc63	-0.18834071
27	0xbe15f826	-0.14645442
28	0xbdef6073	-0.11688318
29	0xbf9743fa	-1.181762
30	0x3db361d9	0.08758897
31	0x3e87bfa3	0.26513395
32	0x3eb8403e	0.35986513
33	0x3e8e645a	0.27810937
34	0x3da36937	0.079790525
35	0x3fd4d142	1.662636
36	0xbe7fd63b	-0.24984066
37	0xbe9551e0	-0.29164028
38	0xc0078aa0	-2.117836
39	0xbe76638c	-0.24061412
40	0xbe4e32ad	-0.20136519
41	0xc00c27f8	-2.1899395
42	0xbed75ea7	-0.42064402
43	0xbe9bf099	-0.30457
44	0xbfe6eb82	-1.8040621
45	0xbeb0fee8	-0.34569478
46	0xbe270e8b	-0.16314141
47	0xbf3589a3	-0.7091314
48	0xbe901a3c	-0.28145015
49	0xbe541dfb	-0.20714562
50	0xc01b9251	-2.4308054
51	0x3e8ea17d	0.2785758
52	0x3e4c8775	0.19973548
53	0x3fa83fb1	1.3144437
54	0x3d1395ce	0.036031537
55	0x3cba4624	0.022738524
56	0x3f255b8c	0.64592814
57	0x3c9bc9f5	0.019017199
58	0x3c53c802	0.012926104
59	0x3f205dec	0.62643313
60	0xbe6cf308	-0.23139584
61	0xbe0d0651	-0.13771941
62	0xbf88a199	-1.0674316
63	0xbe4b6661	-0.19863273
64	0xbe2adc9c	-0.16685718
65	0xbf0e630c	-0.55619884
66	0x3ecf7e8e	0.4052624
67	0x3ec50360	0.38479137
68	0x3fb06b67	1.3782777
69	0xbe52f420	-0.20600939
70	0xbd920f14	-0.07131782
71	0xbf65ff12	-0.8984233
72	0x3fea488d	1.8303391
73	0xbf8dab56	-1.1067913
74	0xbcff52b8	-0.031167373
75	0x3c1a496d	0.00941692
76	0x3877d22a	5.908512e-05
77	0x3eb03778	0.3441732
78	0x3da95252	0.082676545
79	0x3d7ac2b5	0.061220843
80	0x3ec756c4	0.38933384
81	0x3e557faa	0.20849481
82	0x3e0a7496	0.13521037
83	0x3ff7f05b	1.9370226
84	0x3ea3f218	0.3202064
85	0x3e4643f3	0.19361858
86	0x3f9aecd6	1.2103527
87	0xbf193d3a	-0.5985905
88	0xbe703672	-0.23458269
89	0xbe4d9b39	-0.20078744
90	0x3ebc2672	0.3674808
91	0x3d9c3619	0.07627506
92	0x3f6e22e2	0.93021977
93	0x3e86a8b5	0.26300588
94	0x3e2ae372	0.16688326
95	0x3fef3600	1.8688354
96	0x3e293a88	0.16526234
97	0x3e064e44	0.13115793
98	0x3f635f95	0.8881772
99	0x3c60e585	0.013726597
100	0x3883e97b	6.290056e-05
101	0xbdda7067	-0.1066597
102	0x3c35afd5	0.011089285
103	0xb7c1fb5f	-2.3124447e-05
104	0x3d878097	0.066163234
105	0x3e15c483	0.14625745
106	0x3da125b7	0.07868522
107	0x3fd0b3b0	1.6304836
108	0x3de747d2	0.112929955
109	0x3c6e46dd	0.014543262
110	0x3f05b23f	0.52225107
111	0x3e03a58a	0.12856117
112	0x3e11893b	0.14212506
113	0x3e50e774	0.20400792
114	0xbe21fbea	-0.15818754
115	0xbdf3ee9b	-0.11910745
116	0xbf80916c	-1.0044379
117	0x3e35a586	0.17738923
118	0x3db14000	0.08654785
119	0x3fa014a5	1.25063
120	0xbdda08bd	-0.10646198
121	0xbd9cae1b	-0.076503955
122	0xbec1ce72	-0.37852818
123	0xbe50c52a	-0.20387712
124	0xbcea9ae8	-0.028638318
125	0xbfc31e29	-1.5243579
126	0x3e0ec6d6	0.13943037
127	0x3df29b3a	0.11846013
128	0x3f8f25ed	1.1183449
129	0xbe8f0c88	-0.27939248
130	0xbe1790ed	-0.14801379
131	0xbfe496ce	-1.7858522
132	0x3f712518	0.94197226
133	0x3ef670d8	0.48132968
134	0x3f02e51b	0.5113084
135	0xbe4e998c	-0.20175761
136	0x3d5adfc1	0.053436045
137	0xbfa3ce94	-1.2797418
138	0xbe76d22e	-0.24103615
139	0xbd8ae02d	-0.067810394
140	0xbf8d5cef	-1.1043986
141	0x3f016439	0.5054355
142	0x3c9d26c0	0.019183517
143	0x3fe86f4f	1.8158969
144	0x3e4c5670	0.19954848
145	0x3e05cc2c	0.13066167
146	0x3f8e6b24	1.1126447
147	0x3e709f1a	0.23498192
148	0x3e8b5a3b	0.27217278
149	0x3f425c32	0.7592193

linears.0.bias f4 [50]
0	0xc02957b9	-2.6459792
1	0xc04fc46e	-3.246364
2	0xc00176b1	-2.0228693
3	0x3fdc67d6	1.7219188
4	0xc0137a18	-2.304327
5	0x3fe085b4	1.7540803
6	0x3fe23a89	1.7674114
7	0xbfe9dce5	-1.8270537
8	0xc0270026	-2.609384
9	0xbfee349d	-1.8609806
10	0x40163d8c	2.3475065
11	0xc00cb4b6	-2.1985297
12	0x40000248	2.0001392
13	0x3fbb94d0	1.4654789
14	0x4040b8cd	3.0112793
15	0xc0300994	-2.7505846
16	0xc005cd74	-2.0906649
17	0xc00e49e8	-2.2232609
18	0xbfbefa17	-1.4920071
19	0xbffddb17	-1.9832486
20	0xbfe61449	-1.797494
21	0xbee08804	-0.43853772
22	0xbf98b416	-1.1929958
23	0xbff09fbd	-1.8798748
24	0xc13d1781	-11.818238
25	0xc0b633cd	-5.6938233
26	0x4003ad30	2.0574455
27	0x40061d17	2.0955255
28	0xc034f4c3	-2.827439
29	0xbfd92f21	-1.6967508
30	0x402e2d54	2.7215166
31	0xbfb68ca7	-1.4261674
32	0xc04ecf03	-3.231385
33	0xc0ba6d21	-5.8258214
34	0xc0a972b9	-5.295254
35	0x3fe423b5	1.7823397
36	0x407a4e4b	3.9110286
37	0xc02a7798	-2.6635494
38	0xbf9c8815	-1.2229029
39	0x4007b12d	2.120189
40	0x400c4ffd	2.192382
41	0x3fc3ec1d	1.5306431
42	0xc02cd6d6	-2.7006125
43	0xbfa859ef	-1.3152446
44	0x40209586	2.5091262
45	0xbe148712	-0.1450465
46	0xbfbfa2b9	-1.4971534
47	0x3fb58197	1.4180173
48	0x4005c9d2	2.0904431
49	0x3e313bfc	0.17308038

linears.1.weight f4 [50, 50]
0	0x3d598d06	0.053113006
1	0xbf279a0c	-0.6546943
2	0xbf91d68f	-1.1393603
3	0x3d670f92	0.056411333
4	0xbe59ee3b	-0.21282284
5	0xbd98823c	-0.07446715
6	0x3efca57c	0.49345005
7	0xbea46589	-0.32108715
8	0x3e948e0f	0.29014632
9	0x3e84eec7	0.25963423
10	0xbe8059cb	-0.25068507
11	0xbe75277f	-0.23940848
12	0x3e288c8f	0.16459869
13	0xbdf99ce5	-0.121881284
14	0x3eb32b78	0.34994102
15	0x3e732fee	0.23748752
16	0x3e33ac6f	0.17546247
17	0xbf2d80d4	-0.677747
18	0xbe1e32c9	-0.1544906
19	0xbf3fee5c	-0.7497308
20	0x3eb3f7b8	0.35149932
21	0x3eacdacd	0.33760682
22	0xbd266394	-0.04062231
23	0x3e87d820	0.26532078
24	0xbe95a46b	-0.29227003
25	0xbfda113e	-1.7036512
26	0xbe6d2950	-0.2316029
27	0xbcaacdaa	-0.020850021
28	0xbe72286d	-0.23648234
29	0x3db7c363	0.08972814
30	0xbc0fad3d	-0.008769331
31	0x3e40a1d4	0.18811733
32	0xbea60d7d	-0.32432166
33	0xbfa31a02	-1.2742312
34	0xc0919695	-4.5496316
35	0x3dac7949	0.08421571
36	0xbc905ade	-0.017621454
37	0xbf458927	-0.771624
38	0x3ddc11d4	0.10745588
39	0xbe80deff	-0.25170133
40	0x3f5736d0	0.8406801
41	0x3e9f886b	0.31158766
42	0xbf606fc7	-0.8767056
43	0x3e71b632	0.23604658
44	0xbea2671f	-0.317193
45	0xbe59d14d	-0.21271248
46	0x3e3c7815	0.18405183
47	0x3eb107cf	0.3457627
48	0xbed7a01e	-0.42114347
49	0xbe26f949	-0.16306032
50	0xbe075d78	-0.13219249
51	0xbe00bf97	-0.12573086
52	0x3f525c18	0.82171774
53	0x3eafdc73	0.34347877
54	0x3ef404e1	0.47659972
55	0x3e4e0b85	0.20121582
56	0xbe5dc8e4	-0.21658665
57	0x3ef36218	0.47535777
58	0xbe9a94f1	-0.30191758
59	0xbebbae92	-0.36656624
60	0x3e3184f3	0.17335872
61	0x3cd5b224	0.02608592
62	0x3ebe59b3	0.3717781
63	0xbf336a1a	-0.70083773
64	0xbdddacd6	-0.108239815
65	0xbe1e1a96	-0.15439829
66	0xbe6bbf2e	-0.23022148
67	0x3eb551af	0.35413882
68	0x3e451544	0.19246393
69	0x3ea3de3d	0.32005492
70	0xbe635fc0	-0.22204494
71	0x3fa913d6	1.3209178
72	0xbe0138cb	-0.12619321
73	0xbebc79e4	-0.36811745
74	0xbdc8e2ab	-0.098088585
75	0x3d9ceb4f	0.07662069
76	0x3f17b63c	0.5926244
77	0xbe95186d	-0.29120198
78	0x3e3081fe	0.17237088
79	0xbee807bf	-0.4531841
80	0x3d30eab6	0.043192588
81	0x3f0960a8	0.5366311
82	0x3e76687e	0.24063298
83	0x3b306473	0.002691534
84	0xbe850edb	-0.25987896
85	0x3e92e8e0	0.28693295
86	0x3e61ca93	0.22049932
87	0xbdb09dcb	-0.086238466
88	0xbf243fe0	-0.64159966
89	0x3ecd6a2c	0.40120065
90	0xbd99ff24	-0.07519367
91	0xbe26e3e0	-0.16297865
92	0xbec839fe	-0.39106745
93	0x3ef6a506	0.48172778
94	0x3f0ba9fa	0.5455624
95	0xbee303fe	-0.44338983
96	0xbee6ac8e	-0.45053524
97	0x3e41b28a	0.18915763
98	0x3e268271	0.16260697
99	0x3f0dc760	0.5538235
100	0xbe5ed48e	-0.2176077
101	0x3dc7129b	0.097203456
102	0x3dac803a	0.08422895
103	0xbdc2cdf0	-0.09511936
104	0x3df26efd	0.118375756
105	0x3ccfc4e8	0.025362447
106	0x3c58d4b0	0.013234302
107	0xbddbd446	-0.10733847
108	0x3e22c8a0	0.15896845
109	0xbe901012	-0.2813726
110	0x3e6330a7	0.22186528
111	0x3dcaa440	0.098946095
112	0x3e563962	0.20920327
113	0xbda3f8b1	-0.080064185
114	0xbc3b72bd	-0.01144093
115	0x3d6c2717	0.057654466
116	0xbe773596	-0.24141535
117	0xbe100510	-0.14064431
118	0xbe831123	-0.25599012
119	0x3cff8e73	0.031195855
120	0xbd476ef0	-0.048689783
121	0xbdc7bced	-0.097528316
122	0x3cabfba3	0.020994013
123	0x3d9329f6	0.07185738
124	0xbde9e9a6	-0.11421518
125	0xbf91299e	-1.1340826
126	0x3e7fa0d2	0.24963692
127	0x3d1cba93	0.03826387
128	0x3c5d6ac0	0.013514221
129	0xbdb7b118	-0.08969325
130	0xbbebe19c	-0.0071985256
131	0xbcd1546c	-0.02555295
132	0x3e175ce2	0.14781526
133	0xbffbdd52	-1.9676917
134	0x3d49b52f	0.049245056
135	0x3e11914b	0.14215581
136	0xbdfd3d3a	-0.12365194
137	0xbdd49cb0	-0.10381448
138	0x3dd8aaff	0.1057949
139	0x3e65cea3	0.22442107
140	0x3e022e2e	0.12712929
141	0x3cf27cf3	0.029600596
142	0x3debe9ad	0.115191795
143	0xbd37f8d8	-0.04491505
144	0xbde89f91	-0.1135856
145	0xbe7de05d	-0.24792619
146	0xbb062723	-0.0020470105
147	0x3e34010b	0.17578523
148	0x3e1c2dd3	0.15251856
149	0xbb1421fd	-0.0022603266
150	0xbe87e404	-0.2654115
151	0x3e88ffa8	0.2675755
152	0xbd01f290	-0.031725466
153	0xbe17d2d4	-0.14826518
154	0x3e08ab92	0.13346699
155	0x3e4e4ac6	0.20145711
156	0xbe98e0b0	-0.29858923
157	0x3e826767	0.25469515
158	0xbeaf6104	-0.34253705
159	0xbe82640f	-0.25466964
160	0x3e929daa	0.28635913
161	0x3f1b2dce	0.6061677
162	0xbe556acb	-0.2084152
163	0xbde583a0	-0.11206746
164	0x3df8d3a0	0.12149739
165	0x3f0fd56c	0.5618503
166	0xbe829e64	-0.25511467
167	0xbdb83f6a	-0.0899647
168	0xbf82f950	-1.0232334
169	0xbe908bea	-0.28231746
170	0xbe42c4ff	-0.1902046
171	0xbe935e9a	-0.28783113
172	0xbd44dbf5	-0.04806133
173	0xbdd20e52	-0.10256638
174	0x3e7cb619	0.2467884
175	0xc03aa2fb	-2.9161975
176	0x3e178085	0.1479512
177	0x3e7d278e	0.2472212
178	0xbdb089e1	-0.08620048
179	0xbda995f4	-0.082805544
180	0x3e40304f	0.18768428
181	0x3e29b3e3	0.16572528
182	0x3e45bc9c	0.1931023
183	0x3f326ab6	0.6969408
184	0xbfb87195	-1.4409662
185	0x3eae1eb3	0.34007797
186	0x3d1efbce	0.03881436
187	0xbdfd24c2	-0.123605266
188	0xbe9f03ad	-0.31057492
189	0x3eae1e31	0.3400741
190	0xbe0716ec	-0.13192338
191	0xbdc0527f	-0.09390735
192	0xbdfee802	-0.12446596
193	0x3e9a0565	0.3008224
194	0xba5779c7	-0.00082197454
195	0xbd6cbe1f	-0.0577985
196	0x3d9c38c7	0.07628017
197	0x3e989138	0.29798293
198	0xbe610a32	-0.21976545
199	0x3e17a17e	0.14807698
200	0xbef18406	-0.47171038
201	0xbc7aaf51	-0.015300588
202	0x3e98dcb9	0.29855898
203	0x3e93aa16	0.28840703
204	0x3da5d0ba	0.08096452
205	0x3ebd12d7	0.36928436
206	0xbd9dd08f	-0.07705795
207	0x3efeb559	0.49747732
208	0xbea11835	-0.3146378
209	0xbebb0061	-0.36523727
210	0x3ec62ef7	0.38707706
211	0xbd81050b	-0.0629979
212	0x3e88a65a	0.26689416
213	0x3d1d392b	0.038384598
214	0xbe066e00	-0.13127899
215	0xbf018f91	-0.5060969
216	0xbe4e7e58	-0.20165384
217	0x3e7154e9	0.23567547
218	0x3dd06e5a	0.10177298
219	0x3d92df3c	0.07171485
220	0xbed5c28a	-0.41749984
221	0xbf38f873	-0.72254103
222	0xbee4c67d	-0.44682685
223	0xbde77ebd	-0.1130347
224	0x3e5519ad	0.20810576
225	0x3e3e5f17	0.18590961
226	0x3e4e13c1	0.20124723
227	0xbc8edf15	-0.017440358
228	0x3e627089	0.22113241
229	0xbec9ebc1	-0.39437678
230	0x3ee0ec8f	0.4393048
231	0x3e86577d	0.26238623
232	0x3d866d11	0.065637715
233	0xbd8c34f5	-0.06846038
234	0xbdb5e12c	-0.08880839
235	0x3ecc297d	0.39875403
236	0x3e79fd4d	0.24413033
237	0x3d7f8039	0.062378142
238	0x3f60c360	0.8779812
239	0x3ebb20ee	0.3654856
240	0xbc7cd5c7	-0.015431828
241	0xbe7690ca	-0.2407867
242	0xbec1b35c	-0.37832153
243	0xbf8e61f7	-1.1123646
244	0x3eb4b478	0.35293937
245	0xbe8226f3	-0.2542034
246	0xbe5731cf	-0.21015094
247	0x3e9c864c	0.3057121
248	0xbe1f4b48	-0.15556061
249	0x3e9e461d	0.30912867
250	0x3ee4ef81	0.44713977
251	0xbde6898d	-0.112567045
252	0xbe631415	-0.2217563
253	0xbd92454a	-0.07142122
254	0xbddb1d3a	-0.10698934
255	0xbe663512	-0.22481182

linears.1.bias f4 [50]
0	0xbe175010	-0.14776635
1	0x3ebac64a	0.36479408
2	0x3d5a3a32	0.053278156
3	0x3ea67900	0.3251419
4	0x3eb50055	0.35351816
5	0xbec22651	-0.37919858
6	0x3ea57a97	0.3232009
7	0x3c144b33	0.009051132
8	0x3e366fb8	0.17816055
9	0x3dd00ded	0.10158906
10	0xbe09fd34	-0.13475496
11	0x3cb98ce5	0.022650192
12	0x3ebdaf6f	0.37047908
13	0xbe8f6333	-0.2800537
14	0x3d1ba442	0.037998445
15	0xbc5c7e57	-0.013457856
16	0x3ee3e852	0.44513184
17	0x3de75477	0.11295407
18	0xbe920e9a	-0.28526765
19	0xbe7730c1	-0.24139692
20	0x3d19af87	0.03752091
21	0x3e91406a	0.28369457
22	0xbcfa1081	-0.030525448
23	0x3ce24389	0.027620094
24	0x3e0e6763	0.13906626
25	0x3ef0ef32	0.47057492
26	0x3d14b804	0.036308303
27	0x3e2a7899	0.16647567
28	0x3b3da7c0	0.0028939098
29	0x3df6e852	0.1205603
30	0xbdad67bd	-0.08467052
31	0x3cb070f7	0.02153824
32	0x3ec9662a	0.39335757
33	0x3e898a41	0.26863292
34	0x3e3e7848	0.18600571
35	0xbe4ad5d8	-0.19808137
36	0x3d8f621a	0.07001133
37	0x3c3197e0	0.0108394325
38	0x3c0a615b	0.008446063
39	0x3e272bba	0.16325274
40	0xbc10fbb0	-0.0088490695
41	0xbeaaa74b	-0.3333076
42	0xbd0ee1d9	-0.034883354
43	0x3e68330f	0.22675727
44	0x3e3b5321	0.1829343
45	0xbe410879	-0.18850888
46	0xbd16cd1a	-0.036816694
47	0xbe956dfc	-0.29185474
48	0x3c6ec968	0.014574386
49	0x3e3efe8a	0.18651786

linears.2.weight f4 [50, 50]
0	0x3ed35bc4	0.4128095
1	0x3b9267b0	0.004467927
2	0x3f88d7c6	1.0690849
3	0x3d2f42f8	0.042788476
4	0xbd386b16	-0.045024
5	0x3f0c0ef1	0.547103
6	0xbe7b9d1b	-0.2457165
7	0xbc266b46	-0.010157412
8	0x3d3e4ce4	0.046460047
9	0xbee9ba16	-0.45649785
10	0x4016132b	2.34492
11	0x3effb9b0	0.49946356
12	0xbe4171e8	-0.18891108
13	0xbe89ad8d	-0.2689022
14	0xbcdc7539	-0.026911365
15	0xbdecd79e	-0.11564563
16	0x3edb4065	0.42822567
17	0x3e95c64d	0.29252854
18	0x3eca634e	0.39528888
19	0xbe47c666	-0.19509277
20	0xbd41391d	-0.047173608
21	0xbdc88580	-0.09791088
22	0x3ee4ca3c	0.44685543
23	0x3eac5fd1	0.33666852
24	0x3e81f697	0.25383446
25	0x3d7102e5	0.05884065
26	0xbe04f874	-0.12985402
27	0x3d66040a	0.056156196
28	0x3f86f797	1.0544308
29	0xbf1eb910	-0.6200113
30	0xbe345051	-0.17608763
31	0xbd36c027	-0.044616845
32	0xbd3c9fbd	-0.046050776
33	0x3ef45870	0.47723722
34	0xbf537f2b	-0.8261592
35	0xbe07ee45	-0.13274486
36	0xbf686066	-0.9077209
37	0xbf8fe8ef	-1.1242961
38	0xbe6f2c58	-0.2335676
39	0xbea3f438	-0.32022262
40	0x3e64c7a2	0.22341779
41	0x3e7f24bc	0.24916357
42	0xbe33b1f1	-0.17548348
43	0x3e67095a	0.22562161
44	0xbf8a6034	-1.0810609
45	0x3e06d249	0.13166155
46	0xbf742ec8	-0.9538388
47	0xbd9de2f8	-0.077093065
48	0x3eadacb4	0.33920825
49	0xbdd8f34f	-0.105932824
50	0x3f7bb6b6	0.9832567
51	0x3e1183e0	0.14210463
52	0x40020551	2.0315745
53	0x3eebe934	0.46076357
54	0xbea7fc0f	-0.32809493
55	0x3ebb3384	0.3656274
56	0xbe4f7453	-0.20259218
57	0xbf2c418b	-0.6728751
58	0x3e582130	0.2110641
59	0x3d26a1ee	0.040681772
60	0xbf06ff8e	-0.52733696
61	0xbfe83ee0	-1.8144188
62	0xbebec8ba	-0.37262517
63	0x3ef97ef2	0.48729664
64	0x3d636418	0.05551538
65	0xbf25bb71	-0.6473914
66	0xc055433b	-3.3322284
67	0x3caadb72	0.020856593
68	0x3f962e01	1.1732789
69	0x3f2cf44a	0.67560256
70	0x3d48c422	0.04901517
71	0x3d3ee10a	0.046601333
72	0xbe5396c8	-0.20662987
73	0xbf29076a	-0.6602694
74	0xbf75c5d4	-0.96004987
75	0xbea04368	-0.31301427
76	0xbeb6be1b	-0.35691914
77	0x3eb2a2f8	0.3488996
78	0x3f89d75a	1.0768845
79	0xbd90f7db	-0.07078525
80	0xbfa3a813	-1.2785667
81	0x3f7afe9a	0.9804474
82	0x3cacffdd	0.021118099
83	0x3e4bd924	0.19907051
84	0x3da0c901	0.078508385
85	0xbe7d5c82	-0.2474232
86	0x406acbec	3.6686964
87	0xbf05c502	-0.52253735
88	0xbf233958	-0.63759375
89	0xbe6a7252	-0.22895172
90	0x3f6e5baa	0.9310862
91	0x3d4b1f12	0.049590178
92	0xbf37637c	-0.71636176
93	0xbe6a90e7	-0.22906838
94	0x3fb2ff74	1.3984208
95	0xbea0929d	-0.31361857
96	0xbf813a66	-1.0095947
97	0x3f22203c	0.63330436
98	0xbc2f8ec7	-0.010715193
99	0x3fac0f89	1.3442241
100	0xbf41d9d5	-0.7572301
101	0x3e99d3d4	0.30044425
102	0xc03567ce	-2.8344607
103	0xbf042a23	-0.51626796
104	0x3ef5c452	0.48001343
105	0xbec903ee	-0.3926081
106	0x3e33f93b	0.17575543
107	0x3f433b28	0.7626214
108	0x3d231c39	0.039821837
109	0xbd53c825	-0.051704545
110	0x3e55a3b8	0.20863235
111	0x3fb3cd69	1.4047061
112	0x3ebc588c	0.36786306
113	0xbe29c720	-0.16579866
114	0x3e33cc3d	0.1755838
115	0xbebde4b8	-0.3708856
116	0x3e06d2fb	0.1316642
117	0x3d601e2d	0.054716278
118	0xbef029e9	-0.46906975
119	0xbe6c3e00	-0.23070526
120	0xbe9fccc2	-0.31210905
121	0x3e12ea46	0.1434718
122	0x3ea757df	0.32684228
123	0x3f53501c	0.8254411
124	0x3eb63d39	0.35593584
125	0x3ee37ca5	0.44431034
126	0x3fa92d30	1.3216915
127	0x3d3cfee5	0.046141524
128	0xbe95d51b	-0.2926415
129	0x3e1a91b5	0.15094645
130	0x3f061a49	0.5238386
131	0xbebc5d3f	-0.3678989
132	0x3e41c4d4	0.1892274
133	0x3e527f6a	0.20556417
134	0x3f156c8e	0.58368766
135	0x3b92a9cd	0.0044758082
136	0xc01c75d7	-2.4446924
137	0x3f41de7c	0.7573011
138	0x3f7cd758	0.9876609
139	0x3e7fab30	0.24967647
140	0xbe97ff25	-0.29686847
141	0xbe52132a	-0.20515123
142	0x3ebf66a2	0.3738299
143	0x3f270877	0.6524729
144	0xbf7e476f	-0.9932775
145	0x3ec9106e	0.39270347
146	0x3f9ab638	1.2086859
147	0xbeab67cd	-0.3347763
148	0x3dd5146a	0.10404284
149	0xbe126638	-0.14296806
150	0xbe159cca	-0.14610592
151	0x3cfeb8f9	0.031094061
152	0x405f5e4e	3.490131
153	0x3e347ff7	0.1762694
154	0x3d52cec6	0.051466726
155	0xbe8f942c	-0.28042734
156	0x3eb8174e	0.3595528
157	0x40be2d4e	5.9430304
158	0xbe315b3e	-0.17319962
159	0xbe392957	-0.18082176
160	0xbeb993dd	-0.36245623
161	0xbf1b0c29	-0.6056543
162	0x3dd8a2eb	0.10577949
163	0xbf0c15b9	-0.54720646
164	0xbef92a6b	-0.48665175
165	0xbfc8d222	-1.5689127
166	0x3d3f8a24	0.0467626
167	0xbec57b98	-0.38570857
168	0xbeb6aab3	-0.35677108
169	0xbe445e85	-0.19176681
170	0xbe852721	-0.26006415
171	0x3ec95812	0.39325005
172	0x3fd7755c	1.683269
173	0x3dd1dc2b	0.10247072
174	0x3ccbe3bd	0.024888868
175	0x3e45c03b	0.19311611
176	0x3d90717f	0.07052898
177	0x3ed53795	0.41643968
178	0x3f6dafca	0.9284636
179	0xbebdbb60	-0.37057018
180	0xbf4b37c3	-0.7938196
181	0x3f892ce7	1.0716828
182	0x3e729c88	0.23692524
183	0xbe8fee73	-0.2811161
184	0xbea9490b	-0.3306354
185	0x3e879bcc	0.2648605
186	0x3f265bb1	0.6498366
187	0xbf9424f6	-1.157378
188	0xbf2aaf5b	-0.6667382
189	0x3eaeac1e	0.3411569
190	0x4019bb32	2.4020505
191	0xbed9aaef	-0.42513224
192	0x3d01ef35	0.031722266
193	0x3ef65db1	0.48118356
194	0x3eb2aed7	0.34899017
195	0xbfea5d23	-1.8309673
196	0xbff9439b	-1.9473757
197	0xbf23cb76	-0.6398233
198	0x3f3becf0	0.7340841
199	0x3d40147d	0.04689454
200	0xbea9e06f	-0.33179042
201	0x3e997963	0.29975423
202	0x3fb1aa49	1.3880092
203	0x3d78b877	0.060722794
204	0x3f596b3a	0.8492924
205	0xbf3970ba	-0.7243763
206	0x3ecda1a3	0.40162382
207	0xbe7df951	-0.24802138
208	0x3f36ef15	0.7145856
209	0x3f49a61d	0.78769094
210	0xbedf6ee2	-0.43639284
211	0x3ee1b9c0	0.44087029
212	0x3f18cd84	0.5968859
213	0xbf6381b4	-0.88869786
214	0x3ead08ec	0.3379587
215	0xbeacee6b	-0.33775648
216	0x3ef549ab	0.47907767
217	0x3ee46fa9	0.4461644
218	0xbf5b5349	-0.8567396
219	0xbdcb13a5	-0.09915856
220	0x3e59872a	0.21242967
221	0x3eae1e8f	0.3400769
222	0x3fe249a4	1.7678723
223	0x3ecff863	0.40619192
224	0x3f87647f	1.0577544
225	0x3f6c6d75	0.9235452
226	0x3eb9ab00	0.36263275
227	0xbeb1e7e9	-0.34747246
228	0x3d08bbd1	0.03338224
229	0x3f15029d	0.5820711
230	0xbe93cf18	-0.28868937
231	0x3ec044ca	0.37552482
232	0x3f03986e	0.51404464
233	0x3e7cee69	0.24700321
234	0x3ea7b678	0.327564
235	0xbe32e29f	-0.17469262
236	0x3dda69c5	0.10664705
237	0xbf23ab61	-0.6393338
238	0x3e4d028d	0.20020504
239	0xbfbe4cec	-1.4867225
240	0x3fb907ad	1.4455467
241	0xbf1f3217	-0.62185806
242	0x3f60be96	0.8779081
243	0xbf046f06	-0.5173191
244	0xbf118731	-0.5684691
245	0xc0255831	-2.5835078
246	0xbfb82fd2	-1.4389594
247	0xbec1aa7c	-0.37825382
248	0xbe934255	-0.28761545
249	0x3f334422	0.7002584
250	0x3ff5dac4	1.9207387
251	0x3ea8bb25	0.3295528
252	0xbf5ae426	-0.85504377
253	0xbf203ebc	-0.62595725
254	0xbeebcd57	-0.460551
255	0x3e8f8d48	0.28037477

linears.2.bias f4 [50]
0	0xbe24d3b9	-0.16096391
1	0xbe4b778d	-0.19869824
2	0x3e92cd2c	0.2867216
3	0x3e6905dd	0.22756143
4	0x3f0c57aa	0.54821265
5	0xbe73b4b0	-0.23799396
6	0xbf43215b	-0.7622277
7	0x3eea2420	0.45730686
8	0xbe00d830	-0.12582469
9	0x3df4a742	0.119459644
10	0xbdd8e18b	-0.10589894
11	0xbea20c20	-0.31649876
12	0x3e7afbb6	0.24510083
13	0x3ed43114	0.41443694
14	0xbd3fa6be	-0.046789877
15	0xbdb3ebcb	-0.08785208
16	0x3e8a67f0	0.27032423
17	0xbec6b2a3	-0.38808164
18	0xbe173d1f	-0.1476941
19	0x3b84db03	0.0040544285
20	0xbc88e01c	-0.016708426
21	0x3dcd2c27	0.10018187
22	0xbe5d4e0a	-0.21611801
23	0xbec45813	-0.38348445
24	0x3c6c037d	0.014405129
25	0xbe8037fa	-0.25042707
26	0x3d683518	0.05669126
27	0xbdd76f08	-0.105192244
28	0x3e3ea2a2	0.18616727
29	0x3ec2bf94	0.38036788
30	0xbebcab77	-0.36849567
31	0x3d266c69	0.04063073
32	0x3da93452	0.082619324
33	0xbeee7489	-0.46573284
34	0x3d18f1c6	0.037339948
35	0xbdd2df8d	-0.10296545
36	0xbede7581	-0.43449023
37	0xbe3ddf7e	-0.18542287
38	0x3eacc9f6	0.33747834
39	0xbe9f8ccb	-0.31162104
40	0xbe4fd81e	-0.20297286
41	0xbe23fddb	-0.16014807
42	0x3e4c6f5e	0.19964358
43	0xbed4b462	-0.4154387
44	0x3d038343	0.032107603
45	0x3ef384ba	0.475622
46	0xbdad3769	-0.08457834
47	0xbc9c81f9	-0.019104945
48	0x3daac358	0.0833804
49	0xbe298156	-0.16553244

linears.3.weight f4 [50, 50]
0	0x3e07ff56	0.13280997
1	0x3de9802f	0.11401402
2	0xbebca0db	-0.36841473
3	0x3fa87fb7	1.3163975
4	0x3e226f18	0.15862691
5	0x3ea9fa45	0.33198753
6	0xb9ac6464	-0.00032881193
7	0x3e8fe7d9	0.28106573
8	0xbfd03812	-1.6267111
9	0x3eb30959	0.3496807
10	0x3fac6424	1.346806
11	0xbd9058b1	-0.070481665
12	0x3f460e16	0.77365243
13	0x3e459570	0.19295287
14	0xbcee6ee9	-0.02910562
15	0x3fd45734	1.6589112
16	0xbef950ce	-0.48694462
17	0x3e8f743b	0.28018364
18	0xbfece7f2	-1.8508284
19	0x3eebac34	0.46029818
20	0xbf389d50	-0.7211504
21	0xbe16be2a	-0.1472098
22	0xbc9e35ff	-0.019312857
23	0xbebb089e	-0.36530012
24	0x3fa6a6c3	1.3019642
25	0x3c100693	0.00879063
26	0x3f45f355	0.7732442
27	0x3f4fec87	0.8122029
28	0x3e9c6462	0.30545336
29	0xbd90b7be	-0.07066296
30	0xbe869735	-0.26287237
31	0xbff64460	-1.9239616
32	0x3f24b18c	0.64333415
33	0x3e93dffd	0.28881827
34	0xbbf27df6	-0.0074002696
35	0xbeab5079	-0.33459833
36	0x3f60cfdc	0.8781717
37	0x3eb883a8	0.36037946
38	0xbf1e195e	-0.6175746
39	0xbf448b98	-0.76775503
40	0xbf19407d	-0.59864026
41	0xbf6c4e22	-0.9230672
42	0xbf81a7af	-1.0129298
43	0xbe9fd4e0	-0.31217098
44	0xbfa90e6e	-1.3207529
45	0x3ec46aa5	0.38362613
46	0x3f0599c6	0.52187765
47	0x3f8e4110	1.1113605
48	0xbea06479	-0.31326655
49	0x3f562248	0.8364606
50	0x3da2c686	0.079480216
51	0x3f2f2b4b	0.68425435
52	0x3f1122ef	0.5669393
53	0x3ef42f19	0.47692183
54	0x3eb97259	0.36220053
55	0xbc0e54c5	-0.008687203
56	0x3d4bd963	0.049767863
57	0x3da43805	0.080184974
58	0xbf91e01d	-1.1396519
59	0xbfae4d0d	-1.3617264
60	0xbe1ad940	-0.15121937
61	0xbd12d9f1	-0.035852376
62	0x3eb24430	0.34817648
63	0x3e0e70bd	0.13910194
64	0xbebebe87	-0.37254736
65	0xbed8b679	-0.42326716
66	0xbf47ce5e	-0.78049266
67	0xbdcbd6e4	-0.099530965
68	0x3db20699	0.08692665
69	0xbf03387a	-0.5125805
70	0xbd87028e	-0.06592284
71	0x3dd456b6	0.10368101
72	0x3da9a526	0.08283453
73	0x3e4aa425	0.19789179
74	0xbf96db9f	-1.1785773
75	0xbe2c44a5	-0.16823061
76	0xbdf66125	-0.120302476
77	0xbee7e2df	-0.45290276
78	0xbdfd326e	-0.12363134
79	0xbe8aaa61	-0.27083114
80	0x3f2bda64	0.6713011
81	0xbe87d42f	-0.2652907
82	0xbf0d809d	-0.55274373
83	0x3d6ffa3c	0.05858825
84	0xbe009edb	-0.12560599
85	0x3e4e2936	0.20132908
86	0x3e671dbe	0.2256994
87	0x3e81b48e	0.25333065
88	0xbec6165e	-0.3868894
89	0x3eb6dd81	0.3571587
90	0x3ec22709	0.37920406
91	0xbf37e9e4	-0.71841264
92	0xbde78c37	-0.11306041
93	0x3da7412b	0.08166727
94	0x3ecbe767	0.39824983
95	0xbe8d9e14	-0.27659667
96	0x3f4e0c9c	0.8048799
97	0x3f7ba38b	0.9829642
98	0xbeeaec17	-0.45883247
99	0x3fa44e8a	1.2836468
100	0x3eaffb1f	0.34371278
101	0x3e28c7e8	0.16482508
102	0xbd3da388	-0.046298534
103	0x3e80a12a	0.25122958
104	0x3edb6d22	0.428567
105	0xbe5a3f46	-0.213132
106	0x3ea3eab2	0.32014996
107	0xbd9f559a	-0.07779999
108	0xbf4fb123	-0.81129664
109	0xbdacf202	-0.08444597
110	0xbf611f9a	-0.87938845
111	0xbd88fcca	-0.06688841
112	0xbe474a16	-0.19461855
113	0xbe9fea3a	-0.31233388
114	0xbde1b352	-0.11020531
115	0x3f4a47ad	0.7901562
116	0x3f326c07	0.69696087
117	0x3e0f807b	0.14013855
118	0xbe8805cc	-0.26566923
119	0x3dcf4999	0.101214595
120	0xbda21e1f	-0.079159014
121	0xbd272b37	-0.040812697
122	0x3e0688cb	0.1313812
123	0x3e92f566	0.2870285
124	0xbe4110ea	-0.18854108
125	0x3d4453d5	0.04793151
126	0x3e0bb610	0.1364367
127	0x3fd5171b	1.6647676
128	0xbd806560	-0.06269336
129	0xbf22ef37	-0.6364626
130	0x3e0d1e11	0.13781
131	0xbf5f4eb1	-0.8722945
132	0x3d369650	0.044576943
133	0x3f05fb15	0.52336246
134	0x3e596bc9	0.21232523
135	0x3e6bbcca	0.23021236
136	0xbe0e4c1f	-0.13896225
137	0xbd5b56e9	-0.05354968
138	0x3f91cef7	1.1391286
139	0x3ed6eeb8	0.41979003
140	0xbe31d8cd	-0.17367859
141	0x3f868ca4	1.051167
142	0x3dfa28db	0.12214824
143	0x3e3d3a23	0.18479209
144	0xbfb1091e	-1.3830907
145	0xbd8fb4ad	-0.07016883
146	0xbedb1612	-0.42790276
147	0x3e2546bb	0.16140263
148	0x3e9605bd	0.29301253
149	0xbe424b97	-0.18974148
150	0xbebde913	-0.37091884
151	0x3e05f861	0.1308303
152	0x3ec69143	0.387827
153	0xbfa10498	-1.2579527
154	0xbe12547c	-0.1429004
155	0xbfa99a22	-1.3250163
156	0xbdcdaa17	-0.10042208
157	0xbed45150	-0.41468287
158	0x3f6d42da	0.9268013
159	0xbe4b0369	-0.1982552
160	0xbf9a403c	-1.2050853
161	0x3db61d38	0.08892292
162	0x3dd99ba2	0.10625388
163	0x3e6a708f	0.228945
164	0x3ea5cdd2	0.3238359
165	0xbff7d7c5	-1.9362723
166	0x3cb3348a	0.021875639
167	0x3f8a1c52	1.0789893
168	0x3ec3f2c4	0.38271153
169	0x3ddbe60b	0.107372366
170	0x3d6f76c0	0.05846286
171	0xbe85f0ce	-0.26160282
172	0xbeeedbcc	-0.46652067
173	0x3e182616	0.14858279
174	0xbf672836	-0.9029573
175	0x3f07345f	0.52814287
176	0xbf64db16	-0.893968
177	0xbeec69f1	-0.46174577
178	0xbdcd0f4f	-0.100126855
179	0xbdb2e360	-0.087347746
180	0x3edff923	0.43744764
181	0x3f7dcc77	0.99140114
182	0x3f368090	0.7128992
183	0xbd3165fe	-0.043310158
184	0xbe0cc5f6	-0.13747391
185	0x403435b4	2.8157778
186	0xbed8958c	-0.42301595
187	0xbf3608a4	-0.71106935
188	0xbdbed3a5	-0.09317712
189	0xbf82dec6	-1.0224235
190	0x3eb938a5	0.3617603
191	0x3f21f705	0.63267547
192	0x3ec1437e	0.37746805
193	0xbee318e7	-0.44354936
194	0x3f90ca53	1.1311744
195	0xbddbc31d	-0.10730574
196	0x3e7be631	0.2459953
197	0xbe3e1843	-0.18563943
198	0x3dce5936	0.100756094
199	0xbd32895b	-0.043588024
200	0xbe8710f1	-0.26380113
201	0xbf170f09	-0.59007317
202	0x3f2bae8d	0.6706322
203	0xbe632cfa	-0.22185126
204	0xbeb90d2d	-0.36142865
205	0xbd7c9507	-0.06166556
206	0xbf000bc6	-0.50017965
207	0x3de9b0f0	0.11410701
208	0x3f714f64	0.94261765
209	0xbde74a44	-0.11293462
210	0x3e8c60c1	0.27417567
211	0x3e1730d1	0.14764716
212	0xbf6a3b4b	-0.91496724
213	0x3ea8668d	0.3289074
214	0x3e7f7261	0.24945976
215	0xbe4d1699	-0.20028152
216	0x3f27b3aa	0.6550852
217	0x3f09674f	0.5367326
218	0x3f8bd0cd	1.0923096
219	0xbef0752e	-0.469644
220	0x3f2b9f11	0.6703959
221	0xbdcfd0e4	-0.101472646
222	0xbddf6799	-0.109084316
223	0xbe6c75d0	-0.23091817
224	0xbf24aa10	-0.64321995
225	0x3f4c715a	0.7986046
226	0xbe5ec2ef	-0.21754049
227	0xbf8510af	-1.0395716
228	0x3d920495	0.0712978
229	0x3e1fc26c	0.1560151
230	0xbcd709a9	-0.026249724
231	0x3f391321	0.72294813
232	0xbe877f72	-0.2646442
233	0xbeda9093	-0.42688426
234	0xbd44b3b1	-0.04802293
235	0x3f9087fc	1.1291499
236	0xbcbe22c0	-0.02320993
237	0xbe85f347	-0.26162168
238	0x3f8443b9	1.0333167
239	0xbe7486b3	-0.23879509
240	0x3ede48c0	0.4341488
241	0xbf58d8d2	-0.8470584
242	0x3f9d5b65	1.2293516
243	0xbeb4484a	-0.35211402
244	0x3f557cb2	0.83393395
245	0x3e9e1346	0.3087408
246	0xbda1ba7e	-0.07896899
247	0x3dabb505	0.08384136
248	0xbe4a189c	-0.1973595
249	0x3e1fd960	0.15610266
250	0xbf037163	-0.5134489
251	0x3ed113e6	0.40835494
252	0x3d72c88f	0.0592733
253	0x3e73742b	0.23774783
254	0xbd86dc12	-0.06584944
255	0x3ebee867	0.37286684

linears.3.bias f4 [50]
0	0x3e7cb9e5	0.24680288
1	0xbe06160c	-0.13094348
2	0xbce6c0ce	-0.028168108
3	0x3e31598b	0.17319314
4	0x3ea1b5ab	0.31583914
5	0xbea51270	-0.3224063
6	0xbdf496b4	-0.11942807
7	0xbf8ad320	-1.084568
8	0xbc5209b3	-0.012819695
9	0xbdf64938	-0.12025684
10	0x3f64aa11	0.89322
11	0x3f59e977	0.85121864
12	0xbf34f632	-0.70688164
13	0x3c8c3e6d	0.01711961
14	0xbfb6bfb6	-1.4277256
15	0xbd5253a3	-0.051349293
16	0x3e8fb672	0.28068882
17	0xbe807b62	-0.25094134
18	0x3bf38556	0.0074316664
19	0x3d852089	0.06500346
20	0x3f295e14	0.66159177
21	0x3ccd1bc3	0.025037652
22	0xbd3bd6a4	-0.045858994
23	0xbe7b210e	-0.24524328
24	0xbfa79e37	-1.3095158
25	0xbee8f1ea	-0.45497066
26	0x3ea4e33b	0.32204613
27	0xbf177ecf	-0.5917787
28	0xbe3f7a1f	-0.18698929
29	0xbe7f87d7	-0.24954163
30	0xbd408613	-0.047002863
31	0x3e974ffc	0.2955321
32	0x3e1c0db5	0.15239604
33	0xbe99e216	-0.30055302
34	0xbfcfc556	-1.6232097
35	0x3ed4b2d9	0.415427
36	0x3ee9b9c2	0.45649534
37	0xbdde18d2	-0.10844578
38	0xbec3046d	-0.38089314
39	0xbf3bb5b0	-0.7332411
40	0x3b80ef80	0.0039348006
41	0x3d82ab74	0.06380358
42	0x3f0ff531	0.5623351
43	0xbe4a4927	-0.19754468
44	0xbee1bab5	-0.4408776
45	0x3d8949d6	0.06703536
46	0xbe5df8d8	-0.21676958
47	0xbf99b3b9	-1.2007972
48	0x3e98c39c	0.29836738
49	0x3e022998	0.1271118

linears.4.weight f4 [3, 50]
0	0x3f50d958	0.8158164
1	0x3e163a60	0.14670706
2	0x3d9de14c	0.077089876
3	0x3dedfb48	0.11620194
4	0x3f0aaef2	0.54173195
5	0x3f0420c7	0.51612514
6	0x3e047557	0.12935387
7	0xbe2af04d	-0.1669323
8	0x3d80cfa6	0.06289606
9	0x3cf128cd	0.0294384
10	0x3e7217ab	0.23641841
11	0x3e1fad1b	0.15593378
12	0xbe8cc4d8	-0.2749393
13	0x3c51288e	0.012766017
14	0xbed899f5	-0.4230496
15	0x3e387cef	0.18016408
16	0x3d6d5d09	0.057950053
17	0xbe826bf3	-0.25472984
18	0xbeb47463	-0.35245046
19	0xbebd7589	-0.37003735
20	0x3d4a9eab	0.049467724
21	0xbe08eef8	-0.1337241
22	0xbe82dbb3	-0.25558242
23	0xbea6def8	-0.32591987
24	0xbe8f03ed	-0.27932683
25	0xbe998ed0	-0.2999177
26	0x3ee3696b	0.44416365
27	0xbf1235e5	-0.57113487
28	0xbf223f6a	-0.6337801
29	0xbd907154	-0.070528656
30	0x3dcc06c0	0.09962225
31	0x3db0216f	0.08600127
32	0x3dbfee23	0.09371593
33	0xbe2a7f7b	-0.16650192
34	0xbe71c1d3	-0.23609094
35	0x3e20e4cc	0.15712279
36	0xbeedadbc	-0.4642161
37	0x3de12158	0.10992688
38	0xbdf69f1b	-0.12042066
39	0x3ee3c81d	0.44488612
40	0x3f86cad6	1.0530651
41	0xbf260dfe	-0.648651
42	0xbf28d0fd	-0.6594389
43	0xbdc9ce79	-0.09853835
44	0x3e36e7fb	0.17861931
45	0x3e2282f7	0.15870272
46	0xbf3353cf	-0.70049757
47	0xbec5e9cb	-0.38654932
48	0x3ed951e5	0.42445293
49	0xbddaa1c9	-0.10675389
50	0xba0665e3	-0.00051268766
51	0xba5ad8ab	-0.0008348326
52	0x3ac3bab1	0.0014932958
53	0x3b6767af	0.0035309603
54	0xbb3b67c4	-0.0028595785
55	0xbc11c16b	-0.008896212
56	0x3ab34474	0.0013677017
57	0x3a895ccd	0.0010479927
58	0x39982412	0.00029018574
59	0xb9cef5fc	-0.00039474654
60	0xbb994fba	-0.0046786936
61	0x384f0ecf	4.9366437e-05
62	0x3c0a05ce	0.0084242355
63	0x3acf1e00	0.0015801787
64	0xbbe82188	-0.0070840754
65	0x3b034a28	0.0020033214
66	0xbb29960d	-0.002587679
67	0xbac9e89e	-0.0015404408
68	0xba3179a5	-0.00067701406
69	0x3a9dc2e4	0.0012036231
70	0xbb7ba04f	-0.0038395112
71	0xb9b1467c	-0.00033812586
72	0xbc0fb2d4	-0.008770663
73	0xba299e7d	-0.0006470455
74	0xbb407e7b	-0.0029372263
75	0xbb29431b	-0.0025827351
76	0x3b030ac2	0.0019995426
77	0xbae968df	-0.0017807743
78	0xba948f1f	-0.0011334157
79	0x38ede15d	0.00011343018
80	0x3ac469ee	0.0014985183
81	0x3a662e70	0.00087807234
82	0xba5f3cc8	-0.0008515832
83	0x39b48f7b	0.00034439177
84	0xbc5ec886	-0.013597613
85	0xba9821cc	-0.0011606752
86	0x3a563819	0.00081718114
87	0x39eafe75	0.00044821543
88	0xbb0d1f55	-0.0021533568
89	0xba736390	-0.00092845503
90	0x3bfacc2a	0.007653733
91	0xbb2e4507	-0.0026591436
92	0xbba4523d	-0.0050146864
93	0xbabe8387	-0.0014535048
94	0xba27262e	-0.00063762337
95	0x3aa53b00	0.0012606084
96	0xba7b890c	-0.0009595312
97	0x3a807b82	0.0009802433
98	0xba251779	-0.0006297748
99	0x3b10e43f	0.0022108702
100	0xbd14e669	-0.03635255
101	0xbd81ee4e	-0.06344281
102	0x3de6ae3d	0.11263702
103	0xbde2f064	-0.11081007
104	0xbe8c2a4a	-0.27376014
105	0xbed45636	-0.41472024
106	0x3d82c911	0.063860066
107	0xbd4dea5d	-0.050272334
108	0xbc201715	-0.009771128
109	0xbbc1a7bf	-0.0059098895
110	0x3e773a6e	0.24143383
111	0x3e168c7e	0.14702031
112	0xbe1bdebb	-0.15221684
113	0x3cd2b402	0.0257206
114	0xbe10ddaf	-0.14147066
115	0xbb13836b	-0.002250875
116	0xbd2353fb	-0.039875012
117	0x3e0fd008	0.14044201
118	0x3b1f4679	0.002430348
119	0xbb531cfb	-0.0032213319
120	0x3e7d2bdf	0.24723767
121	0xbb91b35b	-0.0044464297
122	0x3eab8182	0.33497244
123	0x3e9e0768	0.30865026
124	0xbea4d7d8	-0.32195926
125	0xbc8a4ad4	-0.016881384
126	0xbeab3d64	-0.33445275
127	0x3eaa5992	0.33271462
128	0x3c37f159	0.011226975
129	0x3d573c5d	0.0525478
130	0xbcc01829	-0.02344902
131	0x3ce5518c	0.027992986
132	0xbdfff52b	-0.12497934
133	0x3c3bb2d5	0.011456211
134	0xbea79c41	-0.327364
135	0xbdb71bfc	-0.089408845
136	0x3eac43ef	0.3364558
137	0xbd496959	-0.049172733
138	0xbe24f061	-0.16107322
139	0xbe77cc75	-0.24199088
140	0x3c36ca6a	0.011156658
141	0x3c4d9601	0.012547971
142	0x3e8c3f19	0.2739189
143	0xbcbab0f4	-0.022789456
144	0xbdc38b17	-0.09548014
145	0xbc07129a	-0.008244181
146	0x3edcd7e6	0.43133467
147	0xbe20443c	-0.1565103
148	0xba1dd385	-0.00060205936
149	0x3e400097	0.18750225

linears.4.bias f4 [3]
0	0x3e4d37bc	0.20040792
1	0xbc3f5fd9	-0.011680567
2	0x3d3eb2b4	0.046557143

exp_avg f4 [50, 3]
0	0x2d3bd715	1.0677477e-11
1	0x2d0cf1b8	8.011751e-12
2	0xade48452	-2.5979361e-11
3	0x2ebaa2d5	8.4872255e-11
4	0xaf97e8f6	-2.763227e-10
5	0xaf90c2db	-2.63319e-10
6	0x32ba2a61	2.1672522e-08
7	0x3318c471	3.556892e-08
8	0x325ce8e3	1.2858638e-08
9	0xae7a4b86	-5.6910497e-11
10	0xafa63181	-3.02304e-10
11	0xaeb944b5	-8.425031e-11
12	0x2df9cd00	2.8399061e-11
13	0xaff431a1	-4.4418605e-10
14	0xafdbce2b	-3.998236e-10
15	0xaf718564	-2.1966212e-10
16	0xb20ea11c	-8.30212e-09
17	0xaea3fa81	-7.45688e-11
18	0x323395ac	1.0453203e-08
19	0xb1d1441d	-6.090444e-09
20	0xb0a4b57c	-1.1984151e-09
21	0xb039af3b	-6.7551625e-10
22	0x316d0709	3.4492038e-09
23	0xad0e1929	-8.077352e-12
24	0x2d43ccea	1.1129967e-11
25	0x2d8d358f	1.6053629e-11
26	0xac419326	-2.7508633e-12
27	0x2db0d11d	2.0101748e-11
28	0xae45e9fa	-4.5000427e-11
29	0xad142339	-8.420647e-12
30	0x2f939fd1	2.68527e-10
31	0xad99cf27	-1.748608e-11
32	0x2e876269	6.1565704e-11
33	0xb007f709	-4.946377e-10
34	0x31c3f963	5.703599e-09
35	0xaf6dc5de	-2.1625321e-10
36	0x2faca53f	3.1404032e-10
37	0xb094aef8	-1.0818146e-09
38	0xb01ffaba	-5.8200167e-10
39	0xaf76090f	-2.2376788e-10
40	0xb0f952a6	-1.8140625e-09
41	0x2f9fcc78	2.9067215e-10
42	0xaee15d6a	-1.0248409e-10
43	0x30a70a57	1.2153788e-09
44	0x2d4ddcd9	1.1701939e-11
45	0xae6fc238	-5.451481e-11
46	0xaf33ef8b	-1.6365058e-10
47	0xad804db0	-1.4586415e-11
48	0xacb394c9	-5.1040045e-12
49	0xaeb46e95	-8.2050956e-11
50	0xacc564f1	-5.6102835e-12
51	0xb05dc2d5	-8.0676205e-10
52	0x321720e6	8.796837e-09
53	0x30d0689f	1.5163727e-09
54	0xb521c429	-6.0262624e-07
55	0xb4e0c67a	-4.1867662e-07
56	0xb0ab5054	-1.2464718e-09
57	0x362f34a5	2.6107675e-06
58	0x35ece00f	1.764858e-06
59	0x3373e3b9	5.678496e-08
60	0x2d2d8f0d	9.865675e-12
61	0x2d7992c3	1.4186599e-11
62	0xac821e7a	-3.698206e-12
63	0xb08fb93f	-1.045727e-09
64	0xb0cad7e3	-1.4758793e-09
65	0xb07584d3	-8.9319235e-10
66	0x2f674ee4	2.1037355e-10
67	0xaf4d1a96	-1.8654087e-10
68	0x2fadc908	3.1611358e-10
69	0x2dbe15ae	2.1610127e-11
70	0x2d0a09ab	7.8465385e-12
71	0xac286a35	-2.3933193e-12
72	0x330e5cae	3.3146243e-08
73	0x3327bab1	3.9052512e-08
74	0x32842b22	1.5386437e-08
75	0xbf905aa7	-1.1277665
76	0xbdd1ba35	-0.10240594
77	0x3b32482c	0.0027203662
78	0xad55f4eb	-1.2162031e-11
79	0xaf06afc7	-1.2249678e-10
80	0xadc66010	-2.2552654e-11
81	0x2e05469c	3.0303413e-11
82	0x30719fcd	8.790238e-10
83	0x2ea0a682	7.305535e-11
84	0xaf6b02c0	-2.1374102e-10
85	0xb10d4361	-2.05565e-09
86	0xb061ca5c	-8.2142093e-10
87	0xaecfb2e9	-9.445051e-11
88	0xafe08cc9	-4.0845397e-10
89	0xaf7dbca9	-2.3077242e-10
90	0xad19a502	-8.733682e-12
91	0xaeac500d	-7.835874e-11
92	0xac87aa62	-3.855847e-12
93	0xb1814296	-3.761964e-09
94	0xb17f9afa	-3.7195478e-09
95	0x304fdea2	7.562254e-10
96	0xb3381a42	-4.286472e-08
97	0xb1731e4e	-3.537838e-09
98	0x31676f08	3.3678038e-09
99	0xc085e583	-4.1842666
100	0xbef22755	-0.47295633
101	0xbe0d578e	-0.1380293
102	0xbe2bf83b	-0.16793911
103	0xbbc1db57	-0.00591604
104	0xb93f2b72	-0.00018231364
105	0xaf0fb761	-1.3070924e-10
106	0x2f2e7f73	1.5870487e-10
107	0x2dc329c5	2.2187483e-11
108	0xab9f5184	-1.1320255e-12
109	0xae52d0f7	-4.793407e-11
110	0xabb29e39	-1.2691576e-12
111	0x31c98a0d	5.8655645e-09
112	0xb29aa15d	-1.8001339e-08
113	0x310d4730	2.0558666e-09
114	0xaedecf89	-1.0132257e-10
115	0xafcc713a	-3.7187836e-10
116	0xaea5ab44	-7.533754e-11
117	0xade2ef5d	-2.5799524e-11
118	0x2eca299a	9.1932864e-11
119	0x2d887ccc	1.5516831e-11
120	0x33985d46	7.095018e-08
121	0x33f01406	1.1179513e-07
122	0x32bcf9ff	2.1999766e-08
123	0xb08395a9	-9.57404e-10
124	0xb2e35f1e	-2.6469532e-08
125	0x3021acbc	5.881693e-10
126	0x31b338f1	5.216059e-09
127	0x30ba6090	1.3560726e-09
128	0x3196a8da	4.3847708e-09
129	0xaf62f554	-2.0641738e-10
130	0xb09247d4	-1.0643313e-09
131	0xaef17a7b	-1.0981168e-10
132	0xacf9f1db	-7.103857e-12
133	0xae591f0e	-4.936767e-11
134	0xac6b03b5	-3.3397566e-12
135	0xb107abdc	-1.9742776e-09
136	0x321fc317	9.299376e-09
137	0x2f82cf0a	2.3793972e-10
138	0xadde858c	-2.5297785e-11
139	0x2fef5e50	4.354086e-10
140	0x2e0f1550	3.2533365e-11
141	0xae8d75f9	-6.432894e-11
142	0xb0cf4917	-1.5082006e-09
143	0xac82c197	-3.716315e-12
144	0x2e8ca677	6.396033e-11
145	0x2fa1f01a	2.9456332e-10
146	0x2e328129	4.058723e-11
147	0xb0bc2598	-1.3689485e-09
148	0xafe6b7c6	-4.1967335e-10
149	0xb05d67c1	-8.0546775e-10

exp_avg_sq f4 [50, 3]
0	0x1d6885ef	3.0774186e-21
1	0x1eb6044c	1.9271777e-20
2	0x1de05985	5.9384867e-21
3	0x2379f41b	1.3550008e-17
4	0x27826e42	3.620179e-15
5	0x21510b3f	7.082684e-19
6	0x28bd27a9	2.1000415e-14
7	0x292d7638	3.8516255e-14
8	0x26ad1599	1.201014e-15
9	0x20007eeb	1.0884015e-19
10	0x2339648f	1.0050164e-17
11	0x20eee399	4.046938e-19
12	0x25370232	1.5873464e-16
13	0x25c51fc4	3.4195578e-16
14	0x239302f3	1.5939021e-17
15	0x291eb441	3.5239393e-14
16	0x2a82a15d	2.3204607e-13
17	0x263d4bce	6.567528e-16
18	0x2a7fba41	2.271317e-13
19	0x2a6ef966	2.1225174e-13
20	0x25a85d98	2.9206776e-16
21	0x25925d25	2.539008e-16
22	0x27435df7	2.7112625e-15
23	0x24912f29	6.296362e-17
24	0x1d50ae6d	2.7618747e-21
25	0x20129fac	1.2419512e-19
26	0x1dc7d560	5.2895486e-21
27	0x1f705757	5.0894223e-20
28	0x1fe20855	9.572851e-20
29	0x1cc80de0	1.3238476e-21
30	0x20926ba9	2.4804606e-19
31	0x2071c949	2.0480094e-19
32	0x1f52fd3b	4.4678697e-20
33	0x25257a75	1.4352959e-16
34	0x27f18b0f	6.7041705e-15
35	0x24bcb67c	8.1841144e-17
36	0x24038f5c	2.8527527e-17
37	0x27945001	4.1164992e-15
38	0x23f57b89	2.6615272e-17
39	0x25bfeceb	3.329376e-16
40	0x267b8f32	8.7277184e-16
41	0x21860e10	9.083916e-19
42	0x243ef267	4.1405005e-17
43	0x287ce0bf	1.4037544e-14
44	0x22a4f2e5	4.4709464e-18
45	0x1f374197	3.8806012e-20
46	0x1f3e53ac	4.0303277e-20
47	0x1da183e9	4.2752737e-21
48	0x20aa112b	2.881048e-19
49	0x1fa05f50	6.792032e-20
50	0x1d79d855	3.3066717e-21
51	0x26aa5584	1.1819299e-15
52	0x29719282	5.3639825e-14
53	0x256af8fb	2.0380623e-16
54	0x3141cdcd	2.820218e-09
55	0x2ea9a8fe	7.715249e-11
56	0x27be0890	5.2744877e-15
57	0x3da90f7a	0.08254905
58	0x36fcdcb0	7.5358766e-06
59	0x350a1eea	5.145399e-07
60	0x1f05f960	2.8370124e-20
61	0x202c1c9a	1.457843e-19
62	0x1d6895bd	3.0782357e-21
63	0x2433cef0	3.898972e-17
64	0x2633d086	6.23857e-16
65	0x2432172a	3.8617218e-17
66	0x2429d7a7	3.6828698e-17
67	0x24215ad9	3.498826e-17
68	0x237783e9	1.341783e-17
69	0x20892d48	2.3238667e-19
70	0x20c09916	3.262737e-19
71	0x1e4df22f	1.0902692e-20
72	0x2c0eeffd	2.0312634e-12
73	0x2c9dc0d7	4.483618e-12
74	0x2aa62596	2.9513604e-13
75	0x4694ab80	19029.75
76	0x435d7c6c	221.48602
77	0x3f79b824	0.975466
78	0x203abce2	1.5817309e-19
79	0x22ad61a4	4.6995125e-18
80	0x1ee82960	2.4581068e-20
81	0x22dd3a34	5.9963795e-18
82	0x22b9152c	5.0166767e-18
83	0x1f725ae1	5.1320667e-20
84	0x24f83cbc	1.07655744e-16
85	0x28161d2c	8.332998e-15
86	0x242f73a4	3.8045027e-17
87	0x2071793e	2.045361e-19
88	0x20ac30ed	2.917031e-19
89	0x2069ab47	1.9792539e-19
90	0x1ea22215	1.7166513e-20
91	0x1ee7335c	2.4479318e-20
92	0x1ca36816	1.0813341e-21
93	0x274022cb	2.6664214e-15
94	0x28ae5f29	1.935915e-14
95	0x24b56bc6	7.867881e-17
96	0x2bb5fef0	1.2931583e-12
97	0x2a2cccbd	1.5347702e-13
98	0x26a7e579	1.1650152e-15
99	0x4903d540	539988.0
100	0x459ceb0b	5021.3804
101	0x42886904	68.20511
102	0x444a6b78	809.6792
103	0x41204c40	10.018616
104	0x3e125ed4	0.14293987
105	0x2185224e	9.021511e-19
106	0x2112ec3e	4.977939e-19
107	0x1ea96e2f	1.7939142e-20
108	0x1b619e33	1.8662681e-22
109	0x1ea1eda9	1.7144832e-20
110	0x19b15e11	1.8339364e-23
111	0x291307f6	3.2647462e-14
112	0x291543c9	3.314344e-14
113	0x2b50c006	7.416293e-13
114	0x21cfe832	1.4088327e-18
115	0x224b4a37	2.755092e-18
116	0x20011380	1.0933177e-19
117	0x20dcdba1	3.7414788e-19
118	0x219f5970	1.0797933e-18
119	0x1e7f871c	1.35275276e-20
120	0x2c5a03aa	3.0981697e-12
121	0x2c8936f6	3.899876e-12
122	0x295f7070	4.961347e-14
123	0x26a52f57	1.1462006e-15
124	0x28d958ca	2.4130346e-14
125	0x245d96c1	4.804943e-17
126	0x27ad23db	4.805602e-15
127	0x274de73e	2.8574822e-15
128	0x237b6f7b	1.3630344e-17
129	0x24627350	4.9103612e-17
130	0x242ff4a7	3.8154305e-17
131	0x21b68090	1.236683e-18
132	0x1c975850	1.001517e-21
133	0x1ce8155f	1.5357996e-21
134	0x1c2663df	5.5053873e-22
135	0x266d2a72	8.2283417e-16
136	0x287802fe	1.3767414e-14
137	0x230581e6	7.2374515e-18
138	0x213fb6f2	6.4955443e-19
139	0x22936159	3.99475e-18
140	0x1ee0812c	2.3770347e-20
141	0x217d66a9	8.5855604e-19
142	0x265f19e8	7.7403777e-16
143	0x1ee66367	2.4393309e-20
144	0x21977ddd	1.0265474e-18
145	0x214e48f1	6.989205e-19
146	0x1f5e46ee	4.7069e-20
147	0x24e3c010	9.8770924e-17
148	0x24bb513f	8.123596e-17
149	0x22e5016c	6.207208e-18

exp_avg f4 [50]
0	0xad6576f3	-1.3043555e-11
1	0xae955e4c	-6.792486e-11
2	0x32030692	7.6266975e-09
3	0xae0e63d9	-3.2375744e-11
4	0xaf8cf4ff	-2.5639932e-10
5	0xaf52bd29	-1.9166592e-10
6	0xaf659e71	-2.0883718e-10
7	0x2f6a4ee5	2.1310205e-10
8	0xac0c87ff	-1.997069e-12
9	0xac2e34b7	-2.475615e-12
10	0x2e21ecf0	3.6817605e-11
11	0xae3b5d22	-4.2601596e-11
12	0xb047844c	-7.2583783e-10
13	0x2f3df47f	1.7276312e-10
14	0x2e988c8b	6.937125e-11
15	0x2e0b6a7e	3.1699525e-11
16	0x2e2ef340	3.977907e-11
17	0x311babd8	2.265315e-09
18	0xb291bfca	-1.6967437e-08
19	0x332b2bce	3.985388e-08
20	0xad90dded	-1.646946e-11
21	0xb07ce9d8	-9.200938e-10
22	0x30276dc5	6.091024e-10
23	0xadb0368e	-2.003311e-11
24	0x30f6972d	1.7941822e-09
25	0xbb199746	-0.0023436113
26	0xadbe0916	-2.1604534e-11
27	0xaf8e6b20	-2.5905766e-10
28	0xb01402aa	-5.384587e-10
29	0x2e35899c	4.1276857e-11
30	0xab43343e	-6.935042e-13
31	0x2fa469ad	2.9906513e-10
32	0xb0c11912	-1.4049724e-09
33	0xbbc0399f	-0.005866244
34	0xb9db6a26	-0.00041850022
35	0xade85950	-2.6415009e-11
36	0xabd6acee	-1.5253612e-12
37	0x305512a5	7.7515444e-10
38	0xae3af324	-4.2507456e-11
39	0xacd957e2	-6.177268e-12
40	0x31c9e688	5.8760783e-09
41	0x2fe58518	4.1749426e-10
42	0x30f08dcd	1.75026e-09
43	0x2f3ee040	1.7360069e-10
44	0x2e544cdf	4.8271494e-11
45	0xb01636dc	-5.464764e-10
46	0x2dae5a2a	1.982155e-11
47	0x2dd40693	2.410453e-11
48	0xae28418c	-3.8256995e-11
49	0xb113394f	-2.1423892e-09

exp_avg_sq f4 [50]
0	0x1f33d1a2	3.807813e-20
1	0x2422b3b2	3.5280358e-17
2	0x25135d11	1.278175e-16
3	0x21c24d3b	1.3166394e-18
4	0x23f2692c	2.6282235e-17
5	0x24a613a7	7.2024317e-17
6	0x24c533d3	8.5522925e-17
7	0x25002d6f	1.1117624e-16
8	0x1ecc0f6c	2.1605718e-20
9	0x1fa42c39	6.952986e-20
10	0x20e51b74	3.8812276e-19
11	0x25a0159c	2.777022e-16
12	0x24d37688	9.170746e-17
13	0x23bcd440	2.0472892e-17
14	0x252ea857	1.514913e-16
15	0x203f23ce	1.6190176e-19
16	0x206917f4	1.9743793e-19
17	0x2698d685	1.0605264e-15
18	0x28a3f4a9	1.820274e-14
19	0x34a46fed	3.0628817e-07
20	0x1f555c16	4.5180676e-20
21	0x2545d35c	1.7158638e-16
22	0x23c8b0c2	2.1758903e-17
23	0x209f1d04	2.6954849e-19
24	0x263d1ec7	6.561426e-16
25	0x3d9b9889	0.07597453
26	0x2102e1e1	4.434466e-19
27	0x2373af56	1.3210185e-17
28	0x25047c52	1.1491296e-16
29	0x21f1ea54	1.6392821e-18
30	0x1f7dfbbd	5.3783067e-20
31	0x25ec876e	4.1031245e-16
32	0x261edcc6	5.5116466e-16
33	0x3ff0a607	1.8800668
34	0x3b576553	0.003286679
35	0x21132041	4.9848225e-19
36	0x1c1d29af	5.2000817e-22
37	0x26f9249d	1.728777e-15
38	0x223c3ec5	2.551198e-18
39	0x20cf8e40	3.5161297e-19
40	0x275aadfe	3.0347899e-15
41	0x2471b592	5.241234e-17
42	0x2434b0fe	3.9181196e-17
43	0x2454ffdc	4.6186893e-17
44	0x1e201f3a	8.476787e-21
45	0x23f57b42	2.6615155e-17
46	0x219842e5	1.0317627e-18
47	0x22a04a9d	4.3447087e-18
48	0x21ec02e1	1.5992744e-18
49	0x256e725d	2.0681957e-16
