案例2/model_add_60.pt (torch, 104715 bytes, 30 tensors)

linears.0.weight f4 [50, 3]
000000 d0 0f 83 bc 47 ef a1 3c 9e d1 7b be 9a 7a 59 3c
       -0.01599875 0.019767417 -0.24591681 0.013273859
000010 32 a7 b9 b9 00 ad 8e 3b 24 40 e3 3c fe 93 6b bb
       -0.0003541052 0.0043541193 0.027740546 -0.0035946365
000020 cd c4 e0 3c fa 47 79 3b f5 d2 89 bc 9e 74 5d 3e
       0.027437592 0.0038037286 -0.016824225 0.21626517
000030 8c ce c7 3b 23 78 94 ba 7f 02 3f 3d 89 9b fa 3b
       0.0060976204 -0.0011327307 0.04663324 0.0076479358
000040 29 69 b5 bb b8 4e 76 bc e7 6b 33 bb 49 75 cc 3b
       -0.0055362177 -0.015033416 -0.0027377547 0.0062395674
000050 98 c3 9b 3d 97 0e a7 bb 63 64 98 b8 46 5f 62 bd
       0.07605666 -0.005098175 -7.266623e-05 -0.05526664
000060 05 65 03 bc 44 a5 75 bd 92 4b 1a be bd 87 2c 3c
       -0.00801969 -0.059972063 -0.1506789 0.010530409
000070 15 47 70 bb b6 53 c4 bc 79 71 58 3c 68 0e a8 bb
       -0.0036663462 -0.023965698 0.013210648 -0.0051286705
000080 91 ef 0a 3d 73 4a 75 3c 78 55 40 bb 3b 7d 4b 3e
       0.033919875 0.014971363 -0.0029347818 0.1987199
000090 9e 02 90 bb 06 67 20 bc 28 be 78 bd d3 4a ae bd
       -0.0043948432 -0.009790188 -0.060728222 -0.08510365
0000a0 a1 3e ba 3c 41 ee d9 3d 29 e7 85 bb de de 01 bb
       0.022734942 0.106411465 -0.0040863943 -0.0019816677
0000b0 be 18 10 be 0e e6 7a bc fe 51 08 3d 04 fa f7 be
       -0.14071938 -0.015313638 0.03328132 -0.48432934
0000c0 c3 eb f4 bc de d1 cf bc 72 44 ea bc 58 40 47 bc
       -0.029897576 -0.025368627 -0.02859709 -0.012161337
0000d0 68 9e 17 bd 64 ee 05 be 7c c3 90 3b 0b a7 ac 3c
       -0.037016302 -0.1307922 0.004417835 0.021075746
0000e0 96 2b c8 3c b3 af d8 bb 35 eb e7 3b 59 f3 53 3d
       0.024434846 -0.006612742 0.0070775994 0.051745746
0000f0 28 13 60 bc 0a 20 bc 3a 9c 25 ea bc e6 8c f0 ba
       -0.013676442 0.001435281 -0.028582387 -0.0018352538
000100 09 4e 19 3d b5 b9 c2 be c5 2d 5a 3c 15 55 6b 3d
       0.037427936 -0.38032308 0.013316576 0.057454187
000110 5b c4 02 3e db 2a f7 3b b4 ce 7c 3d 4d 0e af 3c
       0.12770216 0.0075429506 0.061720565 0.021369124
000120 ff 12 85 3c a0 74 86 3a 01 23 3f 3c 3a ee ae 3c
       0.01624441 0.0010258146 0.01166606 0.02135383
000130 84 27 0c bd 9f d2 67 3e 24 cc 06 3d 3a 7f 70 3d
       -0.034217373 0.2263894 0.032909527 0.058715083
000140 8f 8f a2 3d 59 52 e6 bb 1e 18 3c 3b ae 1d 4d bd
       0.07937538 -0.0070288596 0.0028700898 -0.050077133
000150 ee 8f 32 3c 62 13 92 3c a2 7f 4a 3d cc 24 aa bb
       0.010898573 0.017831508 0.049438126 -0.005192375
000160 07 38 c4 ba ff 90 38 bd 55 5e a6 3b 6c 3d 5b 3a
       -0.0014970311 -0.045060154 0.005077163 0.00083633396
000170 54 98 99 3c da cb ee bc 02 85 1a 3c ac d6 3b bd
       0.018749394 -0.029149938 0.009431126 -0.045859024
000180 aa 5c 1b bd 91 7b e8 3a a2 6f cf bc cb 7a 08 be
       -0.03793017 0.0017737021 -0.025321785 -0.13328092
000190 8a b7 83 bb 4c c8 43 bf 80 26 67 39 af 11 0f bc
       -0.0040196823 -0.76477504 0.00022044219 -0.008732243
0001a0 48 90 ec 3c b8 3c d5 bb 62 86 4f 3b 5d e0 3b bd
       0.028877392 -0.0065074824 0.0031665792 -0.045868266
0001b0 e6 67 76 3c 00 0c fa ba 25 63 f2 3d 6e 3d 24 3b
       0.01503942 -0.0019077063 0.118353166 0.002506103
0001c0 30 a3 2c 3c ab ce e5 3a c6 57 01 3b de 62 f9 ba
       0.010536954 0.0017532905 0.0019736155 -0.0019026657
0001d0 48 2f 6e 3e 3e ba c6 3c f5 28 f3 ba 1d 69 05 3e
       0.23260224 0.02425873 -0.0018551635 0.13028379
0001e0 d0 37 a6 bd 03 95 ac 3c fd 62 dc 3d fc 67 32 bc
       -0.08116114 0.021067148 0.10761068 -0.01088905
0001f0 a3 89 28 bc ff 5d ed bc 15 b7 8b 3d f4 bf da 3c
       -0.010286721 -0.028975485 0.068220295 0.026702859
000200 e5 7d 31 3e 69 d0 c4 3b 34 33 b9 b4 c5 ff 62 bd
       0.17333181 0.0060062897 -3.449619e-07 -0.055419702
000210 f4 a8 59 bb 27 5d 23 3c 73 eb ee bf 92 4b cc 3c
       -0.0033212276 0.00997094 -1.8665603 0.024938378
000220 f9 d4 90 3c 21 43 0a 3d 98 a2 03 3c d3 2d 4d bb
       0.017679678 0.033755425 0.008034371 -0.003130783
000230 4d 0d b1 3c 4d f8 8c 3d 25 7b ad 3d e7 2b ad 3d
       0.021612788 0.06883297 0.084707536 0.08455639
000240 5f 90 62 3d 03 aa d4 3b 68 07 88 3d 42 2f d1 bc
       0.055313464 0.0064899935 0.06642038 -0.02553523
000250 44 aa 75 3b 63 01 58 bc
       0.003748552 -0.013183924

linears.0.bias f4 [50]
000000 9d 20 a2 3f 6d b7 5b be 1c f7 cc 3e ae 9e 17 bf
       1.2666203 -0.2145669 0.4003228 -0.592265
000010 bc d5 dc bf 14 73 67 bf d8 6b 16 3f ba d0 ce 3f
       -1.7252727 -0.9040997 0.58758307 1.6157448
000020 d6 a6 39 3f 96 4e 1c 3f 46 d8 5e 3f 0e 3d 25 bf
       0.72520196 0.6105741 0.8704876 -0.6454629
000030 f3 f3 0d 3f e2 8c 32 3f cf 8f b3 3f f5 a8 25 3f
       0.5545036 0.6974622 1.4028262 0.6471093
000040 b9 e3 24 bf ac cb 94 3f aa dd 44 3f 20 e0 a1 3f
       -0.6440998 1.1624656 0.7690073 1.2646523
000050 dd ee ff 3e 72 83 c7 3e c1 9c 06 3f 5c 86 c0 3f
       0.49986926 0.38967472 0.5258294 1.5041003
000060 dc 03 c5 bd 8f 4f cb bf f1 cd 55 3e 93 b1 68 3f
       -0.09619877 -1.5883654 0.20879342 0.90895957
000070 84 bb 4a 3f 90 14 cc 3f 75 7e 5c be 26 2b 80 bf
       0.79192376 1.5943775 -0.21532615 -1.0013168
000080 9e b8 ab 3e ed cf 29 bf 3f 67 89 3c ef df 26 bf
       0.3353929 -0.66332895 0.016772864 -0.65185446
000090 5b a1 3e 3f f2 e3 1b bf e5 cd e9 be 33 c6 cd bd
       0.7446496 -0.6089469 -0.45664898 -0.10047569
0000a0 b8 99 f1 3e 64 6d 7a 3e 9b 94 51 bf cc 9b 0e c0
       0.4718759 0.24455792 -0.8186738 -2.228259
0000b0 3f dd 0e c0 23 91 e9 3e ff 73 c0 3d fa bc d9 3f
       -2.2322538 0.45618543 0.093971245 1.7010796
0000c0 47 93 34 3f 18 0c 08 be
       0.7053723 -0.13285863

linears.1.weight f4 [50, 50]
000000 ff 38 92 3d 77 41 21 3e e7 a1 f0 bc fc 99 3c be
       0.071397774 0.15747629 -0.029374076 -0.18418115
000010 dd 4f 26 bf d3 51 10 be e2 7d 35 3c ed 25 e9 3e
       -0.6496561 -0.14093713 0.011077376 0.45536748
000020 f0 c8 e3 3d 1a 7b ab 3d 8e 67 e2 bd df c3 53 3d
       0.1112231 0.08373089 -0.11054908 0.05170047
000030 6e bc 35 bc 38 22 8a bd 4f 19 63 3e 8a 92 16 be
       -0.011092288 -0.06744808 0.22177623 -0.14704338
000040 8e ba 1a bd af 35 40 3d 91 61 45 3e 74 dd ef 3c
       -0.03777557 0.046926197 0.192755 0.029280402
000050 ea 5d cb 3c 06 47 19 3d 32 7e 54 be 6f ff 06 be
       0.024825055 0.03742125 -0.20751265 -0.13183378
000060 8d 3a 51 3e bd f7 39 3e 30 2e 9a bd 71 85 1c 3e
       0.20432492 0.18160911 -0.07528341 0.15285279
000070 3d ff 31 3e 63 16 dc 3e d3 52 48 be d6 16 c1 bd
       0.17382522 0.4298583 -0.19562845 -0.09428184
000080 2c 02 c9 bd 0e b5 e3 3d 07 24 79 3c dc c2 e5 3d
       -0.098148674 0.11118518 0.0152063435 0.11218807
000090 d1 bf 5e 3e 9f 77 9c bc 7c 60 3f 3e 59 a0 4f 3e
       0.2175286 -0.019100009 0.1868915 0.20276012
0000a0 05 ea ca 3d dd 02 98 3c a5 6c be 3d bd 6a 58 bf
       0.09907917 0.018556053 0.09298066 -0.8453787
0000b0 b4 d5 64 bd 04 97 a2 bd 70 f9 91 bd 87 d0 e3 bc
       -0.055867866 -0.0793896 -0.071276546 -0.027809395
0000c0 3b 32 cd 3d 76 93 4d be 8d da 87 bd ef c2 5f be
       0.10019346 -0.20075783 -0.06633482 -0.21851705
0000d0 5e e6 17 3e ce bf a3 3d 93 ad f5 be e5 79 d4 bd
       0.14833972 0.07995568 -0.4798399 -0.10374812
0000e0 4b ff 63 be 36 8c 1c 3f 28 0b b8 bd a7 29 23 3e
       -0.22265355 0.61151445 -0.08986503 0.15933858
0000f0 ce 81 6d 3e da cf 81 3d 20 c5 ed 3d 61 e1 02 3e
       0.23194048 0.06338473 0.11609864 0.12781288
000100 2b 94 a5 3e b9 39 29 3c ac c9 c7 bd 23 e3 29 be
       0.32339606 0.010328704 -0.09755263 -0.16590552
000110 8c d2 cc bd 62 f7 64 be 95 03 c9 3d 7b 13 62 3d
       -0.10001096 -0.22359994 0.09815136 0.05519436
000120 60 b0 cb 3d ee 2c a8 3d ca cc b3 bc c1 f7 1e be
       0.0994575 0.08211695 -0.021948237 -0.15524198
000130 46 56 54 3e bf 41 d8 bc 30 53 2d 3d 94 e4 ec 3e
       0.20736036 -0.026398538 0.042315662 0.4626814
000140 99 6d 45 bc 1a 5f a8 bd 5f cd 17 be 5d e0 c9 bd
       -0.012050056 -0.08221264 -0.14824437 -0.09857247
000150 35 cc a1 3c 78 52 3e 3e 40 f2 7b 3e d7 f0 8f bc
       0.019750694 0.18586147 0.2460413 -0.017570896
000160 9e ea 0a be 19 7f 49 3e 02 79 8a 3d 79 70 50 be
       -0.13566062 0.1967739 0.06761362 -0.20355405
000170 60 c9 32 3e 99 9c 15 3e a9 c8 03 3e 7f 49 2e be
       0.17459631 0.14610519 0.12869515 -0.17020224
000180 af f5 34 3e 17 24 73 3e e1 02 8b 3d ad 20 9a bb
       0.17671846 0.23744236 0.067876585 -0.0047036023
000190 8b 08 8f bd 01 a5 d0 be 53 49 c3 3e cb 85 53 3e
       -0.06984051 -0.40750888 0.3814188 0.20656507
0001a0 8e 09 5f be 25 d6 5f be cf b5 c1 3e a8 dc 63 bd
       -0.21780989 -0.21859033 0.3783402 -0.055630356
0001b0 0b cb 4f 3b ab fa 03 be 8e 7a 9a be e3 a0 58 bc
       0.0031706716 -0.12888591 -0.30171627 -0.013221952
0001c0 d8 1b 06 3e 89 5c c4 3e 29 29 5f be 68 b5 cd 3d
       0.13096559 0.3835185 -0.21793045 0.10044366
0001d0 9e fc 8a 3e ab c4 a5 3b 86 57 c9 3d 44 f5 89 3d
       0.27145857 0.005058845 0.09831147 0.06736234
0001e0 c9 be 9c 3e 60 bf cd 3d e8 98 fb bd c4 f9 85 be
       0.30614308 0.100462675 -0.12285024 -0.2616712
0001f0 16 58 0b 3e 9c 13 40 be a3 17 e4 bd 9c b5 da bd
       0.13607821 -0.1875748 -0.11137321 -0.106791705
000200 7c 29 f2 bd ca 1c d8 bd 71 af f5 3d 8f 6c 6e 3e
       -0.11824319 -0.10552366 0.119963534 0.232836
000210 67 81 80 3c 43 a2 f3 bd b5 95 68 bc 86 0b 03 be
       0.015686704 -0.11896183 -0.014195849 -0.12797365
000220 34 12 52 be 18 67 d9 3d 2a 71 33 be 80 8f 57 be
       -0.20514756 0.10615367 -0.17523637 -0.21050835
000230 7f 89 05 bd a2 6f bc bd fc 6a 8a 3d eb fd e6 3e
       -0.03260183 -0.0920098 0.06758687 0.451156
000240 bb a6 d2 3d aa b7 19 be 92 17 8b be d1 ea f2 bd
       0.102857076 -0.15011469 -0.2716642 -0.11861194
000250 31 b3 e5 bd 87 82 a2 3e 6e d4 d3 3d ab 47 57 bd
       -0.11215819 0.3174021 0.10343252 -0.052558582
000260 50 a0 96 be 75 3f a4 3e 82 90 e6 bd 07 34 c7 3d
       -0.29419184 0.32079664 -0.112580314 0.0972672
000270 a3 e0 e2 3e fe b3 56 be d3 de b1 3d c0 a0 c9 3d
       0.4431201 -0.20967099 0.086850785 0.09845114
000280 66 28 0e 3e 01 25 46 3e df 0e 44 be 5f ea 4a 3d
       0.13882598 0.19350053 -0.19146298 0.04953992
000290 75 8c ee 3c 26 63 2a 3e 42 5c bd bd dc cc 63 3d
       0.02911971 0.16639385 -0.092461124 0.05561529
0002a0 0b 15 93 3a 1a 1e 99 be 00 42 de 3c e8 88 be bd
       0.0011221481 -0.29905778 0.02713108 -0.093034565
0002b0 fd 21 07 3e 2d 28 95 3d 69 6e 2e be 7e 4d d9 bc
       0.13196559 0.072830535 -0.17034306 -0.026526209
0002c0 9e b7 72 be 1f c7 92 3e 20 34 16 be 25 4f 0d be
       -0.23702857 0.28667542 -0.14668322 -0.13799722
0002d0 20 82 16 3e 58 3e f9 bc 17 8f 80 3e bb 90 d8 3c
       0.14698076 -0.030425236 0.2510917 0.0264362
0002e0 25 90 4c bd 1e 4b 4f be ee 64 8f 3e b9 60 ac 3c
       -0.049942154 -0.20243499 0.2800669 0.021042215
0002f0 8e c6 21 be 8d 1d f8 bd 30 36 f7 bc f2 50 89 bc
       -0.15798399 -0.12115011 -0.030177206 -0.01676223
000300 b0 62 3e be bb 9e 6a ba d1 4f 2f 3c 1a 6f 08 3e
       -0.18592334 -0.0008950044 0.010700182 0.13323632
000310 cd fc eb 3d 78 5c 73 be 87 4a 17 be 01 b2 bf bc
       0.11522827 -0.23765743 -0.14774524 -0.023400309
000320 da ca 95 3e a3 33 23 3e 4d 88 9d bd e4 67 01 be
       0.29256326 0.15937667 -0.07692013 -0.12637287
000330 c6 9f b5 3e 72 1d 39 3b c0 e7 65 bc f3 27 89 be
       0.3547346 0.002824631 -0.014032304 -0.2678829
000340 fb 8e 91 bd 0f 99 2a 3d 30 61 7d bd d7 72 2a 3e
       -0.071073495 0.041649874 -0.061860263 0.1664537
000350 0c 4c f1 3c 59 56 bd bd 04 d5 30 3e 76 d9 31 3c
       0.029455207 -0.09244985 0.17268759 0.010855069
000360 28 13 35 be 29 58 12 3e dc ad 2e 3c 7e 81 53 be
       -0.17683089 0.14291443 0.0106615685 -0.20654866
000370 79 d5 4c 3e 35 a6 91 bd 50 00 25 3d 60 86 e6 3d
       0.20003308 -0.071117796 0.0402835 0.11256099
000380 fe 1e 04 3e 3e 07 a7 bd 99 f1 84 be 5f 63 60 bd
       0.12902448 -0.08155678 -0.25965574 -0.054782268
000390 98 17 fc 3c 7c ff 1b 3d 53 14 45 be 77 87 97 3d
       0.03077297 0.038085446 -0.19246034 0.07398885
0003a0 21 09 99 3e 98 e5 64 3e 11 46 5c be 7a 15 95 3e
       0.29889777 0.22353208 -0.21511103 0.29117948
0003b0 74 00 14 3e ed 85 0e 3e e4 08 36 be 5d 2b 2c be
       0.14453298 0.13918276 -0.17776829 -0.16813417
0003c0 5c e0 48 3e 07 82 ea bd cd ba 89 3c a1 a1 51 3f
       0.19616836 -0.11450582 0.016812706 0.8188725
0003d0 42 79 ab 3d f4 d1 26 3e 16 84 22 3e 77 c0 5a 3d
       0.083727375 0.16291028 0.158707 0.053406205
0003e0 03 e9 ad 3d 9a fe ae 3d d4 34 30 be a5 1c 16 be
       0.08491709 0.08544655 -0.17207652 -0.14659365
0003f0 77 d6 47 be b9 df 55 3e 6a f3 ff bd 42 59 d2 3c
       -0.19515406 0.20886125 -0.124975994 0.025677327

linears.1.bias f4 [50]
000000 89 6d cf 3c 17 97 f3 3c 1d 96 21 be 8f 15 fb bc
       0.025320785 0.029735131 -0.1577992 -0.030649928
000010 f4 3f 83 bd 2c 2a 08 3e 5c 8b b2 3d db be 0d 3d
       -0.064086825 0.13297337 0.08717987 0.034605842
000020 f3 44 de 3b ba 45 30 3d ea 0c 94 3c 98 27 85 bc
       0.0067831217 0.043035246 0.018072564 -0.016254231
000030 30 c6 63 be 9f 87 99 bc b5 c3 08 3e 62 9a 65 3e
       -0.22243571 -0.018741427 0.13355906 0.22422174
000040 fb 61 81 bd b5 82 20 be 87 34 89 bc 5a b1 e6 bc
       -0.063175164 -0.15674861 -0.01674868 -0.02816074
000050 71 d5 34 bc 71 34 3f bc 8a 7c af 3b fb 55 0b bd
       -0.0110372165 -0.011670218 0.0053554224 -0.034017544
000060 1e ef d3 3d aa d2 cb 3d ec e8 1a bd 87 ca 56 3b
       0.10348342 0.0995229 -0.037819788 0.0032774524
000070 eb 8a 8d 3d 5c 53 9c bd 2b 41 8a bb a8 9a 0c 3e
       0.06911262 -0.07633087 -0.0042191944 0.13730872
000080 95 24 8f 3d dc a6 85 3e 2a 77 69 3d 8c 84 df 3b
       0.06989399 0.26103866 0.05699841 0.0068212207
000090 24 18 ab 3b 84 a1 2a 3e c8 80 2e 3d 99 46 81 be
       0.0052213836 0.16663176 0.042603284 -0.25249174
0000a0 4b 5c 0f bd a7 42 d9 3b 54 26 7a 3d 7f 77 34 bc
       -0.035000127 0.00663026 0.06107171 -0.011014818
0000b0 16 48 3d bd 4b b1 eb 3d 51 0f 86 3d ac ec 73 3d
       -0.046211325 0.11508425 0.0654589 0.05955188
0000c0 ce 70 98 3c 82 e5 86 3d
       0.018608477 0.06586744

linears.2.weight f4 [50, 50]
000000 68 a2 24 3e 06 43 31 3c 56 af 1b be 1f 75 55 3c
       0.16077578 0.010819202 -0.15203604 0.013028412
000010 25 5b 12 bf 26 f0 f0 bd e5 7d e4 bd 7b fb 64 3e
       -0.57170326 -0.11764555 -0.11156825 0.22361557
000020 dd a9 33 bb 60 78 22 3e 3f 43 79 3f 1d 90 65 be
       -0.0027414479 0.15866232 0.97368234 -0.22418256
000030 2d 91 25 be e1 80 86 be ad 00 66 be 9c c3 c5 3e
       -0.16168661 -0.26270202 -0.22461195 0.386258
000040 ec c3 f6 be 53 00 40 3d c2 3d f4 3e c0 da b0 3e
       -0.48196352 0.04687531 0.47703367 0.34541893
000050 e3 2e e0 3e eb 06 ec bd de 86 ce 3d 52 93 3d bd
       0.43785772 -0.11524757 0.100843176 -0.046283074
000060 3c 23 4f be 88 2a 47 3e 39 06 ea be a3 bb ff 3e
       -0.20228285 0.19449818 -0.45707873 0.49947843
000070 09 97 c1 bd 81 75 f0 bd 48 ed 82 be 12 52 40 3e
       -0.09452636 -0.11741162 -0.25571656 0.18781307
000080 39 08 09 3f 8f 9b 58 3e 8d 7e af 3b fd 2f 5d be
       0.5352817 0.21153091 0.005355662 -0.21600337
000090 50 42 64 be 1f 51 e0 3d 35 70 80 3e bc 4d 53 be
       -0.22290921 0.109529726 0.25085607 -0.20635122
0000a0 e9 4a f5 bf 7d 7b de be e7 d8 aa be 43 4e 09 bd
       -1.9163486 -0.4345359 -0.33368608 -0.0335219
0000b0 b6 ff b0 3d ff f4 1b 3d a9 4d 29 3e 31 2d ec 3d
       0.08642523 0.038075443 0.16533531 0.11532057
0000c0 5d e7 26 3e 5e 10 c1 3d 58 1c 49 3e 52 ed 24 3f
       0.16299196 0.0942695 0.19639719 0.6442462
0000d0 8d cb 47 3d 2b c0 aa 3d 66 dd f2 3e e9 16 81 be
       0.048778106 0.083374344 0.4743454 -0.25212792
0000e0 b6 23 12 3e 0c d3 40 3e 9b 68 87 3d 7c 9d 8a be
       0.14271435 0.18830508 0.06611749 -0.27073276
0000f0 8b 63 07 be a1 3f 88 bd da 23 f6 bd 1c 44 40 3e
       -0.13221566 -0.06652761 -0.12018557 0.18775982
000100 bf 58 f1 3c 59 20 07 bd 9a 8f 71 3e a0 13 5c 3e
       0.029461263 -0.032989834 0.23589936 0.21491861
000110 3a fc cd 3e bd 3b a7 bd 8f 89 1d bf ff b7 95 bd
       0.40231496 -0.08165691 -0.6153802 -0.07310485
000120 1f ac b8 3d fa ba 55 bd 74 af 77 3c 63 ec bc 3d
       0.090172045 -0.052180268 0.015117515 0.09224775
000130 c3 c5 f9 bd 96 90 f5 bc 28 29 15 bd c4 86 b5 3d
       -0.12195923 -0.02997617 -0.036416203 0.08863595
000140 88 29 d5 3d 37 8d bd 3c 32 62 28 be 83 37 63 be
       0.10408312 0.023138626 -0.16443709 -0.22189145
000150 02 ba 91 bd f5 d5 35 3d e2 2a 04 3e b9 46 92 3d
       -0.07115556 0.0443935 0.12906983 0.071423955
000160 42 6d 4c 3e 3b 40 d8 3c 30 f0 82 3f 9f 3d 21 be
       0.19963554 0.026397815 1.022955 -0.15746163
000170 f4 48 87 3c b0 44 10 be 5b 88 9f 3e 41 1b 96 3d
       0.016514279 -0.14088702 0.31158718 0.07329417
000180 4a f5 fb bc dd 90 12 3d 88 d9 76 be 79 ab b4 bc
       -0.030756611 0.035782684 -0.24106419 -0.02205442
000190 8e 7c bf bd c6 05 af 3d 15 7e 4b be f4 cb 15 3e
       -0.09349929 0.08546023 -0.19872315 0.14628583
0001a0 82 8e 63 3e aa 77 0f 3e ea b7 a5 3e b1 cb 6e be
       0.22222331 0.14010492 0.32366878 -0.2331989
0001b0 a9 bc 21 3e f1 c9 d7 3d 25 0f 73 be 44 4a 9b be
       0.15794624 0.10536564 -0.23736246 -0.30330098
0001c0 d8 9d 28 be 12 53 f8 bd 99 bd b2 bb 71 47 a9 bd
       -0.16466463 -0.121252194 -0.0054547307 -0.082655795
0001d0 8a bf 4b 3d fa 93 88 bd 93 89 a3 3d 47 8b c7 3d
       0.049743213 -0.06668849 0.079852246 0.09743362
0001e0 49 46 0e be 8b 62 55 be 27 12 19 bc d8 0f 43 3e
       -0.13893999 -0.20838372 -0.009342707 0.19049013
0001f0 22 18 6b 3e 87 bb f4 3e 16 84 81 3e ea 48 2d bd
       0.22958425 0.47799322 0.25296086 -0.042305864
000200 9b 4e 38 bd cb 8b 26 be fc 1a e4 3d 0d 96 5f bd
       -0.04499684 -0.16264264 0.11137959 -0.05458646
000210 d5 26 73 bd 88 d4 6e 3e d9 5b 86 3e 51 d2 a4 bd
       -0.059363205 0.23323262 0.2624195 -0.08047927
000220 c4 12 33 3e 58 ab 1f be 7e ed 99 3d be 64 3a 3e
       0.17487627 -0.15592706 0.07516001 0.18202493
000230 5d 65 e1 3d 4b e0 34 3e c1 da 4a be 7b f5 bf bd
       0.11005662 0.17663686 -0.1981001 -0.093729936
000240 28 dc 07 3e b5 1e 21 3e ac 5f c6 bd 87 d0 fb 3e
       0.13267577 0.1573437 -0.09686217 0.4918253
000250 1a c8 ca bd c7 21 21 bc 4d 40 17 be 1a 72 a2 be
       -0.099014476 -0.009834713 -0.14770623 -0.31727678
000260 7c 3e 37 bd e5 92 94 3e 9d ec 83 3e 1d 3a b5 bd
       -0.044737324 0.29018322 0.2576646 -0.08848975
000270 03 7a 47 3e eb fe 0e bf 85 d3 bf be 3a da 81 be
       0.19480138 -0.55857724 -0.37466064 -0.25361806
000280 c7 e7 49 be 2b 0e cd 3d d3 7d f4 bc f6 4f 97 3e
       -0.19717322 0.10012468 -0.029845154 0.29553193
000290 2f ff 28 be 9a ba a5 be 65 18 d3 be 9b ae 34 3e
       -0.16503595 -0.32368928 -0.4122955 0.17644732
0002a0 20 63 94 3e dc a0 a2 3e fe ec ca 3d 27 a3 28 bc
       0.28981876 0.3176335 0.09908484 -0.010292805
0002b0 9a 34 25 bd 90 6b cd 3d 39 d4 20 be 85 15 e4 3e
       -0.040333368 0.100302815 -0.15705957 0.44547668
0002c0 f1 14 35 bf b1 b2 63 3f 25 ed 3c 3e 7c ae 28 be
       -0.7073508 0.88944536 0.18449838 -0.1647281
0002d0 6e cf 8b 3e 87 b7 c1 bd e2 74 bb 3e 18 aa 61 be
       0.27306694 -0.09458833 0.36612612 -0.22037542
0002e0 15 eb af 3e 79 f1 02 bf 9e 94 e1 3e 53 a3 86 3d
       0.3435904 -0.5114971 0.44058698 0.065741204
0002f0 20 65 be 3d ae 4d 6c 3d d3 55 aa 3e f1 76 76 be
       0.09296632 0.05769127 0.33268604 -0.2406881
000300 a6 02 9e be 15 19 19 bf 14 0b 1b be 0b 53 74 be
       -0.30861396 -0.598039 -0.15140945 -0.23859803
000310 37 44 a7 be 5d 4e 81 bd cb 32 f9 be 72 9e 00 3e
       -0.3266923 -0.06313775 -0.48671564 0.12560442
000320 ab 7b df bc f3 8b 81 3e b5 c1 1a be 81 f2 90 3e
       -0.02728065 0.25302085 -0.15112956 0.28310016
000330 be de 71 3d 94 e4 2d 3e 1a f1 8a bd 7f 41 64 be
       0.059050314 0.16981727 -0.06784268 -0.2229061
000340 2d 0c 1c 3e 4b eb 1a be 4b 9a a8 be 4d d6 c5 3e
       0.1523902 -0.1512882 -0.32930216 0.3864006
000350 6e 83 38 bd 0a c9 98 3d 9a 2c 32 3e 62 c7 be 3d
       -0.045047216 0.0746022 0.17399827 0.09315373
000360 a9 fa d4 3d 53 d3 9d be 0a 03 a0 bd 38 09 e9 3d
       0.10399372 -0.3082529 -0.0781308 0.113787115
000370 6f 5f be 3a 52 6d 41 be b6 ce 2c be f0 19 8b be
       0.0014524291 -0.18889359 -0.16875729 -0.27168226
000380 b6 e3 cc bd 07 0e e1 be 06 e8 95 3e 9a a7 e6 bd
       -0.1000437 -0.43956015 0.29278582 -0.11262436
000390 c4 68 44 bc 00 ca ef bc 79 21 44 bf a4 ca a5 3c
       -0.011987869 -0.029271126 -0.76613575 0.020238228
0003a0 4f cb c0 bc db 4f 13 3c 24 f4 2f bd aa bb 7d 3d
       -0.023534445 0.008991207 -0.04295744 0.06194655
0003b0 0e 21 88 bd 2b 2d 6e 3e 86 a1 eb 3d 38 53 88 be
       -0.0664693 0.23259418 0.115054175 -0.2662599
0003c0 8e 53 08 be ea cb 34 be 72 9b 50 be d5 51 27 be
       -0.13313124 -0.17655912 -0.20371798 -0.1633981
0003d0 5d ab 2b bf fe 2a 53 3e 62 c0 84 3e 6a 43 da bd
       -0.67058355 0.20621869 0.25928026 -0.106573895
0003e0 4a 00 cb 3c 20 e3 10 bd cb 7b 1b be 71 ae 59 bd
       0.024780411 -0.035372853 -0.15183942 -0.053144876
0003f0 83 a1 a8 3d a3 a2 2d be d3 2b 8d 3d de d0 15 3e
       0.08233931 -0.16956572 0.068931244 0.14630458

linears.2.bias f4 [50]
000000 47 59 47 3d 75 aa 80 bc 32 19 9b 3c ba 24 f5 bd
       0.048669126 -0.01570628 0.018932912 -0.11969896
000010 da a7 c1 3d b3 6f 01 3e c6 d7 09 3d 74 62 7c 3e
       0.09455843 0.12640266 0.033653043 0.24646932
000020 25 db 19 bd f8 2a 82 bd 34 05 51 3e 89 6d e3 3d
       -0.037562508 -0.06355852 0.20412141 0.111048765
000030 94 7e f3 bc 36 01 5b bd 7c 3d 9b bd 32 43 a7 bc
       -0.029723443 -0.05346795 -0.075800866 -0.020417783
000040 21 2c 2f bc e6 2b 6d 3d b5 9b 84 3e 4e f3 a9 3d
       -0.0106916735 0.057903193 0.25900045 0.0829836
000050 d6 a8 9d 3d e5 e7 0d bd d2 1c 87 bb 6d 89 52 3d
       0.076982185 -0.03464498 -0.0041233087 0.05140059
000060 5c c5 5f 3d 4b 58 b4 bb 94 6a 15 3a e3 ce ab 3d
       0.054631576 -0.0055036894 0.00056997803 0.0838907
000070 15 1a 7b bd a4 6a 08 3e 4d ca ef bd 5f ee 5c bb
       -0.06130417 0.1332193 -0.11708508 -0.0033711416
000080 bb b6 a3 bc c9 4a b8 3d a7 2d 3e be e6 82 53 bb
       -0.019984594 0.08998639 -0.18572102 -0.0032274066
000090 23 83 51 be cf 57 85 3e 48 b4 18 bc df 59 82 bc
       -0.20460181 0.26043555 -0.009320326 -0.015911995
0000a0 2a 66 0c 3e ab 7d 07 be 6e 39 ff bb 19 64 c1 bd
       0.13710847 -0.13231532 -0.0077888286 -0.0944292
0000b0 4e 38 6c bd a1 10 18 bc 44 b2 7d bd dc 86 91 be
       -0.057670884 -0.009281308 -0.061937585 -0.28423202
0000c0 0e b7 dd bc 40 09 48 3e
       -0.027064826 0.19534779

linears.3.weight f4 [50, 50]
000000 80 53 ba 3e 66 90 6b 3e cf 71 2c 3e 6e f2 ae 3e
       0.3639183 0.23004302 0.1684029 0.34169334
000010 b7 e2 25 be 14 35 21 3e 99 98 4b be 7d 2f d6 bb
       -0.16199766 0.15742904 -0.1988243 -0.0065364228
000020 c6 76 ea bd 1f 55 64 be 6f d2 85 3e 27 88 ad bc
       -0.114484355 -0.22298096 0.2613711 -0.021183087
000030 2c 4c 43 3e ba 57 36 3d 65 5f f0 bd 6c 82 10 be
       0.19072026 0.044517256 -0.11736945 -0.14112252
000040 a0 6d d0 bd c6 01 73 3e 49 d9 3e 3e 78 e5 9a bd
       -0.10177159 0.23731145 0.18637575 -0.07563299
000050 c1 ed 95 3d 38 7b 4b 3c 14 f4 0b 3e 39 ae cc 3c
       0.073207386 0.012419514 0.13667327 0.02498542
000060 2e 2e 1e be 66 1a 9e bd 3d 26 3b 3d a6 f2 9a 3e
       -0.15447304 -0.07719879 0.045690764 0.3026325
000070 41 33 04 bc 66 14 6e bc f3 4d ac be 1f eb 96 3e
       -0.0080688605 -0.014531231 -0.3365322 0.29476258
000080 b2 75 76 bd e1 ef 4c be f7 d9 5c bd 46 b2 30 3e
       -0.060170837 -0.20013382 -0.053918805 0.17255506
000090 8c a4 27 3e bd e4 f5 bd fb 75 5d bc 3d 46 fb 3d
       0.16371363 -0.12006519 -0.013516898 0.12269256
0000a0 6c 27 32 be 80 84 ce 3d 12 78 13 3e ec dd 92 be
       -0.17397851 0.10083866 0.14401272 -0.28684938
0000b0 78 b5 a6 be 9e 7a 8d bb 9a 4d 87 be 65 01 0e 3d
       -0.32560325 -0.0043175956 -0.26426393 0.0346693
0000c0 0f 4a 0d 3e 5b 30 8a be 02 4e 10 bf b5 4c 2b 3e
       0.13797782 -0.26990017 -0.5636903 0.1672848
0000d0 3f c3 48 3d 59 02 aa 3c d2 11 6c 3e 73 7c d2 3d
       0.049014326 0.020753073 0.23053673 0.10277643
0000e0 c3 8e 90 be 15 98 6e 3e 1a 63 33 bd 45 bc 03 bf
       -0.2823392 0.23300202 -0.043795682 -0.5145915
0000f0 08 a6 71 be 8f 55 db 3d c3 90 8e 3d 2e 47 c0 3e
       -0.23598492 0.107096784 0.06961205 0.37554306
000100 ce d0 f5 3d e6 ad ec 3e 02 e9 9a 3d a6 72 f7 bd
       0.12002717 0.46226424 0.07563974 -0.12082414
000110 4c 71 8f bc 44 db d5 3d 67 1a c2 3e c7 c5 21 3f
       -0.017510079 0.10442212 0.37910768 0.6319241
000120 a7 5f 6e be bf a2 58 3b d5 8f 7e 3e df 11 8c 3e
       -0.23278676 0.0033055989 0.24859555 0.27357385
000130 99 bd 73 bd 42 c1 00 be 4d f6 cc bd fd a3 bf 3e
       -0.059506986 -0.12573722 -0.10007916 0.374298
000140 33 01 06 3d 63 82 26 be eb cc 00 3e e3 8a 54 be
       0.032715987 -0.16260676 0.1257817 -0.20756106
000150 69 aa 69 bd 02 50 e6 3d 9a 5c 17 3e ec be 25 3c
       -0.05704728 0.11245729 0.14781418 0.01011632
000160 90 d0 74 be ac 1e ec 3c f1 b7 02 3e 08 db 28 3e
       -0.23907685 0.02882322 0.1276548 0.16489804
000170 b2 6c 1e 3e 66 1d d8 bd f4 c6 1f 3d bd 29 8c bd
       0.15471151 -0.10552482 0.039008096 -0.068438984
000180 c4 2d 68 be 7f bf 61 be 28 0b 48 bf 41 dd 5e 3e
       -0.22673708 -0.22045706 -0.78142023 0.21764089
000190 e6 8f 80 3f a7 f6 21 bd 01 f7 13 3e 96 95 cb bd
       1.0043914 -0.039541867 0.14449693 -0.09940641
0001a0 a6 f2 f0 bd 89 8b 6c 3e 79 f3 41 be 19 9e 76 3e
       -0.117650315 0.23100103 -0.18940534 0.24083747
0001b0 fa c8 86 3e a2 cd 70 be f2 e3 4a 3d ee 54 76 be
       0.26325208 -0.23515943 0.04953379 -0.24055836
0001c0 28 29 12 be de cc 47 bf 89 08 30 3d 4f 79 25 3e
       -0.14273512 -0.7804698 0.04297689 0.16159557
0001d0 2c 42 bc bc cd 37 8b bd 75 1e e9 3d 32 82 89 be
       -0.022980772 -0.067977525 0.11382762 -0.26857144
0001e0 41 93 05 bf 35 ad e9 3e bf 74 b3 be c1 90 83 be
       -0.52177817 0.4563996 -0.35050008 -0.25696376
0001f0 79 fd c5 3e 0f c7 68 bf 5f a4 0e 3e fe 61 cb 3d
       0.38669947 -0.9092874 0.1392989 0.099308
000200 96 60 82 be 16 30 a4 3e 1f 7f 76 3c 83 b5 c4 bd
       -0.25464314 0.32067937 0.0150449565 -0.09604933
000210 75 16 4b 3e fb 92 cd 3d fe dc d0 3c 6a bb 2d bd
       0.19832785 0.100378 0.025496002 -0.04241506
000220 75 0f 2d 3e b1 68 f7 bd 13 19 7d bd 74 1b 99 be
       0.16900428 -0.12080515 -0.06179149 -0.29903758
000230 86 49 d1 3d 51 02 89 3e b7 85 32 bc 20 50 82 3a
       0.102191016 0.2675958 -0.010896138 0.0009942092
000240 e0 c2 2a 3e 25 4c f4 bd de 21 7a 3e 34 95 1c 3e
       0.16675901 -0.11928586 0.24426982 0.15291291
000250 62 9b 69 bd fb 7b 5e 3e 0f 07 e1 3c 99 3e d7 bd
       -0.05703295 0.21726982 0.027469186 -0.105099864
000260 84 fd ca bc 05 db 1e 3e 89 e2 85 3e 4b 8f 12 be
       -0.024779089 0.15513237 0.26149395 -0.14312474
000270 6d 57 b4 bd 6e 3c 92 bd 90 12 fc bd 0f b4 62 be
       -0.08805738 -0.07140432 -0.12308228 -0.22139
000280 96 6b 1f bd 1d a6 b3 bc f2 68 60 3e 29 91 13 3e
       -0.03892096 -0.021929795 0.21915033 0.14410843
000290 8a 53 9e bd fb 67 fc 3d 6a 2d 30 3d 82 d4 19 be
       -0.077307776 0.1232452 0.04301206 -0.15022472
0002a0 63 77 05 3c 41 15 15 3d fc b6 02 3d 2c 55 20 bd
       0.00814614 0.036397222 0.03191279 -0.039143726
0002b0 55 55 f1 3d 85 cc f9 3d ec c6 f2 bc f7 b3 70 3e
       0.11783854 0.12197212 -0.029635869 0.23506151
0002c0 3a ff a9 3d 15 6e 05 3e 41 5c 51 3c 45 6c 4c bd
       0.08300634 0.13030274 0.012778343 -0.04990794
0002d0 30 32 8c be 14 37 40 bd f8 08 81 be 61 d9 6d be
       -0.2738204 -0.046927527 -0.25202155 -0.23227455
0002e0 40 63 d0 3d 24 22 36 be 15 cc 41 bd 22 63 ea bc
       0.101751804 -0.17786461 -0.04731377 -0.028611723
0002f0 c0 10 1c 3e dd aa 0b 3d 10 c1 0e bd 2f e1 99 bd
       0.15240765 0.034098495 -0.034852087 -0.075136535
000300 45 40 b9 3d 78 ca 7b 3d 07 af 8f 3d 4c 81 98 bb
       0.090454616 0.061472386 0.07015806 -0.0046540853
000310 12 d8 fe bd 76 b2 16 be ee 19 3c be e0 70 fb 3d
       -0.12443556 -0.14716515 -0.18369266 0.122773886
000320 84 45 4e be 58 b5 0b 3e a3 8c 5a 3e df 84 ed 3c
       -0.20143706 0.13643396 0.21342711 0.028994022
000330 cb 83 81 3e 95 02 8f be 62 50 eb bd 24 36 a9 be
       0.25295863 -0.27931657 -0.11489941 -0.3304912
000340 02 d0 98 3c 45 ee 13 be d5 32 b2 be 3b a7 a1 3e
       0.018653873 -0.14446361 -0.34804407 0.315729
000350 72 02 9b be 46 d7 62 3e 23 3a df 3e 9c 55 42 3d
       -0.30275303 0.22152433 0.43599042 0.047444925
000360 34 0f 02 3e f6 da 8b 3e 84 70 b0 be 52 b8 15 be
       0.12701112 0.2731549 -0.34460843 -0.14621094
000370 93 bd 42 be 26 74 10 3e 86 f8 39 bc cc 67 b7 be
       -0.1901763 0.14106807 -0.0113507565 -0.35821378
000380 71 1d c8 be f9 3b a6 bd 1b c3 db bd 31 32 34 3e
       -0.39084962 -0.081169076 -0.10730573 0.17597272
000390 e5 28 c4 3d ed bf 19 be 9e db c5 be 83 8d be 3d
       0.095781125 -0.1501462 -0.38644117 0.09304335
0003a0 6e 6a 30 3e 37 0b 46 3d 57 8e aa 3e ee dc 17 3e
       0.172281 0.04835054 0.33311722 0.14830372
0003b0 d7 49 81 3d 7f a4 d1 be 83 0a 3b 3e ad d1 07 be
       0.06312912 -0.40945813 0.18265729 -0.13263579
0003c0 4e 1d bc be 15 27 62 3e e9 4d fe 3d c3 c1 77 3e
       -0.36741108 0.22085221 0.12417204 0.24195008
0003d0 bb 7e f5 3d c9 d9 3c be ce a4 08 3e ca 81 81 3e
       0.119870625 -0.18442453 0.13344118 0.25294334
0003e0 08 07 8f 3d 52 06 52 3d ca a4 36 be 98 59 88 be
       0.06983763 0.05127556 -0.178363 -0.26630855
0003f0 e8 eb 66 3e fc 02 81 3c b7 aa 90 3e 33 9b 6f be
       0.22550929 0.015748493 0.28255245 -0.23399048

linears.3.bias f4 [50]
000000 d9 3d 9e 3d 53 13 47 3d 65 9a 07 3c ae ef 30 bd
       0.0772664 0.048602413 0.008276557 -0.043197326
000010 44 cb 83 be 03 a7 43 bd 07 df 91 bd 51 96 c6 3c
       -0.25741017 -0.047766697 -0.07122617 0.024241598
000020 19 41 56 3e b9 16 99 be 1c a3 92 bc 0b 60 c1 be
       0.2092327 -0.2990015 -0.017900042 -0.37768587
000030 48 fe b7 3d 09 e6 a3 3d ba 8c 1f 3d 6a 9a 37 3e
       0.08984047 0.0800286 0.038952567 0.17929998
000040 47 85 c1 3e b4 87 6d be ff 2f ba 3d 99 88 c4 bd
       0.37796995 -0.23196298 0.09091186 -0.095963664
000050 8a 52 8a 3d 14 00 60 3e e6 f0 61 3e 81 20 96 bd
       0.06754024 0.2187503 0.22064552 -0.073304184
000060 af b9 8e bd bf c9 e8 bd bf d8 fd 3b bb 9f 1a bc
       -0.0696901 -0.11366605 0.0077467854 -0.009437497
000070 1c 08 d4 3c 81 48 7c be 15 c9 a3 3d 95 b9 20 3c
       0.025882773 -0.24637033 0.07997338 0.009809871
000080 a1 48 12 3d 0b 6f 6b 3e c4 20 a4 3d 6a 3e eb bd
       0.035713796 0.22991578 0.08014062 -0.11486514
000090 50 42 97 be 0b ff 2c bb 95 c8 32 be 04 6c af bb
       -0.2954278 -0.0026397135 -0.17459328 -0.0053534526
0000a0 e6 e2 7f 3e 78 94 3d be 6c fb 4d 3d ef 5c 0b be
       0.24988899 -0.18513668 0.050288603 -0.1360967
0000b0 4e 5e 05 3e fc 70 b9 3d 5f 5a 2c 3e 84 6b 92 be
       0.13024256 0.09054753 0.16831349 -0.28597653
0000c0 19 50 d4 3d 65 21 1a 3d
       0.1036684 0.037629504

linears.4.weight f4 [3, 50]
000000 1f 86 fe 3d 54 0b c0 3e e3 56 76 3e d6 4f 0b bd
       0.12427925 0.37508643 0.24056582 -0.034011684
000010 43 5c 1c 3e 76 78 ac be b0 0e ff 3d a5 18 8a 3e
       0.1526957 -0.33685654 0.12453973 0.26971927
000020 6c 2e b6 3d 89 65 5c bd ce 6a 46 be 2b 91 09 ba
       0.08895573 -0.05380777 -0.1937668 -0.0005247767
000030 dd d5 d6 bd 98 c7 f2 be 5f da 0c 3e eb 6e 80 3d
       -0.1049001 -0.47417903 0.13755177 0.06271156
000040 55 f2 41 3e 28 85 25 be 2b 85 be 3e ed 9c bc be
       0.18940099 -0.16164076 0.37210974 -0.36838475
000050 97 e0 13 3f 61 0f 77 be da 2f cb 3d 17 c5 d9 be
       0.5776457 -0.2412696 0.09921236 -0.4253318
000060 b9 bf 9f ba 6c 13 ea 3d 73 0e b2 3e 37 10 e9 be
       -0.0012187875 0.11429486 0.3477665 -0.45520183
000070 6e cd 0f 3f dd c3 9a 3e db 8e 2b bd e1 ca 27 be
       0.56172836 0.30227557 -0.041884284 -0.16385986
000080 97 c2 63 3e 45 90 a1 3c 9a 1c d3 bd 10 8b c1 bd
       0.22242199 0.019722113 -0.1030819 -0.09450352
000090 c0 56 00 be 2f ae 04 bf bc 65 9a 3e da dd b2 3e
       -0.12533092 -0.51828283 0.30155742 0.34934884
0000a0 a1 1a e7 bd c1 b2 50 be ad 21 54 3d 52 0b f7 bd
       -0.11284376 -0.20380689 0.05178993 -0.12062706
0000b0 24 05 dd 3d 16 94 f8 be a8 7a c6 bd ac 2c 8c be
       0.10791996 -0.4855048 -0.096913636 -0.27377832
0000c0 57 d9 04 be b6 f7 d3 be 5d 7e 5c be c2 04 2f 3c
       -0.12973534 -0.41399926 -0.21532579 0.010682287
0000d0 8d cf c0 3c 20 39 79 be 55 27 4e 3d 6a e0 d1 be
       0.023536468 -0.24338198 0.05033048 -0.40991527
0000e0 31 7d 8a ba d2 4c a6 3c 7b 8d af 3c 06 cd 3d be
       -0.0010565874 0.020300303 0.021429768 -0.18535241
0000f0 56 26 67 3c 72 5b 1a bd 5b d2 98 3b 16 4a 2b 3c
       0.014108261 -0.037684865 0.004663748 0.010454675
000100 8d f2 8c 3d 8a df 15 3e 07 19 a5 3c 3c 45 77 3d
       0.068822004 0.14636055 0.020153536 0.06036876
000110 40 ee 55 3a bc 1d 7c be 5c 40 25 bc df 6b 39 be
       0.0008160807 -0.24620718 -0.010086145 -0.18107556
000120 7f f5 42 3e 5c 64 82 3b 74 75 a6 3b 31 82 24 be
       0.19038962 0.003979249 0.0050799195 -0.16065289
000130 29 0b dc bd 91 9e 9d 3b 9d f4 fd 3d a4 34 18 3e
       -0.10744316 0.0048101624 0.12400172 0.14863831
000140 dc b3 99 3d 8e ef 1c 3e ce 9f dd 3d b9 16 c8 3e
       0.075050086 0.15325758 0.10821496 0.39079836
000150 64 45 a9 3c d7 c1 70 3e ce c9 4b be 16 e6 8a 3c
       0.02066297 0.23511444 -0.19901201 0.016955417
000160 8a 63 00 bd 88 20 9e bc 6d 97 a2 3d 12 a5 93 3e
       -0.031344928 -0.019302621 0.079390384 0.28836876
000170 f5 3f 0d 3d 68 f7 47 3d 19 98 92 be e7 f5 95 bc
       0.034484822 0.04881993 -0.28631666 -0.018305732
000180 6a 45 80 be d0 85 77 3e a3 43 ff bc 60 93 4b 3c
       -0.2505296 0.24172139 -0.031160181 0.012425274
000190 75 fb 69 3e 5a 2a d4 be 6d 34 f6 3e 85 ef d4 be
       0.2284983 -0.41438562 0.48086873 -0.4158899
0001a0 cf 66 88 be e2 ec af bd 0b 5c 58 be 25 29 13 be
       -0.26640937 -0.08590104 -0.21128862 -0.14371164
0001b0 ce d2 7b 3e f8 7a 86 be 89 fd 37 be 7f 8e 8f be
       0.24592134 -0.26265693 -0.1796781 -0.28038403
0001c0 a9 d3 98 3e 14 40 95 3e 87 55 c2 3e 7d 35 7d 3e
       0.29848984 0.2915045 0.37955877 0.24727435
0001d0 d8 f9 be 3e c3 7d 97 be 24 28 df 3e cf 0f 80 be
       0.3729999 -0.29588136 0.43585312 -0.2501206
0001e0 e8 fe 86 3e 1b 65 bc 3e 6a 55 a2 3e 81 4f c1 be
       0.26366353 0.36795887 0.3170579 -0.3775597
0001f0 65 31 b2 3e 2e 31 7b bd 1a 5d 1c be 8b dd 96 3e
       0.3480331 -0.0613262 -0.1526989 0.294659
000200 b5 cd 27 be 44 3c c2 be 0b ca 48 3d 3c 02 2d 3e
       -0.16387065 -0.37936604 0.04902081 0.16895384
000210 14 05 a9 be 13 d7 c4 3d 34 bf 1d 3e 4f ad 5b bd
       -0.33011687 0.09611335 0.1540497 -0.053632077
000220 7d 81 70 be 94 61 4b be ae 54 a0 be f9 6b 81 3e
       -0.23486896 -0.19861442 -0.31314605 0.2527769
000230 84 13 a5 3e 01 96 e4 bd 25 e9 8f 3e 2e 1c d7 bd
       0.32241452 -0.111614235 0.28107563 -0.10503422
000240 48 4b df 3e 2f 0a 9f 3e ab 9f 68 3e cb 0c c8 be
       0.43612123 0.31062457 0.22717158 -0.3907226
000250 ac ec 60 3e e2 63 c2 3e
       0.21965283 0.3796683

linears.4.bias f4 [3]
000000 9f 38 aa bc 3e f2 0e 3e da 8e bc 3d
       -0.020778952 0.13959596 0.09206934

exp_avg f4 [50, 3]
000000 5f d8 65 35 c2 cf d6 34 01 58 31 b4 ae fb 6a b8
       8.562401e-07 4.001177e-07 -1.6516425e-07 -5.6024342e-05
000010 76 74 01 38 7a 27 5b 37 28 81 8a b6 13 00 bc 37
       3.086446e-05 1.3062609e-05 -4.1277563e-06 2.2411381e-05
000020 13 ef b0 37 0e 84 c7 bb 96 29 4b ba 60 63 6d b8
       2.1092163e-05 -0.00608874 -0.0007750032 -5.6597753e-05
000030 ae 02 a3 3c 72 50 fb 3a 7c 53 52 b9 1f 09 55 b9
       0.019898739 0.0019173755 -0.00020058261 -0.00020316661
000040 fa 50 cb b8 38 76 ad b6 d5 da b4 bc 88 ef 0e bb
       -9.6948774e-05 -5.1695642e-06 -0.022077003 -0.0021810252
000050 87 1b 3c b9 7c b4 ec 3c 06 6d 7f 3a 40 bf 58 39
       -0.00017939332 0.028894655 0.0009743724 0.00020670611
000060 a9 1e a1 b7 cd fc 29 b6 1e 3e bd b4 cf 6d 92 b6
       -1.9206973e-05 -2.5330112e-06 -3.524919e-07 -4.3639225e-06
000070 2e 0a cb b7 ae cd 0b 38 e4 ef a1 36 b3 ac 9c b6
       -2.4204226e-05 3.3331737e-05 4.826101e-06 -4.669267e-06
000080 ef 72 c0 b6 9e 68 23 35 e8 f1 52 35 71 9b 02 34
       -5.735426e-06 6.087447e-07 7.8583116e-07 1.2163743e-07
000090 64 00 f5 39 61 79 6b 38 a2 03 45 37 a2 09 39 37
       0.00046730333 5.614141e-05 1.1742961e-05 1.1029102e-05
0000a0 af 53 e6 35 e7 ae 39 37 9a 33 13 3d 1c 1d 0d 3b
       1.716069e-06 1.1067582e-05 0.035937883 0.0021532243
0000b0 f3 d9 b6 39 0f 9b 38 36 2a ed 4e 35 8a 2c 6a b4
       0.0003487613 2.7508393e-06 7.70861e-07 -2.1809151e-07
0000c0 6e fa 2f 36 da 7d d0 b6 33 f2 20 b5 19 41 bf 36
       2.6222801e-06 -6.213534e-06 -5.995709e-07 5.699822e-06
0000d0 8f 45 d1 b5 3f 0f 7e 35 f1 d2 6a 38 23 de 86 36
       -1.5591958e-06 9.464456e-07 5.5986402e-05 4.0193713e-06
0000e0 51 f6 fe b6 61 cf 18 bd a0 4a 94 bb 4c a4 d6 b9
       -7.598465e-06 -0.037307147 -0.0045254976 -0.0004093967
0000f0 b8 63 63 b6 d2 3a aa b6 c6 3e 6e b5 c0 fb 3d 3b
       -3.388368e-06 -5.0732424e-06 -8.8753256e-07 0.0028989166
000100 d7 f4 b6 39 a7 1e 12 38 27 9d a1 33 0f 6f d3 32
       0.00034896165 3.483766e-05 7.5257326e-08 2.4614137e-08
000110 ec b6 cf b2 03 eb cb 37 f6 04 8d b5 d1 7a ae 36
       -2.4181155e-08 2.4308922e-05 -1.0506762e-06 5.199902e-06
000120 f5 27 88 37 48 40 54 b7 84 ff ef 37 2a a7 84 37
       1.623107e-05 -1.2651151e-05 2.8610004e-05 1.5813468e-05
000130 d0 88 04 b5 d0 24 e8 b4 00 dc f1 32 40 7b a3 b4
       -4.937292e-07 -4.3240152e-07 2.8156137e-08 -3.0450792e-07
000140 18 41 61 35 60 17 0a 39 3b 83 8c 38 a7 0b 2f 37
       8.3913756e-07 0.00013169413 6.700164e-05 1.0433526e-05
000150 91 c2 3e 35 d8 57 cd b5 98 8b b8 35 66 3c be 3c
       7.1063647e-07 -1.5299256e-06 1.3749695e-06 0.02322216
000160 02 5b 26 3a 6a f3 e9 39 b1 89 40 3a 26 7b d0 38
       0.00063459587 0.0004462258 0.00073447364 9.941151e-05
000170 9c 94 9a b6 24 21 a7 35 ea 6a cc 34 ff 95 0d 36
       -4.606858e-06 1.2452115e-06 3.807575e-07 2.1097947e-06
000180 c6 26 94 36 64 92 91 b6 e9 c0 dc b7 60 01 4b b2
       4.4152575e-06 -4.338379e-06 -2.6315874e-05 -1.1816468e-08
000190 ac ea 4e 34 00 16 6f 30 17 c9 df ba 25 da 6b 38
       1.9270618e-07 8.697896e-10 -0.0017073479 5.623153e-05
0001a0 ab 70 2b 38 aa 1e f2 38 c3 e3 6a 37 5a a5 99 b4
       4.0874507e-05 0.00011545171 1.4000517e-05 -2.861878e-07
0001b0 48 a1 17 36 79 a2 20 36 15 e6 3b 34 71 47 a9 ba
       2.2594631e-06 2.393643e-06 1.7499436e-07 -0.0012914968
0001c0 e6 9e b5 37 a5 58 6b b8 49 7a 77 bc aa 3f b1 ba
       2.1650874e-05 -5.6110923e-05 -0.015104839 -0.0013523002
0001d0 9a a6 e5 b8 ac 7d 4f 32 5c a8 34 33 c9 75 bd 33
       -0.00010950603 1.207756e-08 4.2062638e-08 8.822423e-08
0001e0 1f c0 cd b7 a5 a5 8f b6 bc 1f 63 b7 8d f1 23 b8
       -2.4527368e-05 -4.2810157e-06 -1.3537643e-05 -3.908719e-05
0001f0 20 d0 17 38 a7 36 f5 b7 28 c9 03 b4 40 40 5f 34
       3.6195037e-05 -2.9231725e-05 -1.2273506e-07 2.0791867e-07
000200 8a 5a 3b 33 6d 20 6a 3f 02 29 8f 3d 61 e0 11 3c
       4.3621675e-08 0.9145573 0.069902435 0.008903594
000210 d3 e4 87 b7 7e 11 60 37 fa 07 82 31 09 26 8b 35
       -1.6199809e-05 1.3355513e-05 3.784405e-09 1.0367377e-06
000220 58 88 4a b5 57 99 24 b5 dc 4e 03 38 b6 64 f6 b7
       -7.544927e-07 -6.13179e-07 3.1306277e-05 -2.9372382e-05
000230 01 2a a5 b6 68 bb fe 32 89 5d 2e b2 5e a1 8b 33
       -4.922273e-06 2.9654714e-08 -1.01494e-08 6.5020444e-08
000240 fd a8 16 33 17 20 7e b1 05 74 0e b4 05 4c 2b 37
       3.507829e-08 -3.6980106e-09 -1.3266988e-07 1.0210094e-05
000250 fc c5 d3 37 5a 4f 52 b7
       2.5245354e-05 -1.2535451e-05

exp_avg_sq f4 [50, 3]
000000 b8 59 79 34 e6 55 7f 32 57 75 b0 2d b7 e4 c7 34
       2.3222572e-07 1.4862485e-08 2.0060993e-11 3.723305e-07
000010 1e dc aa 34 6e 89 a8 35 a7 0e a3 33 2d df 45 34
       3.1825124e-07 1.2556973e-06 7.592944e-08 1.8428246e-07
000020 60 3d df 35 b3 29 84 3e 6f 2a 61 3b 56 bc 19 37
       1.6632657e-06 0.25813064 0.0034357568 9.163361e-06
000030 42 c8 3d 43 24 e7 66 40 a3 4f a1 3c d1 cd 7d 3b
       189.78226 3.6078577 0.019691294 0.0038727412
000040 76 15 f8 38 1e 55 7f 35 99 61 41 3f b8 37 eb 3b
       0.00011829559 9.5118764e-07 0.7553955 0.007178273
000050 29 15 da 38 c7 30 c7 43 b2 9c 96 40 b3 7c 12 3d
       0.000103989914 398.38107 4.706628 0.035763454
000060 c7 2f 3c 37 c7 26 ec 31 92 01 7a 30 af 58 01 36
       1.1216797e-05 6.8729125e-09 9.09517e-10 1.9274119e-06
000070 47 4e 92 35 95 e2 bb 34 60 ed 44 34 bb 59 9e 33
       1.0900629e-06 3.4996324e-07 1.8340279e-07 7.37377e-08
000080 0b 71 36 34 62 66 e6 32 35 66 a1 30 9d 6d b1 2c
       1.6991196e-07 2.6822082e-08 1.1743341e-09 5.042812e-12
000090 2c 32 3b 3c 17 25 81 39 b9 65 44 36 e5 02 b3 34
       0.011425536 0.0002463243 2.9265486e-06 3.3343454e-07
0000a0 e3 c2 ca 34 70 ba a1 33 d0 7b 2b 42 c0 33 0d 3f
       3.776723e-07 7.5310595e-08 42.87091 0.5515709
0000b0 07 56 58 3b 10 43 61 36 e3 13 39 34 2c 83 fe 2c
       0.003301026 3.3566648e-06 1.7236702e-07 7.233677e-12
0000c0 65 4d ae 32 a5 29 83 31 8f da 95 35 fa 79 6f 39
       2.0291461e-08 3.8173362e-09 1.1164974e-06 0.00022838256
0000d0 a9 8f 26 35 0a ef f7 32 52 2c 82 38 37 22 35 34
       6.204887e-07 2.8863287e-08 6.207138e-05 1.6869386e-07
0000e0 eb 14 cb 34 1c af 79 40 b4 7a 85 3d 7d f3 0c 3a
       3.7826916e-07 3.9013128 0.065175444 0.0005376859
0000f0 56 a7 af 34 7f c9 ca 33 54 ff 7a 34 f5 69 2c 3d
       3.2718043e-07 9.44301e-08 2.3375952e-07 0.042093236
000100 d1 aa ed 39 86 ee 27 36 7f 62 5a 34 54 f7 ae 2d
       0.0004533143 2.5023778e-06 2.0338665e-07 1.9891346e-11
000110 e1 1c 36 2d 9b c4 b3 33 c7 d7 02 30 a9 a3 9e 32
       1.0351915e-11 8.3710994e-08 4.760036e-10 1.8468045e-08
000120 cb 40 a6 36 23 38 3e 35 2d 91 d6 36 9d d1 01 3b
       4.9547284e-06 7.0862205e-07 6.3945977e-06 0.0019808777
000130 2a a8 a6 38 f6 70 cc 30 1a 01 94 2e c9 ef 56 2e
       7.94682e-05 1.4875059e-09 6.7304565e-11 4.887094e-11
000140 41 f3 b9 31 68 a9 b1 3c f7 7a 1c 3a 36 53 43 36
       5.4118634e-09 0.021687225 0.0005969251 2.91057e-06
000150 61 11 9e 31 4b c3 85 30 68 a9 d1 32 bd 3f 21 43
       4.600381e-09 9.732529e-10 2.440784e-08 161.24898
000160 5f 5e fd 3f 17 93 3b 3c 55 b1 37 3d 0a bc ec 39
       1.9794425 0.011448643 0.04484685 0.00045153528
000170 99 07 26 36 47 aa 2e 32 3a b1 1b 32 b5 1b 24 33
       2.474035e-06 1.016685e-08 9.062484e-09 3.8209425e-08
000180 dc b7 92 33 c3 ec 93 33 9f 80 48 34 fe 85 09 27
       6.8320986e-08 6.8882876e-08 1.8673244e-07 1.9085207e-15
000190 41 9c 9f 2a eb 8b 33 24 7b ca 1a 3e ee 62 f3 3a
       2.8352497e-13 3.8932953e-17 0.15116303 0.0018568912
0001a0 1f 44 8e 37 57 9d 0f 3a c8 bb 80 37 f3 2a 5f 33
       1.695944e-05 0.00054784626 1.5346232e-05 5.1960296e-08
0001b0 31 67 5f 32 81 90 e2 30 1d 1f cb 2d 0b 04 24 3d
       1.3003771e-08 1.6484735e-09 2.3092245e-11 0.04004292
0001c0 c0 d6 11 3a d2 5c 0c 37 37 ce ff 3e 94 e7 f5 3b
       0.0005563311 8.366262e-06 0.49962017 0.007504413
0001d0 ea 70 a6 37 e1 bf db 2e d2 fb 97 2f df 93 0e 2e
       1.9841322e-05 9.9930515e-11 2.764567e-10 3.2418398e-11
0001e0 ff f7 b8 34 43 95 c2 34 6c 4a b4 33 4f d1 ed 36
       3.4453112e-07 3.6243918e-07 8.3954404e-08 7.087517e-06
0001f0 bc f9 b4 35 65 c1 85 37 73 34 ef 2e 70 e7 b5 2f
       1.3483727e-06 1.5944892e-05 1.08777785e-10 3.3088154e-10
000200 cb 44 fd 2c 73 68 bf 45 c9 1b 5c 42 52 e7 1a 3f
       7.19833e-12 6125.056 55.027134 0.60509217
000210 9d 6c 84 37 20 a9 34 35 09 b2 49 2d 0a 62 13 32
       1.5786203e-05 6.7301335e-07 1.1465059e-11 8.578818e-09
000220 d7 ae 2b 30 45 1c 21 33 c9 f5 2a 35 9a 05 f4 34
       6.24579e-10 3.7511445e-08 6.36876e-07 4.5452617e-07
000230 06 2a a8 35 c1 9e c1 2a 6c 8b 38 28 81 f7 8d 2b
       1.2529206e-06 3.4393845e-13 1.0244284e-14 1.0087349e-12
000240 9a e4 c9 2c 4d f1 d1 2c 4d c7 cc 2f 29 dc ed 32
       5.7381435e-12 5.966927e-12 3.7248996e-10 2.7690549e-08
000250 4c b7 f2 34 c6 cf fa 35
       4.520938e-07 1.8686922e-06

exp_avg f4 [50]
000000 00 07 08 b3 04 b9 2a 33 e0 7b ed 34 a3 5d 42 b7
       -3.1671334e-08 3.974948e-08 4.423482e-07 -1.1585103e-05
000010 86 9d 4f 38 d0 79 b0 33 81 0d 1d b8 d9 d0 1d 38
       4.949935e-05 8.217796e-08 -3.7444293e-05 3.762622e-05
000020 e4 42 f7 30 e8 0d c4 34 08 84 03 b4 27 16 1e 33
       1.7990627e-09 3.6517963e-07 -1.2248358e-07 3.680739e-08
000030 f6 a9 51 35 20 42 f3 34 60 fa 77 38 40 f8 e7 32
       7.8105893e-07 4.531039e-07 5.912257e-05 2.700483e-08
000040 18 30 6a b2 c7 df 3f 33 5c 8f 5e b3 7b e0 a8 b8
       -1.3631528e-08 4.4674177e-08 -5.1818787e-08 -8.052677e-05
000050 e6 2f c9 b2 73 95 09 37 59 dd b5 b2 9e 3e 02 34
       -2.3421261e-08 8.200633e-06 -2.117183e-08 1.2129973e-07
000060 ea 3e 8f 34 be a7 0f b2 a4 34 c1 b1 a0 a5 b3 b3
       2.6681602e-07 -8.361836e-09 -5.623024e-09 -8.365464e-08
000070 ad 85 1f 33 40 1a 0e 38 17 58 60 35 35 65 51 33
       3.714165e-08 3.3879885e-05 8.357469e-07 4.8753652e-08
000080 4a 94 37 b5 3a 62 67 31 d9 89 95 35 de 2e 02 34
       -6.83886e-07 3.367076e-09 1.1141484e-06 1.2124244e-07
000090 dd 1b e4 33 99 53 00 b7 4f fc db b7 ab 65 03 31
       1.0622146e-07 -7.648859e-06 -2.6224325e-05 1.91208e-09
0000a0 fc 50 1f b5 70 da 1a b5 2b 4c 7a 32 a8 0b da 3a
       -5.9349964e-07 -5.768734e-07 1.4569234e-08 0.0016635554
0000b0 43 7c 50 33 97 3c 8e 31 8e e9 82 b4 1b e2 6f b1
       4.854179e-08 4.139632e-09 -2.438432e-07 -3.4907603e-09
0000c0 de a0 30 b2 cf 29 2a b4
       -1.0281125e-08 -1.5847694e-07

exp_avg_sq f4 [50]
000000 b5 4c 28 2c 66 c5 1d 30 b9 81 47 30 5d 1b 30 35
       2.3916817e-12 5.739679e-10 7.2580125e-10 6.560493e-07
000010 09 23 85 3a bf ad df 32 ad b5 23 36 d6 55 c8 3a
       0.0010157536 2.6039627e-08 2.4394642e-06 0.001528437
000020 0f e8 70 2e d4 3e 79 2f e7 df 89 2e 56 b0 dc 2a
       5.477579e-11 2.2668739e-10 6.269812e-11 3.9202208e-13
000030 81 cd 0b 34 2c d0 32 2e ce af 50 39 bf 85 96 2d
       1.3020146e-07 4.0657408e-11 0.00019901918 1.711242e-11
000040 89 7c 09 30 4e 68 c4 30 18 0a a5 2e e6 1f 89 37
       5.0017285e-10 1.4290522e-09 7.505124e-11 1.6346527e-05
000050 c9 9b 1a 2f 4e 58 e8 33 b9 d2 65 2b fd 5b ee 2c
       1.4061564e-10 1.08194044e-07 8.164958e-13 6.7745796e-12
000060 8c a0 1a 31 b2 c5 e4 31 a4 77 29 2c f2 25 32 34
       2.250121e-09 6.6581487e-09 2.4082758e-12 1.6591346e-07
000070 36 06 33 2d c9 bf 2b 3a f2 9e fc 33 46 ff 86 2d
       1.0176351e-11 0.00065517105 1.17635764e-07 1.53474e-11
000080 23 2c bc 2e 39 03 1d 26 95 a7 10 35 7d 7f 63 31
       8.5570905e-11 5.4474685e-16 5.3888044e-07 3.3105316e-09
000090 59 4a d3 2a 8f 8e 50 34 d2 89 14 36 a8 3b 24 2a
       3.7532718e-13 1.9423372e-07 2.213394e-06 1.4586824e-13
0000a0 73 64 45 2e 97 f4 d7 31 83 48 1a 2a 33 93 9a 3c
       4.488183e-11 6.28513e-09 1.3703105e-13 0.018869018
0000b0 9b c9 99 2e 11 74 9f 2d 45 b0 33 30 a7 72 59 26
       6.993447e-11 1.8127751e-11 6.5370315e-10 7.544238e-16
0000c0 23 8a 3f 2a ad e8 4f 30
       1.7012134e-13 7.5636813e-10
