案例2/model_res.pt (torch, 104715 bytes, 30 tensors)

linears.0.weight f4 [50, 3]
0	0x3d05fba3	0.032710683
1	0x3e950f2a	0.29113132
2	0x3e83f2a6	0.25771064
3	0xbe9b96fd	-0.30388632
4	0x3e06d3f6	0.13166794
5	0xbd4c166c	-0.04982607
6	0xbf1f9031	-0.62329394
7	0xbe13e1b7	-0.14441572
8	0xbdcbae62	-0.0994537
9	0x3c56d7ea	0.013113001
10	0x3cd26aef	0.025685756
11	0x3e7bd4ff	0.2459297
12	0x3f014d44	0.50508523
13	0x3ef1c81e	0.4722299
14	0x3d54d75e	0.051963203
15	0x3e9d57fc	0.3073119
16	0xbe096690	-0.1341803
17	0x3d6b1f64	0.057402983
18	0xbc039299	-0.008030557
19	0x3b74bef4	0.0037345262
20	0x3c310cf2	0.010806309
21	0xbd2a5a20	-0.041589856
22	0xbd60ad47	-0.05485275
23	0xbd68e687	-0.056860473
24	0xbbc5cfb2	-0.006036722
25	0x3a5812e3	0.00082425604
26	0xbd1cc980	-0.038278103
27	0xbe9e38a8	-0.309026
28	0x3e089ff4	0.13342267
29	0xbd61526e	-0.05501025
30	0x3b94615f	0.004528209
31	0x3a71cb6c	0.00092237326
32	0x3d095f03	0.033537876
33	0x3b975115	0.00461782
34	0x3a95d299	0.0011430561
35	0x3cb2528f	0.021767883
36	0xbc2bedaa	-0.010493675
37	0xbcd59a4a	-0.026074547
38	0xbd0defae	-0.034652404
39	0xbeac64db	-0.33670697
40	0x3e139a76	0.14414391
41	0xbd6799fb	-0.05654333
42	0xbe6a2f2c	-0.22869557
43	0x3dd01b08	0.10161406
44	0xbc59b5b0	-0.013287947
45	0x3bb3d6ee	0.005488268
46	0x3d94bf1f	0.07263016
47	0x3d8dd055	0.06924502
48	0xbe0f42c5	-0.13990314
49	0x3d69d9cb	0.05709247
50	0xbd0036d2	-0.03130228
51	0x3d175b8a	0.036952533
52	0xbc39d0cd	-0.011341286
53	0x3de63433	0.11240425
54	0x3ee2ea14	0.44319212
55	0x3f2755ec	0.6536548
56	0x3f47bcb3	0.7802231
57	0x3d18acd8	0.03727421
58	0x3d2056f5	0.03914543
59	0x3d33974f	0.04384547
60	0x3ee21e85	0.4416391
61	0x3e28f4d0	0.16499639
62	0x3e12afcb	0.14324872
63	0x3e6250ea	0.22101179
64	0xbdc6c49a	-0.097054675
65	0x3d25b429	0.040455017
66	0x3e64c1bf	0.22339533
67	0xbdc56df1	-0.0964011
68	0x3d2928d5	0.041298706
69	0xbec4796a	-0.38373882
70	0xbe7d63b2	-0.24745062
71	0xbddef7ae	-0.10887085
72	0x3ba3bb54	0.0049966965
73	0xbac570aa	-0.0015063484
74	0xbd6f6f56	-0.058455788
75	0xbe0f4d19	-0.13994254
76	0xbd51e6e7	-0.051245596
77	0xbd84170e	-0.0644971
78	0x3d14bd72	0.03631348
79	0xbb37dab1	-0.0028053934
80	0x3d005b41	0.031337027
81	0xbb7fc2d0	-0.003902603
82	0x3af838cb	0.0018937824
83	0x3cf06de2	0.029349271
84	0xbe650580	-0.2236538
85	0x3dcbcda7	0.099513344
86	0xbc2df034	-0.010616351
87	0x3e856e5c	0.2606076
88	0xbdea3ad1	-0.114369996
89	0x3d080bf3	0.03321452
90	0x3b82006f	0.003967337
91	0x39d3a9bc	0.00040371518
92	0xbd18c570	-0.037297666
93	0x3b99e91f	0.0046969797
94	0x3a92cdaa	0.0011200209
95	0xbcf4c899	-0.029880809
96	0xbdf23c51	-0.11827911
97	0x3d4e975e	0.050437324
98	0x3988af3c	0.000260705
99	0x3e197615	0.14986451
100	0xbd8d7ac3	-0.069081806
101	0x3c69b70c	0.014264833
102	0xbdb3c034	-0.08776894
103	0x3cde38da	0.027126718
104	0xbdb181fe	-0.08667372
105	0x3cd730f8	0.026268467
106	0x3a39791a	0.00070752355
107	0xbb840633	-0.0040290593
108	0xbd6bc271	-0.05755848
109	0x3c0375bb	0.008023675
110	0xbe0e48d6	-0.13894972
111	0x3d024da9	0.031812344
112	0x3869cc49	5.5741784e-05
113	0x3debaa35	0.11507074
114	0x3ba6b51b	0.0050875074
115	0x3ba1223c	0.004917411
116	0x3de0f438	0.10984081
117	0xbc894248	-0.016755238
118	0x38a78903	7.988701e-05
119	0xbc34befe	-0.011031864
120	0x3bf7a617	0.0075576412
121	0x3c77e7b6	0.015130928
122	0x3dfada63	0.12248685
123	0xbc0f95f1	-0.008763776
124	0xbb7000a5	-0.0036621478
125	0xbcb27488	-0.021784082
126	0xbd143f52	-0.0361932
127	0x3ca18a82	0.019719366
128	0xbdf0107f	-0.117218964
129	0xbb0053c7	-0.0019581185
130	0xbb992aac	-0.0046742763
131	0xbdc717be	-0.09721325
132	0x3d152d3f	0.036420103
133	0x3c9420e8	0.018082097
134	0x3c8f8741	0.017520549
135	0x3b8b3d0c	0.0042492207
136	0xbb11d2ec	-0.0022250963
137	0x3d49d38d	0.049274016
138	0xbe0ce721	-0.13760044
139	0x3d7775e8	0.06041518
140	0xbba8b484	-0.0051484723
141	0xbbe82360	-0.007084295
142	0x3c4a25d8	0.012338124
143	0xbd8fbe89	-0.070187636
144	0x3f6ca343	0.9243662
145	0x3e1bf702	0.15230945
146	0x3e006391	0.12537982
147	0xbc7953e2	-0.015217753
148	0xbbb61dea	-0.0055577653
149	0xbe167205	-0.14691932

linears.0.bias f4 [50]
0	0x3f75ca65	0.96011955
1	0xbe80c084	-0.25146878
2	0xbfb9cc9d	-1.4515568
3	0x3d049318	0.032366842
4	0x3f6b3793	0.91881675
5	0x3e0f985b	0.14022963
6	0xbf354faf	-0.7082471
7	0xbf18d7c8	-0.59704256
8	0x3f76222a	0.9614588
9	0xbdc3227d	-0.095280625
10	0xbf838086	-1.0273597
11	0xbfbb14c5	-1.4615713
12	0xbf6d46ec	-0.92686343
13	0xbda99bad	-0.08281646
14	0x3dcc3438	0.099708974
15	0x3f2c2894	0.6724942
16	0x3f6a0833	0.9141876
17	0x3e1ff7af	0.15621828
18	0x3fe0b5b0	1.7555447
19	0x3f7230e9	0.9460588
20	0x3f88c332	1.0684569
21	0xbd957343	-0.07297375
22	0x3e7f468b	0.24929254
23	0xbffcfa03	-1.9763798
24	0xbf967e32	-1.1757262
25	0x3e08c36f	0.13355802
26	0x3f2a2a55	0.66470844
27	0x3f1e324d	0.617955
28	0x3d86d9f1	0.06584538
29	0x3dd94c0a	0.106102064
30	0xbf7f44f5	-0.99714595
31	0x3f60d79f	0.8782901
32	0xbe98e56f	-0.29862544
33	0x3eb7297b	0.35773835
34	0xbf294adf	-0.6612987
35	0x3f9bd3ff	1.2174071
36	0xbec491d1	-0.383925
37	0x3f3778c8	0.7166867
38	0xbe2bfd1d	-0.16795774
39	0xbf60dad1	-0.8783389
40	0x3e966e14	0.29380858
41	0xbe45286a	-0.19253698
42	0xbc6c275d	-0.014413682
43	0x3f90eb4c	1.1321807
44	0x3f183efd	0.5947111
45	0xbfbf2764	-1.4933896
46	0xbdae599c	-0.085131854
47	0x3e8d0cf5	0.27548948
48	0x3ebc0f95	0.36730638
49	0xbe61da3a	-0.22055903

linears.1.weight f4 [50, 50]
0	0x3e338b9a	0.17533723
1	0x3d7fd366	0.062457465
2	0xbde4b291	-0.11166871
3	0x3e6ac79e	0.2292771
4	0x3c1527b6	0.009103706
5	0x3e223f93	0.15844564
6	0x3e6906ee	0.2275655
7	0xbe68e798	-0.22744596
8	0xbe83de7a	-0.25755674
9	0x3d72734a	0.05919198
10	0x3d440cbe	0.047863714
11	0xbe8bafac	-0.27282465
12	0xbdf6ccad	-0.120507576
13	0x3e571333	0.21003418
14	0xbdf6152a	-0.120157555
15	0xbd2e2e6c	-0.04252474
16	0x3e2842cd	0.16431732
17	0x3d20d155	0.039262135
18	0xbb522b9e	-0.0032069455
19	0xbe186e3f	-0.14885806
20	0xbe5d51fd	-0.21613307
21	0xbe5c1d45	-0.2149554
22	0x3dfea9f5	0.124347605
23	0x3d7b5b7c	0.061366543
24	0xbd533cff	-0.051571842
25	0xbc00def7	-0.007865659
26	0x3cf09c81	0.029371502
27	0x3e8129c2	0.2522717
28	0xbd7c6a45	-0.061624784
29	0x3cb2a83c	0.021808736
30	0x3e706972	0.23477724
31	0x3e5493bc	0.20759481
32	0x3d7c0a2b	0.061533134
33	0xbd828549	-0.063730784
34	0x3d41b48c	0.047291324
35	0x3e398002	0.18115237
36	0x3dcd8789	0.10035617
37	0xbdc2c43a	-0.095100835
38	0x3e167ed1	0.14696814
39	0x3e1fad5e	0.15593478
40	0xbe4e7ef4	-0.20165616
41	0xbd498512	-0.04919917
42	0xbe11da5f	-0.14243458
43	0xbe75df82	-0.24011043
44	0xbd380cf5	-0.04493423
45	0xbe9d406c	-0.30713212
46	0x3d1feee2	0.039046176
47	0xbe47ff31	-0.19530942
48	0xbe4dd932	-0.20102385
49	0xbe33203e	-0.17492768
50	0x3e58cda9	0.21172203
51	0x3df1959c	0.11796114
52	0xbe48392f	-0.19553064
53	0xbe088a13	-0.13333921
54	0x3d05b400	0.032642365
55	0xbe0307e3	-0.12795977
56	0xbd1d8094	-0.0384527
57	0xbe3384ca	-0.17531124
58	0xbe533ef9	-0.20629491
59	0xbe5481a9	-0.20752586
60	0x3e9104a6	0.2832386
61	0xbe4e0fe3	-0.20123248
62	0xbe118907	-0.14212428
63	0x3e3aa1f6	0.18225846
64	0xbc01929c	-0.00790849
65	0x3e929a73	0.2863346
66	0xbda28269	-0.0793503
67	0x3e523489	0.20527853
68	0x3e565679	0.20931424
69	0x3e84701e	0.2586679
70	0x3d6ed1f3	0.058305692
71	0xbe30324e	-0.1720669
72	0x3c2a3b92	0.010390179
73	0xbe8cbf5c	-0.27489746
74	0x3e5c3702	0.21505359
75	0xbc8a7da0	-0.016905606
76	0x3e7af574	0.24507695
77	0x3e16b439	0.14717187
78	0x3e61f375	0.22065528
79	0xbe0cd9c5	-0.13754947
80	0xbe3fa22d	-0.18714209
81	0x3e41d71f	0.18929718
82	0xbe86c962	-0.26325518
83	0x3d9fb671	0.0779847
84	0xbddca619	-0.10773868
85	0xbe3fa1f7	-0.18714128
86	0xbdb223ae	-0.086982116
87	0xbe40ce40	-0.18828678
88	0x3e24df36	0.16100773
89	0x3da07b68	0.07836038
90	0x3ca73a6b	0.020413598
91	0x3e1fb91d	0.15597959
92	0xbe6c48cc	-0.23074645
93	0x3e3a4644	0.18190867
94	0xbd584fed	-0.0528106
95	0xbe82bf34	-0.255365
96	0xbbd2fe48	-0.006439004
97	0x3c42fdf3	0.0119013665
98	0xbc338e90	-0.0109592825
99	0xbd14eeea	-0.03636066
100	0x3d1ad1c7	0.037797716
101	0x3e0a754d	0.13521309
102	0xbe4344e2	-0.19069245
103	0xbe36fc62	-0.17869714
104	0x3dc94df2	0.0982932
105	0xbda7bf0c	-0.08190736
106	0xbb947f9c	-0.004531814
107	0xbe34f7d9	-0.17672671
108	0xbe8f876f	-0.28033015
109	0x3e513999	0.20432128
110	0x3e34e61b	0.17665903
111	0x3eb058ed	0.34442845
112	0xbe2cea94	-0.1688636
113	0xbe7690ca	-0.2407867
114	0x3d5cef5f	0.05393922
115	0x3e2244cf	0.15846561
116	0x3e5721f0	0.2100904
117	0x3de6b556	0.11265056
118	0xbd5d7edf	-0.05407607
119	0xbe62da56	-0.22153601
120	0x3de73dd5	0.112910904
121	0xbe607679	-0.21920194
122	0x3dfa74b6	0.12229292
123	0x3de765e4	0.11298731
124	0xbdc34dd5	-0.0953633
125	0x3d216565	0.039403338
126	0xbc2d6db4	-0.010585237
127	0x3d143016	0.03617867
128	0x3cc30b8a	0.023809213
129	0xbc8d95be	-0.017283317
130	0xbe9cb848	-0.30609345
131	0xbe311f93	-0.17297201
132	0xbdcf22d4	-0.10114065
133	0x3db5e21b	0.08881017
134	0x3e65a7c7	0.22427283
135	0xbe4219ee	-0.18955204
136	0x3e21ed3c	0.15813154
137	0x3e31a6d6	0.17348799
138	0x3dd16a93	0.102254055
139	0xbda602e2	-0.081060186
140	0x3c8bfc30	0.017088026
141	0xbc63143c	-0.013859805
142	0xbd2d42bd	-0.042299975
143	0xbe468146	-0.19385251
144	0xbe291b42	-0.16514304
145	0x3d91120d	0.07083521
146	0x3dd076f2	0.10178937
147	0x3e856f7f	0.26061627
148	0x3d91051c	0.07081053
149	0xbcae2bb9	-0.021261083
150	0x3e035903	0.12826924
151	0xbe3bd30d	-0.18342228
152	0x3e7ac1e3	0.24488024
153	0xbdb9f1e2	-0.090793386
154	0x3db8527a	0.09000106
155	0xbe12cb5d	-0.1433539
156	0xbe65957c	-0.22420305
157	0x3df2ba14	0.11851898
158	0xbdbdbb96	-0.09264295
159	0xbd94d23e	-0.07266663
160	0xbe129dac	-0.1431796
161	0x3e3635d4	0.17793971
162	0x3e101b35	0.14072879
163	0xbdb77c7f	-0.089592926
164	0xbd8e1d54	-0.06939188
165	0xbdff4c31	-0.12465704
166	0x3c19168f	0.009343757
167	0x3daa8433	0.08325996
168	0xbe733c97	-0.23753582
169	0x3e0ebd55	0.13939412
170	0x3d88bc33	0.06676521
171	0xbe639bfa	-0.22227469
172	0xbe1a9ef0	-0.15099692
173	0xbdb6906b	-0.08914264
174	0xbc8a078e	-0.016849305
175	0x3e3e9650	0.18612027
176	0x3c9445a5	0.018099615
177	0xbf1c2790	-0.6099787
178	0xbe63b454	-0.22236758
179	0xbd00049e	-0.031254403
180	0x3e39b7e7	0.1813656
181	0xbc3c30b8	-0.011486225
182	0x3a2cfcce	0.000659895
183	0x3e4b6d0b	0.19865815
184	0xbcdfdf4f	-0.027328162
185	0xbe417ae9	-0.18894543
186	0x3e7a6faa	0.24456659
187	0x3e2f2b7f	0.17106436
188	0xbd375d38	-0.044766635
189	0xbe1cbfe9	-0.15307583
190	0xbe4dd74e	-0.20101663
191	0x3e0402c0	0.12891674
192	0xbe0c8c0c	-0.13725299
193	0x3e633145	0.22186764
194	0x3e1b670a	0.15176025
195	0xbe42618a	-0.1898252
196	0xbe2f5c8a	-0.17125145
197	0x3e5ef81a	0.2177433
198	0xbe0cdbdb	-0.13755743
199	0x3e5d31c1	0.21601011
200	0xbe043b37	-0.12913214
201	0xbd83031d	-0.06397078
202	0xbdfeeac5	-0.124471225
203	0x3e02a050	0.12756467
204	0x3dec21e9	0.11529905
205	0xbe3c228b	-0.18372552
206	0x3d46b2ff	0.048510548
207	0x3e4f0f2c	0.20220631
208	0x3e48973b	0.1958894
209	0x3d80b4b6	0.06284468
210	0x3e93866b	0.2881349
211	0x3e761598	0.24031675
212	0xbe1e8423	-0.15480094
213	0xbde3cd99	-0.11123199
214	0xbe2d6402	-0.16932681
215	0xbe0bb501	-0.13643266
216	0xbe393b1d	-0.18088956
217	0x3c89a4ce	0.016802218
218	0xbe309b67	-0.17246781
219	0xbe6a6d67	-0.22893296
220	0x3e433b97	0.190657
221	0x3e2cda9f	0.16880272
222	0x3e1c7873	0.15280323
223	0xbe54c35d	-0.2077765
224	0xbe91de03	-0.28489694
225	0xbba0d347	-0.0049079987
226	0xbe21f52a	-0.15816179
227	0xbd24ac55	-0.04020341
228	0x3e5b448d	0.21412869
229	0xbe46f4ce	-0.19429323
230	0xbdc81722	-0.09770037
231	0xbe0bd28a	-0.13654533
232	0xbdcc2d8e	-0.09969626
233	0x3e36eca8	0.17863715
234	0x3d8edf3e	0.06976174
235	0x3e16dc95	0.14732583
236	0xbe29a339	-0.16566171
237	0xbe8954cc	-0.26822507
238	0xbe197f90	-0.14990067
239	0x3e86ab1e	0.26302427
240	0xbe2b55f6	-0.1673201
241	0xbc3d71c3	-0.011562767
242	0xbe4d8766	-0.20071182
243	0x3e30c7bd	0.17263694
244	0xbdafe138	-0.08587879
245	0x3d48e202	0.049043663
246	0xbe03511d	-0.12823911
247	0x3e68b9be	0.22727105
248	0x3e4a9efa	0.19787207
249	0xbe43a42c	-0.19105595
250	0xbe1ad234	-0.15119249
251	0x3e5f9e88	0.21837819
252	0xbe056ac6	-0.13029012
253	0x3e0bfe3a	0.13671198
254	0xbe30a2d5	-0.17249615
255	0xbe2b67f2	-0.1673887

linears.1.bias f4 [50]
0	0x3cceb1b8	0.025231227
1	0x3d6e8178	0.05822894
2	0xbc99d447	-0.01877798
3	0xbc496694	-0.012292523
4	0xbcfcbdd5	-0.030852238
5	0xbb97d38d	-0.004633373
6	0x3a88cfa9	0.0010437864
7	0xbc5ec1b9	-0.013595992
8	0x3c92a643	0.017901545
9	0xbd6196bf	-0.055075403
10	0x3d45f8e4	0.048333064
11	0xbc1e71d4	-0.009670693
12	0x3c6d2503	0.014474156
13	0x3948f175	0.00019163436
14	0x3d1ee899	0.03879604
15	0xba981f9f	-0.0011606104
16	0x3c42e6f3	0.011895883
17	0xbc988bfb	-0.018621435
18	0x3cb35d0d	0.021894956
19	0x3d8dcd3c	0.06923911
20	0xbaa0cc2f	-0.0012267883
21	0xbc4e0ea2	-0.012576731
22	0x3da59b5c	0.08086273
23	0x3dd76f22	0.10519244
24	0x3cf33faf	0.029693453
25	0xbd4b2b5b	-0.049601894
26	0xbbfbff95	-0.00769038
27	0x3c3f5630	0.011678264
28	0xbc2de781	-0.010614277
29	0x3da1cd98	0.07900542
30	0x3cfd7fca	0.030944724
31	0x3d1c764e	0.03819876
32	0xbc456b93	-0.0120495735
33	0x3ca96580	0.020678282
34	0x3a928a01	0.0011180044
35	0x3d3a3aa3	0.045466077
36	0x3b787402	0.0037910943
37	0xbb6a2f04	-0.003573359
38	0x3c1f529b	0.0097242845
39	0xbdf628b7	-0.120194845
40	0x3d04384f	0.032280263
41	0xbce14a4c	-0.027501248
42	0x3d0b28f8	0.033974618
43	0x3d7bf582	0.06151343
44	0xbdbe2857	-0.09285038
45	0x3c1ea7fb	0.009683604
46	0x3d3f9ff0	0.046783388
47	0xbbb41bf2	-0.0054964954
48	0xbd06b812	-0.032890387
49	0x3c8347be	0.01602542

linears.2.weight f4 [50, 50]
0	0x3e3bc0c0	0.18335247
1	0x3e791929	0.24326004
2	0x3dc9eb01	0.098592766
3	0xbf04880b	-0.51770085
4	0xbdf49e96	-0.1194431
5	0xbdcd897a	-0.10035987
6	0xbe0f033a	-0.13966075
7	0xb904c766	-0.00012662783
8	0x3ecad1b1	0.39613107
9	0x3d8c16c6	0.06840281
10	0x3f1a98d3	0.6038944
11	0xbeb3f8b9	-0.35150698
12	0xbd8eeefd	-0.06979177
13	0x3e5da057	0.21643196
14	0x3e522a7f	0.20524023
15	0xbdc9bb14	-0.098501354
16	0xbe3f120a	-0.18659225
17	0xbd83abf0	-0.06429279
18	0x3de22529	0.11042244
19	0x3d93b520	0.07212281
20	0xbe80128f	-0.2501416
21	0x3d177170	0.036973417
22	0xbe074234	-0.13208848
23	0x3e10c031	0.14135815
24	0x3e85e5c8	0.26151872
25	0xbdf998b3	-0.12187328
26	0x3eb39e44	0.35081685
27	0xbd880bcf	-0.06642877
28	0xbf68d84b	-0.90955037
29	0xbda3f4d9	-0.08005685
30	0xbe70d476	-0.23518547
31	0x3c03b03c	0.008037623
32	0xbe1ddfc8	-0.15417397
33	0x3e70ad42	0.23503593
34	0xbe9f0e24	-0.31065476
35	0x400889af	2.1334035
36	0xbde296ec	-0.11063942
37	0x3d3cbfa4	0.0460812
38	0xbe1f4b30	-0.15556026
39	0xbddc9fad	-0.10772643
40	0x3f89919f	1.0747565
41	0xbe93b383	-0.28847894
42	0x3eba4917	0.36383888
43	0x3e2da6d3	0.1695817
44	0xbe72f559	-0.23726405
45	0x3e64a6bf	0.22329234
46	0x3e33aaa5	0.17545564
47	0x3d84540e	0.06461345
48	0xbee8518e	-0.4537472
49	0x3e0685c7	0.1313697
50	0xbe2b3487	-0.16719256
51	0x3e269919	0.1626934
52	0xbdb55d34	-0.08855668
53	0x3ecc68af	0.39923617
54	0x3e290834	0.16507035
55	0x3d898839	0.067154355
56	0x3d89c6c4	0.06727365
57	0x3e885cc2	0.2663327
58	0xbe9f6b7c	-0.31136692
59	0x3d83ede8	0.064418614
60	0x3e615c29	0.22007813
61	0xbe27ae91	-0.16375186
62	0x3ebca15e	0.36841863
63	0xbc9a74d0	-0.018854529
64	0xbe3e7002	-0.18597415
65	0x3e6817d8	0.22665346
66	0xbec981b0	-0.39356756
67	0x3e953edf	0.2914953
68	0xbd417526	-0.047230862
69	0xbca5e09c	-0.020248704
70	0x3c27ba55	0.010237296
71	0xbce5f8a8	-0.02807267
72	0x3e09ce30	0.1345756
73	0x3e6a4e96	0.2288154
74	0x3baf9f72	0.0053595835
75	0x3c8fbe70	0.017546862
76	0x3e23de49	0.16002764
77	0xbd9deaee	-0.07710825
78	0x3f2d0c5a	0.6759697
79	0x3e5c4b0f	0.21513008
80	0xbe1df86e	-0.154268
81	0xbda81186	-0.08206467
82	0x3d24c0d7	0.04022297
83	0x3e876636	0.26445168
84	0xbcf74772	-0.030185435
85	0x3ff6c2af	1.9278163
86	0xbe5cb960	-0.2155509
87	0x3d95a164	0.073061734
88	0xbe0b1d59	-0.13585414
89	0x3d8ea30e	0.06964694
90	0x3f0f0ea7	0.5588173
91	0x3e53db17	0.20689045
92	0xbe249f06	-0.16076288
93	0x3e052879	0.1300372
94	0xbe30015a	-0.17188016
95	0x3ea45744	0.32097828
96	0x3e08da20	0.13364458
97	0x3def6c0d	0.11690531
98	0xbf34352e	-0.70393646
99	0x3ea9b748	0.33147645
100	0xbe80d05b	-0.25158963
101	0xbd1df1a9	-0.038560543
102	0x3ef63ea4	0.48094666
103	0xbd9818e0	-0.074266195
104	0xbe136c05	-0.14396675
105	0xbd0d8862	-0.034553893
106	0xbe1667f8	-0.14688098
107	0xbe3dd3ca	-0.18537822
108	0x3e201b48	0.15635407
109	0x3cc02e79	0.02345966
110	0x3e0932a7	0.13398229
111	0x3e16e120	0.14734316
112	0x3bdb1955	0.0066863694
113	0x3ea02911	0.3128133
114	0xbe3563d7	-0.17713867
115	0xbe56b653	-0.20967989
116	0xbf14e80e	-0.5816659
117	0x3e4e6b46	0.20158109
118	0xbe4832e5	-0.19550665
119	0x3e59c25a	0.21265545
120	0x3b61dfb9	0.0034465624
121	0x3e444ea1	0.1917062
122	0xbc0fdadd	-0.008780208
123	0xbe20a869	-0.15689243
124	0xbe647b69	-0.22312702
125	0xbda296e8	-0.07938939
126	0xbd40ad30	-0.047040164
127	0xbef16a0f	-0.4715123
128	0xbe209a95	-0.15683968
129	0x3e29f76f	0.16598295
130	0xbf5ae818	-0.85510397
131	0x3e9ab3b1	0.3021522
132	0xbe419f05	-0.18908317
133	0x3ebae9ee	0.365066
134	0xbf35efd2	-0.7106906
135	0x3f621f98	0.8832946
136	0x3e0937cc	0.13400191
137	0x3d1d899e	0.03846132
138	0x3e2d92f5	0.16950591
139	0xbd8bfd36	-0.068354055
140	0x3f75d6f4	0.9603112
141	0xbe05b7d6	-0.13058409
142	0x3e5be972	0.21475771
143	0xbe1fc6e2	-0.15603212
144	0xbcfac96d	-0.030613625
145	0x3d0a796a	0.033807196
146	0x3e813fb8	0.25243926
147	0xbeaaf9d4	-0.3339373
148	0xbfc0856a	-1.5040715
149	0x3f10e8ee	0.5660542
150	0x3e443b72	0.19163302
151	0x3e06e018	0.13171422
152	0xbdb81d51	-0.08989967
153	0xbeba1e20	-0.3635111
154	0x3dad2aab	0.08455404
155	0x3e1a091f	0.15042542
156	0xbe46a7b2	-0.19399908
157	0xbe318ada	-0.17338124
158	0x3d4ea125	0.05044665
159	0x3e78f575	0.24312384
160	0xbe0c8093	-0.13720922
161	0xbe9b38a8	-0.30316663
162	0xbe6c1252	-0.23053864
163	0x3dc271f8	0.09494394
164	0xbe0ef114	-0.13959152
165	0x3eaeec00	0.3416443
166	0xbef3d5bc	-0.47624004
167	0x3e9b63fa	0.30349714
168	0x3e0bc29c	0.13648456
169	0x3be27e64	0.0069120396
170	0xbf0c0ecf	-0.54710096
171	0xbe816505	-0.25272384
172	0x3cd3759e	0.02581292
173	0xbe28cba6	-0.16483936
174	0xbd14a4e2	-0.036290057
175	0x3d49a74a	0.049231805
176	0xbdaa7ddf	-0.08324789
177	0x3eac88a3	0.33697996
178	0xbe9296a4	-0.28630555
179	0x3c148e9f	0.009067207
180	0xbee52a36	-0.44758767
181	0x3e0a7c36	0.13523945
182	0x3e645598	0.22298276
183	0xbe250260	-0.16114187
184	0xbed8ffe2	-0.42382723
185	0x3d1560c7	0.036469247
186	0x3e9726da	0.2952183
187	0x3cd99c2d	0.026563728
188	0x3e0037fe	0.1252136
189	0xbd488bec	-0.048961565
190	0x3f4f874c	0.8106582
191	0xbd8e5378	-0.06949514
192	0xbeb9302f	-0.36169574
193	0x3d640eb2	0.055678077
194	0xbda77011	-0.08175672
195	0xbd28e220	-0.041231275
196	0xbc878253	-0.016541636
197	0x3d629850	0.055321038
198	0x3ed2ee53	0.41197452
199	0x3e856090	0.26050234
200	0xbe9b4291	-0.30324224
201	0xbe03dddf	-0.12877606
202	0xbf707bc1	-0.93938833
203	0x3b983a05	0.0046455883
204	0x3e5744e6	0.21022376
205	0x3e367b86	0.17820558
206	0x3f33a7da	0.70177996
207	0xbe13aab8	-0.14420593
208	0x3ed0195f	0.40644357
209	0xbdafed90	-0.08590233
210	0x3efb9a81	0.49141315
211	0xbe6093cf	-0.21931385
212	0x3e82000d	0.25390664
213	0x3e0f5623	0.13997702
214	0x3dcf808f	0.101319425
215	0x3e9d06e7	0.3066933
216	0x3ee62b34	0.44954836
217	0x3efc1ee4	0.49242318
218	0x3d92fb95	0.07176892
219	0xbd257f3e	-0.04040455
220	0x3ce60783	0.028079754
221	0x3da95775	0.08268634
222	0x3e449b42	0.19199851
223	0xbdb6428e	-0.08899413
224	0x3d2c12ea	0.042010225
225	0x3e2c3268	0.16816103
226	0x3f4a0809	0.7891851
227	0xbdee817c	-0.11645791
228	0xbf1b4d99	-0.6066528
229	0xbe0de08a	-0.13855186
230	0x3e51b6a1	0.20479824
231	0x3d6ddc0b	0.058071177
232	0x3dc78db9	0.09743828
233	0x3f405784	0.7513354
234	0x3ecb59b1	0.39716867
235	0x3e2b0811	0.16702296
236	0x3e195cf9	0.14976873
237	0x3e9a448a	0.30130416
238	0xbec9e9a1	-0.39436057
239	0xbd971075	-0.07376186
240	0xbeb90c25	-0.36142078
241	0xbe9e9ae3	-0.30977544
242	0x3e188157	0.14893089
243	0x3de8e837	0.113724165
244	0x3cc739e1	0.024319591
245	0x3f8c13a1	1.094349
246	0xbe6394e5	-0.22224768
247	0xbda9fb58	-0.08299893
248	0x3f2af306	0.66777074
249	0x3dc5cb4d	0.09657917
250	0xbdc205b9	-0.09473748
251	0x3ea84609	0.32865933
252	0xbdd51f16	-0.1040632
253	0xbdd37014	-0.103241116
254	0xbde9a87c	-0.11409089
255	0x3dd638b7	0.10460036

linears.2.bias f4 [50]
0	0x3c4e9b47	0.012610263
1	0x3d26fbd7	0.040767517
2	0x3cdd4cb4	0.027014114
3	0xbb93d651	-0.0045116325
4	0x38f43ee0	0.00011646538
5	0x3d875f4f	0.066099755
6	0xbcfc89e5	-0.030827472
7	0xbcca90f3	-0.02472732
8	0xbd2b4484	-0.04181339
9	0x3d0ea1f8	0.034822434
10	0x3ba1d574	0.0049387757
11	0xbd590bcd	-0.05298977
12	0xb945858d	-0.00018837136
13	0x3d0a283e	0.033729784
14	0x3ce3b453	0.027795946
15	0x3cc87b16	0.024472754
16	0x3d05ab44	0.032634035
17	0x3d82a5c2	0.06379272
18	0x3d8c360e	0.068462476
19	0xbc431d92	-0.011908906
20	0xbca53296	-0.020165723
21	0x3b9b29e2	0.0047352174
22	0x3d54cf99	0.051955793
23	0xbc009a66	-0.007849311
24	0xbce16856	-0.027515572
25	0x3c6bdfef	0.014396652
26	0x3bff4976	0.0077907396
27	0xbb1e3847	-0.002414243
28	0xbcca3810	-0.024684936
29	0xbd928bc3	-0.07155564
30	0xbdab2853	-0.083573006
31	0x3dfc72ea	0.123266056
32	0x3d0f90bd	0.035050143
33	0x3d1ebf37	0.038756575
34	0x3d112aa1	0.035441045
35	0xbd378454	-0.044803932
36	0xbcb73990	-0.022366315
37	0x3cad8d67	0.02118559
38	0xbcbe77de	-0.023250517
39	0xbd5c29b4	-0.05375071
40	0x3c70ba21	0.014692814
41	0xbc850c98	-0.016241357
42	0xbc1ce97f	-0.009577154
43	0x3d4a4c10	0.049388945
44	0xbd249e4f	-0.040190037
45	0x3d87db70	0.06633651
46	0xbd23f13a	-0.040024973
47	0xbae6b197	-0.0017600533
48	0x3c980dca	0.018561263
49	0xbd124999	-0.03571472

linears.3.weight f4 [50, 50]
0	0x3e75c95d	0.24002595
1	0x3e02754b	0.12740056
2	0x3e9cf344	0.30654347
3	0x3f167959	0.5877891
4	0x3e916d3e	0.28403658
5	0xbc06d621	-0.008229763
6	0xbd44f302	-0.048083313
7	0xbdc5a2b4	-0.09650174
8	0xbdda10b9	-0.10647721
9	0xbb9e6ed0	-0.004834987
10	0x3e36c536	0.17848668
11	0x3d465457	0.048420276
12	0xbc11d5a6	-0.008901035
13	0x3e587412	0.21138027
14	0xbe3c55ee	-0.18392155
15	0xbe7ca59e	-0.24672553
16	0x3d9ab209	0.07553489
17	0x3e7c17b5	0.24618419
18	0xbe12460b	-0.14284532
19	0x3e0b0804	0.13577276
20	0xbe616852	-0.22012451
21	0x3d9794ef	0.07401454
22	0xbd53d885	-0.05172016
23	0x3e9f2bee	0.31088203
24	0x3cd77b39	0.026303874
25	0xbe819e16	-0.25315922
26	0x3e1b378f	0.15157913
27	0x3e67ee56	0.22649512
28	0xbe5ab051	-0.21356322
29	0xbde5455e	-0.11194871
30	0x3de3e43e	0.11127518
31	0xbee10ae6	-0.43953627
32	0x3dea91a3	0.11453559
33	0xbe7b5072	-0.24542406
34	0x3e3d5837	0.18490683
35	0xbcb2404b	-0.021759173
36	0x3e5918d5	0.21200879
37	0x3e83d9a4	0.25751984
38	0xbe41eb92	-0.18937519
39	0xbe80ba81	-0.2514229
40	0x3d89b766	0.067244336
41	0xbe2846f0	-0.1643331
42	0xbe17edff	-0.14836882
43	0xbe46b1ef	-0.19403814
44	0x3dacd717	0.08439463
45	0xbbd5f13d	-0.006529002
46	0xbe382ae4	-0.17985111
47	0xbd4b7f9e	-0.049682252
48	0xbe9194de	-0.2843389
49	0x3c1ec33f	0.009690105
50	0x3d17a78c	0.03702502
51	0x3e5543e0	0.20826674
52	0xbd81e19b	-0.06341859
53	0xbdf0ea60	-0.117634535
54	0x3eb5a2cc	0.35475767
55	0xbe87e474	-0.26541483
56	0xbe31af40	-0.17352009
57	0x3e0a6100	0.13513565
58	0x3e8329d0	0.25617838
59	0x3dd5b4a2	0.104348436
60	0x3dab1b2b	0.08354791
61	0xbe1f89a3	-0.15579848
62	0x3def228c	0.11676511
63	0x3da2e03b	0.07952925
64	0xbe7cd237	-0.24689566
65	0xbda32775	-0.0796651
66	0x3d41098e	0.047128253
67	0xbe017fed	-0.12646456
68	0x3dcd6cfb	0.10030552
69	0xbc567cb0	-0.013091251
70	0x3e201e1b	0.15636484
71	0xbc035efa	-0.00801825
72	0xbe157033	-0.14593582
73	0xbd6e4394	-0.058169916
74	0xbe37705b	-0.17913954
75	0xbe02b140	-0.12762928
76	0x3d96d778	0.07365316
77	0x3e96df98	0.29467463
78	0x3eb1525f	0.34633157
79	0x3e087471	0.13325669
80	0xbdc3a7c7	-0.09553485
81	0x3ddc189d	0.10746882
82	0xbe81fd0c	-0.25388372
83	0xbdab92aa	-0.08377583
84	0xbe0aa683	-0.13540082
85	0xbd29a21a	-0.041414358
86	0x3e0fed70	0.14055419
87	0x3e289bcb	0.1646568
88	0x3ddada0d	0.10686121
89	0x3e5e19ed	0.21689577
90	0xbc4e5693	-0.012593883
91	0xbe17f61a	-0.14839974
92	0x3c5ddb76	0.013541093
93	0x3e31da15	0.17368348
94	0x3e62830c	0.22120303
95	0xbe3ef80b	-0.18649308
96	0x3e75553f	0.239583
97	0xbec3a054	-0.38208258
98	0xbc692231	-0.014229343
99	0x3f092c52	0.5358325
100	0x3e38a35c	0.18031067
101	0x3e2ff1c1	0.17182066
102	0xbe0023e0	-0.12513685
103	0xbdd12e24	-0.10213879
104	0x3e6e6d5b	0.23283903
105	0x3e413849	0.18869127
106	0x3dad7d99	0.084712215
107	0x3eb6b5fa	0.35685712
108	0x3ddcadd4	0.107753426
109	0x3d959e8f	0.07305633
110	0xbd0fbc7c	-0.035091862
111	0xbde27def	-0.11059176
112	0xbcc181b5	-0.02362142
113	0x3d328862	0.043587096
114	0x3e5e4545	0.21706112
115	0x3c180f37	0.009280971
116	0x3e8b3fe2	0.27197176
117	0xbd82b149	-0.06381471
118	0x3dbca312	0.09210791
119	0x3e1e9198	0.15485227
120	0xbe507652	-0.20357636
121	0x3de7c4fe	0.1131687
122	0x3db47379	0.08811087
123	0xbe4e7917	-0.2016338
124	0x3e254ad8	0.16141832
125	0xbda0f211	-0.078586705
126	0x3dbe044e	0.09278165
127	0x3e80b2a8	0.25136304
128	0xbc8dfd15	-0.017332593
129	0x3e3a9587	0.18221103
130	0xbe39aa20	-0.18131304
131	0xbe51c20a	-0.20484176
132	0x3e11c6c1	0.14235975
133	0x3e4c53d7	0.19953857
134	0x3dfd45ea	0.12366851
135	0x3e0b8208	0.13623822
136	0xbf5fa3c9	-0.8735929
137	0x3cb1e0f2	0.021713708
138	0x3e5e2198	0.21692502
139	0x3e0979bf	0.13425349
140	0x3ee576f9	0.4481733
141	0xbe036e8a	-0.12835136
142	0xbdc363f0	-0.09540546
143	0xbe0ddf77	-0.13854776
144	0xbdd5af89	-0.10433871
145	0x3e09821b	0.13428538
146	0x3db9b6c8	0.09068066
147	0x3d19b162	0.03752268
148	0xbf148209	-0.5801092
149	0x3e9d9707	0.30779287
150	0x3d82a495	0.06379048
151	0x3dc4b17e	0.096041664
152	0x3ea8778d	0.3290371
153	0x3f051d09	0.5199743
154	0x3d934ef7	0.07192796
155	0xbdf975f4	-0.12180701
156	0x3d947e40	0.07250643
157	0x3d4e874e	0.050422005
158	0x3db9e09b	0.09076043
159	0x3e5b9252	0.21442536
160	0xbd25a6d3	-0.0404423
161	0xbd20127d	-0.03908013
162	0xbdd11cd6	-0.10210578
163	0x3e5522db	0.20814078
164	0xbe331dae	-0.1749179
165	0x3e0d108d	0.13775845
166	0x3eabc1cf	0.33546302
167	0xbe0eaa2b	-0.13932101
168	0x3e247b7d	0.16062732
169	0x3e876dfb	0.26451096
170	0x3d151eb0	0.03640622
171	0xbee2441d	-0.4419259
172	0x3d308e5c	0.043104514
173	0x3d84e56d	0.06489072
174	0xbde8d7b8	-0.1136927
175	0xbdceee2a	-0.1010402
176	0x3ebab470	0.36465788
177	0xbe9bed3f	-0.30454442
178	0xbdb632c5	-0.08896402
179	0x3cb61044	0.022224553
180	0x3e10846c	0.14113015
181	0xbe8c04c2	-0.2734738
182	0x3e8c7c02	0.2743836
183	0xbbbd41a1	-0.005775646
184	0xbdb5c5db	-0.088756286
185	0xbe56d1aa	-0.20978418
186	0xbe93d144	-0.28870595
187	0x3f022cd0	0.5084963
188	0x3deb3cc5	0.114862
189	0xbc285c91	-0.010275976
190	0x3b5ca192	0.003366564
191	0xbd508128	-0.050904423
192	0xbe9b71eb	-0.3036035
193	0xbe5d1c26	-0.21592769
194	0xbe8e5665	-0.2780029
195	0xbdcff7bc	-0.101546735
196	0xbcc28cbc	-0.023748748
197	0x3e06d6ef	0.13167928
198	0x3e57bbed	0.21067782
199	0xbeae1336	-0.33999032
200	0x3cb5cf4b	0.022193572
201	0x3e8841b3	0.26612625
202	0xbe2ca49c	-0.16859668
203	0x3ee3215b	0.44361386
204	0xbeffb783	-0.49944696
205	0x3c85029b	0.016236594
206	0x3e6089ac	0.21927518
207	0x3e0c7170	0.13715148
208	0x3e14b955	0.14523824
209	0xbe1dc5f0	-0.15407538
210	0xbdd63948	-0.10460144
211	0xbd64e597	-0.055883016
212	0x3e917d78	0.28416038
213	0xbcbaec65	-0.0228178
214	0xbdf5deb7	-0.1200537
215	0x3e61ca79	0.22049893
216	0x3e8e352d	0.27774945
217	0x3e8adcc5	0.2712156
218	0xbe3d94ea	-0.18513837
219	0xbd724d2b	-0.059155624
220	0x3d0b626f	0.03402942
221	0xbe30ff4d	-0.1728489
222	0xbe25860e	-0.16164419
223	0xbeb7a1d2	-0.35865647
224	0x3e63372c	0.22189015
225	0x3df90d1d	0.12160704
226	0x3ecb2393	0.39675578
227	0x3d8cec3e	0.06880997
228	0x3db34179	0.08752722
229	0xbe1c566c	-0.15267342
230	0xbddd38c4	-0.10801843
231	0xbe7646eb	-0.2405049
232	0x3e5dbdaa	0.21654382
233	0xbe2cef0e	-0.16888067
234	0xbd81e566	-0.063425824
235	0x3d1743e7	0.03692999
236	0xbe142bde	-0.14469859
237	0xbc18fba8	-0.009337343
238	0x3d6606c4	0.056158796
239	0xbe4f3af5	-0.20237334
240	0xbe33ff30	-0.17577815
241	0xbd5277cc	-0.05138378
242	0x3e121278	0.14264858
243	0x3e872f7c	0.26403415
244	0x3dd0a7b8	0.1018824
245	0x3e4c2438	0.19935691
246	0x3ddc6ec2	0.10763313
247	0x3ee2d9e7	0.4430687
248	0x3dbdf8cb	0.09275969
249	0xbf041c0c	-0.51605296
250	0x3c3b3649	0.011426517
251	0x3e58c08c	0.21167201
252	0xbddcebaa	-0.10787137
253	0x3e1e743e	0.1547403
254	0xbd93dcfb	-0.07219883
255	0x3e0c1bf9	0.13682546

linears.3.bias f4 [50]
0	0x3ca7fdd2	0.020506773
1	0xbd23edd0	-0.040021718
2	0x3ce8fa4a	0.02843966
3	0x3cd1df2d	0.025619114
4	0x3d54b0c3	0.051926386
5	0x3db8f2f8	0.090307176
6	0x3cc7fb7c	0.02441191
7	0x3c069a91	0.008215562
8	0x3d4051e3	0.046953093
9	0xbc878c71	-0.01654646
10	0x3d4d93a3	0.050189625
11	0x3c21a991	0.009867088
12	0xbd733b2b	-0.0593826
13	0xbd57911b	-0.052628618
14	0xbcb7a187	-0.02241589
15	0x3ce85dc4	0.028365023
16	0x3a9204ea	0.001114038
17	0xbcd1e2c2	-0.025620822
18	0x3d3d5788	0.046226054
19	0x3d605e56	0.054777466
20	0x3d879969	0.066210575
21	0x3d2ddf5e	0.042449348
22	0x3dbaf60f	0.09128963
23	0x3ce908c1	0.028446557
24	0xbd56fa97	-0.052485075
25	0x3d13829c	0.03601323
26	0x3cd51b76	0.026014071
27	0x3d33ea68	0.04392472
28	0xbd314de3	-0.04328717
29	0x3d943e0b	0.07238396
30	0x3d20e543	0.03928114
31	0xbd10f8e2	-0.035393603
32	0x3c6b2fc4	0.01435465
33	0xbc23d80e	-0.010000242
34	0xbd157258	-0.036486
35	0x3d16816c	0.03674452
36	0x3d6915c9	0.05690554
37	0xbd367319	-0.04454336
38	0x3db8b87a	0.09019561
39	0x3d8ac5ff	0.06776046
40	0xbd7fa278	-0.0624108
41	0x3d13180b	0.0359116
42	0xbd653403	-0.055957805
43	0x3d27a0c5	0.040924806
44	0x3d3b0639	0.04566023
45	0x3db0647d	0.086129166
46	0x3db4ae50	0.0882231
47	0x3df50925	0.11964635
48	0x3d84da49	0.06486947
49	0xbc0f3792	-0.008741276

linears.4.weight f4 [3, 50]
0	0x3f371bf3	0.7152702
1	0x3eca76eb	0.39543852
2	0x3e6a4b21	0.22880222
3	0xbd268ef1	-0.040663663
4	0xbe6e90fa	-0.23297492
5	0xbea98dd3	-0.33116016
6	0xbef4bb56	-0.47799176
7	0xbea79ed6	-0.3273837
8	0x3eca514b	0.39515147
9	0x3dbbb186	0.09164719
10	0x3e425f23	0.18981604
11	0xbd8ef40a	-0.069801405
12	0xbd1c9f54	-0.038237885
13	0x3e5ab5e3	0.21358447
14	0xbe3daf60	-0.18523932
15	0x3f4468d1	0.7672244
16	0x3f3a179e	0.72692287
17	0xbebac6fc	-0.36479938
18	0xbe3aa8fd	-0.18228526
19	0x3e0d56ca	0.13802639
20	0x3e600f8c	0.2188093
21	0x3e37780f	0.17916892
22	0x3ce0e696	0.027453702
23	0x3e8acb26	0.27108115
24	0xbdf242d0	-0.1182915
25	0x3d654d43	0.055981886
26	0x3eed554c	0.4635414
27	0x3eec4e3b	0.46153435
28	0x3cd78597	0.026308818
29	0xbe524ec4	-0.20537859
30	0xbe8dc6fd	-0.2769088
31	0xbf325fb9	-0.6967731
32	0xbe0275e9	-0.12740292
33	0xbf23bee8	-0.63963175
34	0x3eb8c21c	0.36085594
35	0x3f61859d	0.880945
36	0xbe817b00	-0.25289154
37	0x3e08287d	0.13296695
38	0x3e0ec84d	0.13943596
39	0x3ef64df8	0.4810636
40	0xbcaf2427	-0.021379543
41	0xbe9f548f	-0.311192
42	0x3dd03b47	0.10167556
43	0xbd170827	-0.03687301
44	0x3e235802	0.15951541
45	0xbf0119f6	-0.5043024
46	0x3f03917b	0.5139386
47	0xbda61797	-0.08109968
48	0xbdff0ad7	-0.124532394
49	0x3ec71c18	0.3888862
50	0x3d8b2420	0.06794
51	0xbe128768	-0.14309466
52	0xbec761ad	-0.38941708
53	0x3ca39ee3	0.019973224
54	0xbd2267b3	-0.039649677
55	0xbe417bf7	-0.18894945
56	0x3dd86c6c	0.10567555
57	0xbe593afe	-0.2121391
58	0xbdf62b37	-0.12019961
59	0x3ec1ecd5	0.37876
60	0xbc97b9eb	-0.01852127
61	0xbe910584	-0.2832452
62	0xbe8fdde0	-0.28098965
63	0x3e7c67ca	0.24648967
64	0x3d4ee46e	0.050510816
65	0xbd5ce016	-0.053924643
66	0x3d5f36a1	0.054495458
67	0xbcdeb0f2	-0.027183983
68	0xbdb3da70	-0.08781898
69	0x3eb1b7ee	0.3471064
70	0x3e8fb3f8	0.28066993
71	0xbe637ba1	-0.2221513
72	0x3e9179b0	0.28413153
73	0xbabe149a	-0.0014501989
74	0x3e3f5e8a	0.18688408
75	0x3cf066a5	0.02934582
76	0xbddc21c5	-0.107486285
77	0xbeb46eae	-0.35240692
78	0x3e88be93	0.26707897
79	0x3c111312	0.008854644
80	0x3ec3f495	0.3827254
81	0xbec93086	-0.39294833
82	0x3ee03706	0.4379198
83	0x3c20ad51	0.009806947
84	0xbdbf57b4	-0.093429
85	0xbbd0a842	-0.006367714
86	0xbec6f076	-0.38855332
87	0xbe5936db	-0.21212332
88	0x3e3c593a	0.18393412
89	0xbe1d3ff7	-0.15356432
90	0xbe997813	-0.29974422
91	0xbd931d45	-0.07183317
92	0xbe32272c	-0.17397755
93	0x3ec79e19	0.38987806
94	0xbe594534	-0.21217805
95	0x3e825607	0.2545626
96	0xbe294219	-0.1652912
97	0x3c4f58e8	0.012655474
98	0x3e205d99	0.15660705
99	0xbe50357f	-0.20332907
100	0x3e1eb9b8	0.15500534
101	0xbeb04f69	-0.34435585
102	0xbd721cd3	-0.05910952
103	0x3ea9525c	0.33070648
104	0x3f16149a	0.58625185
105	0x3e834029	0.25634888
106	0x3e91d433	0.28482208
107	0x3ea4a6fc	0.3215865
108	0x3e2d34e3	0.16914706
109	0xbba148de	-0.0049220165
110	0x3ea5f510	0.3241353
111	0x3e827eb6	0.25487298
112	0xbec84797	-0.3911712
113	0xbe7b991e	-0.24570128
114	0xbeba95c6	-0.36442393
115	0x3f0f8808	0.5606694
116	0xbe92f205	-0.2870027
117	0xbe84dca4	-0.25949585
118	0x3e8d0c3e	0.27548403
119	0x3e700e55	0.23442967
120	0x3e755d49	0.23961367
121	0x3e9e98d5	0.30975977
122	0x3ebe8802	0.3721314
123	0x3f184c3b	0.5949132
124	0xbeaf6185	-0.3425409
125	0x3e68bcf7	0.22728334
126	0x3e838d11	0.25693563
127	0x3de60b8c	0.11232671
128	0xbe4458be	-0.19174477
129	0x3ec6a650	0.3879876
130	0x3e906fa2	0.2821017
131	0xbcef16e0	-0.029185712
132	0x3e6f8588	0.23390782
133	0xbbd35281	-0.006449044
134	0xbedaf81b	-0.42767414
135	0xbdfeb1c2	-0.12436248
136	0x3e2eba29	0.17063202
137	0xbe68cae8	-0.22733653
138	0x3e16c244	0.14722544
139	0x3ebd79b7	0.37006924
140	0xbe7f67b0	-0.24941897
141	0x3e8159fb	0.25263962
142	0xbe250f0f	-0.16119026
143	0x3e66c3f9	0.22535695
144	0x3e8e2f40	0.27770424
145	0x3e27766b	0.16353767
146	0x3e2e8b57	0.17045341
147	0x3ea468af	0.32111117
148	0x3e9e5726	0.30925864
149	0x3db5cd28	0.08877021

linears.4.bias f4 [3]
0	0xbd08b5c8	-0.033376485
1	0x3d4938ab	0.04912631
2	0x3d5b61f6	0.05356022

exp_avg f4 [50, 3]
0	0x34564b96	1.9957801e-07
1	0x2ee24649	1.0289775e-10
2	0xb212b7f9	-8.540149e-09
3	0x38691266	5.5568664e-05
4	0x3910900d	0.00013786573
5	0x38799cae	5.9512146e-05
6	0xb14c59f9	-2.973705e-09
7	0x333e75b4	4.4344873e-08
8	0x33c42e69	9.135403e-08
9	0xb5a4647f	-1.22482e-06
10	0xb6239ca7	-2.4380076e-06
11	0xb3cbbeae	-9.4876086e-08
12	0xb0f21c2f	-1.7615828e-09
13	0x31e5c7f3	6.6875088e-09
14	0x349bebba	2.9042513e-07
15	0xb7b91f53	-2.2068305e-05
16	0xb883fa7c	-6.293223e-05
17	0xb82ec6e1	-4.1670053e-05
18	0x39207e03	0.00015305732
19	0xb8e2450d	-0.000107893815
20	0x38b98416	8.84609e-05
21	0x354b4917	7.572975e-07
22	0xb56d826d	-8.8479175e-07
23	0xb553281c	-7.866199e-07
24	0x3d4fd667	0.05074158
25	0x3c03f26a	0.0080534015
26	0x3a23e5a1	0.0006252174
27	0x365608a0	3.1893505e-06
28	0xb691af52	-4.3417467e-06
29	0xb7e1cd76	-2.6917765e-05
30	0xbe92e501	-0.2869034
31	0xbd22377a	-0.039603688
32	0xbb3c6eab	-0.0028752487
33	0xbf2df2ff	-0.6794891
34	0xbdbd13e5	-0.0923231
35	0xbbb8fec0	-0.005645603
36	0xb693fa43	-4.4100757e-06
37	0xb489ba71	-2.5653893e-07
38	0x36407868	2.8680315e-06
39	0xb78aa136	-1.6525952e-05
40	0xb802b17f	-3.115972e-05
41	0xb7397b55	-1.1055575e-05
42	0x376ee4f9	1.4239217e-05
43	0x3811ce40	3.476278e-05
44	0x371668c4	8.965089e-06
45	0xb9936a70	-0.00028117327
46	0xb68478e3	-3.9479796e-06
47	0x35d37a33	1.575629e-06
48	0xb8405a34	-4.5860375e-05
49	0xb8f3e499	-0.000116297226
50	0xb8851fd4	-6.347863e-05
51	0xb6847afa	-3.948223e-06
52	0x35bf1f2c	1.4239681e-06
53	0x3578fe89	9.2757597e-07
54	0xaac2a623	-3.4576603e-13
55	0xacdb72a2	-6.237081e-12
56	0x2e5d3ed6	5.0305392e-11
57	0xb3ab1b92	-7.967823e-08
58	0xb533db22	-6.7001577e-07
59	0x3617eaf6	2.2637519e-06
60	0x31464597	2.885235e-09
61	0xb1ec4d80	-6.8773147e-09
62	0xb1aee781	-5.0903854e-09
63	0x37c0801b	2.2947837e-05
64	0x38afffbf	8.392287e-05
65	0x389e4c37	7.548223e-05
66	0x3680dfdc	3.840758e-06
67	0xb8438a36	-4.6620342e-05
68	0xb83464bb	-4.3009157e-05
69	0x30ffcbf6	1.8611661e-09
70	0xafc2c6d1	-3.5429662e-10
71	0x32657f9d	1.335857e-08
72	0x3d3dafd4	0.04631026
73	0xbc6fe818	-0.014642738
74	0x3b2d62f4	0.0026456686
75	0xb38e28f5	-6.61984e-08
76	0x34a1d826	3.0145856e-07
77	0x354c5574	7.612027e-07
78	0x317e30b9	3.698956e-09
79	0x38498bf2	4.805247e-05
80	0x371ffd60	9.536132e-06
81	0x3dd7e714	0.105421215
82	0x3c61b11e	0.013775138
83	0xbb0e3ee7	-0.0021704973
84	0xb84ea67d	-4.926928e-05
85	0xb8ee01af	-0.00011349038
86	0xb8a4c5b9	-7.856958e-05
87	0xb6eda52d	-7.0823794e-06
88	0xb833f518	-4.2905187e-05
89	0x37057b48	7.956121e-06
90	0x3eb048fd	0.34430686
91	0xbc90a96f	-0.017658917
92	0x3c83e610	0.016100913
93	0x3ad6403f	0.0016346051
94	0xb7ef3cd6	-2.851935e-05
95	0xb9655014	-0.00021868973
96	0x373db722	1.1307917e-05
97	0xb82d58c1	-4.1329073e-05
98	0xb71c66e3	-9.32228e-06
99	0x372b7402	1.0219404e-05
100	0x37d3023f	2.5154206e-05
101	0xb7deb4b2	-2.6548605e-05
102	0x35b3af9c	1.3387648e-06
103	0xb69c6d29	-4.66187e-06
104	0xb5c017aa	-1.4312002e-06
105	0x3795e6df	1.7869692e-05
106	0xb7288968	-1.0045573e-05
107	0x37c06f24	2.2939937e-05
108	0xb617418b	-2.2538904e-06
109	0x37135cd3	8.783495e-06
110	0x34ebf122	4.3947608e-07
111	0x35ebe43a	1.7575287e-06
112	0x370b2c8f	8.29542e-06
113	0x34ec7c76	4.4048983e-07
114	0xb9c1237b	-0.00036838264
115	0xb78b5199	-1.6608088e-05
116	0xb70c85cd	-8.375803e-06
117	0xb7cf2aca	-2.4696248e-05
118	0x38514da9	4.990181e-05
119	0xb7c80a2e	-2.3846598e-05
120	0xb7b9489c	-2.208753e-05
121	0x364cb150	3.0501578e-06
122	0x34313e7f	1.6507146e-07
123	0x37f75a4a	2.9486739e-05
124	0xb7406694	-1.1467975e-05
125	0xb5d67c00	-1.5980331e-06
126	0xb70668ae	-8.011395e-06
127	0xb71c2879	-9.307748e-06
128	0xb53597db	-6.7648733e-07
129	0x3e9b570f	0.30339858
130	0x3d15a3ff	0.036533352
131	0x3b4bd138	0.0031100046
132	0xb6bb7503	-5.5866562e-06
133	0x351854be	5.674773e-07
134	0x379f4b70	1.8989405e-05
135	0xbf47bd6b	-0.78023404
136	0xbdc6d98b	-0.09709462
137	0xbbe080f8	-0.006851312
138	0xb7c91426	-2.397045e-05
139	0xb818a828	-3.639623e-05
140	0x382feb82	4.1942585e-05
141	0x3bb4f5cc	0.0055224653
142	0x3ab137b9	0.0013520635
143	0x38fb2811	0.000119760756
144	0xb1c7bb67	-5.8129674e-09
145	0x337b4557	5.8503556e-08
146	0x3382baa7	6.0875486e-08
147	0xb73dbcbb	-1.130922e-05
148	0x35b05cbf	1.3140015e-06
149	0x32c3c934	2.2792484e-08

exp_avg_sq f4 [50, 3]
0	0x3248c84c	1.1687074e-08
1	0x287dbc49	1.4085149e-14
2	0x2988aa96	6.069205e-14
3	0x38786899	5.922522e-05
4	0x3a1dabe3	0.0006014688
5	0x3991674e	0.00027733523
6	0x25d8d7b3	3.761619e-16
7	0x27a39b13	4.540972e-15
8	0x2c89be3a	3.9148936e-12
9	0x30687096	8.45611e-10
10	0x2f515c9e	1.9041344e-10
11	0x2bcb1ab2	1.4431427e-12
12	0x301004ef	5.2393906e-10
13	0x2f2016d8	1.4560031e-10
14	0x3685978a	3.9813503e-06
15	0x36093010	2.0442567e-06
16	0x378f8f78	1.7113736e-05
17	0x36e91731	6.946641e-06
18	0x39086044	0.00013005832
19	0x38690201	5.5553395e-05
20	0x37bd8757	2.2593578e-05
21	0x30819c55	9.430418e-10
22	0x2f4673b2	1.8049098e-10
23	0x336fd1b5	5.583725e-08
24	0x40c2cae0	6.087265
25	0x3e140c14	0.14457732
26	0x3a6b2f07	0.0008971546
27	0x3686e2c0	4.0199084e-06
28	0x381a9839	3.685823e-05
29	0x376ff10a	1.4301631e-05
30	0x439991a3	307.1378
31	0x40764399	3.8478758
32	0x3ce0c6c1	0.027438523
33	0x452162ab	2582.1667
34	0x41ee656a	29.799519
35	0x3e80c8db	0.2515324
36	0x351b72a4	5.7908824e-07
37	0x32f1f187	2.8165926e-08
38	0x33ef9c9a	1.11577904e-07
39	0x37bd85a4	2.2592787e-05
40	0x39723988	0.0002310035
41	0x38df6ed9	0.000106541156
42	0x3848ed1b	4.7904537e-05
43	0x398f4a3c	0.00027330394
44	0x39069eb1	0.00012838353
45	0x3936023e	0.00017357708
46	0x32370c37	1.0654779e-08
47	0x3234ca70	1.0523408e-08
48	0x35996577	1.1428918e-06
49	0x371b35a5	9.25121e-06
50	0x367bd3ae	3.7525128e-06
51	0x3117adc1	2.207216e-09
52	0x3390edda	6.7487875e-08
53	0x2fc46a55	3.5727746e-10
54	0x1eb12197	1.8754496e-20
55	0x1d3715d5	2.4231135e-21
56	0x210b90c3	4.728662e-19
57	0x31344f36	2.6238474e-09
58	0x31492375	2.9269505e-09
59	0x328016a7	1.4911462e-08
60	0x24803063	5.559312e-17
61	0x284c60e4	1.1345285e-14
62	0x294f63fa	4.604995e-14
63	0x35b365b6	1.3366141e-06
64	0x3746cf13	1.1849933e-05
65	0x368ff1a7	4.289864e-06
66	0x36612aeb	3.3552594e-06
67	0x3816df3a	3.5970683e-05
68	0x378f0220	1.7047918e-05
69	0x2549f4ff	1.7516979e-16
70	0x2722080c	2.2486378e-15
71	0x2aa5114e	2.9321895e-13
72	0x44acb5a2	1381.676
73	0x418d4efc	17.663567
74	0x3e3b824a	0.1831142
75	0x2b452fe3	7.0054916e-13
76	0x2e1d4e86	3.576741e-11
77	0x2f06c32f	1.2256572e-10
78	0x34992ede	2.853257e-07
79	0x33418dd5	4.506531e-08
80	0x33facfcc	1.167933e-07
81	0x4387539a	270.65314
82	0x40000005	2.0000012
83	0x3cdd2102	0.026993278
84	0x37f975c7	2.9737957e-05
85	0x393cfe4e	0.00018023813
86	0x38a91b06	8.0635815e-05
87	0x35ec76f0	1.7617986e-06
88	0x3784a169	1.5810789e-05
89	0x36cbaa43	6.0696925e-06
90	0x460afc35	8895.052
91	0x4276814a	61.62626
92	0x3f4d04c8	0.8008542
93	0x3b63bb75	0.0034749184
94	0x3981f30d	0.00024785884
95	0x38418c0b	4.614521e-05
96	0x36b006f2	5.2460173e-06
97	0x387648e0	5.871884e-05
98	0x37c321f2	2.3261618e-05
99	0x3583f78e	9.832308e-07
100	0x371c12ea	9.302728e-06
101	0x36843e27	3.941142e-06
102	0x2f3560f6	1.6496302e-10
103	0x327437ec	1.4215384e-08
104	0x2fdaed7d	3.9822715e-10
105	0x33b5cbfa	8.4655724e-08
106	0x34b6c71e	3.4045019e-07
107	0x34a27359	3.0258778e-07
108	0x2e60f5fd	5.1150185e-11
109	0x327e7c38	1.481299e-08
110	0x2dfd61b0	2.8806152e-11
111	0x32911921	1.6891649e-08
112	0x316d8425	3.4563155e-09
113	0x2d4e003f	1.1709799e-11
114	0x3a425939	0.0007413808
115	0x36f1f5d0	7.210976e-06
116	0x33551d73	4.961971e-08
117	0x348200c7	2.4214953e-07
118	0x36b31ed9	5.338207e-06
119	0x368b5f0e	4.1535886e-06
120	0x35c7b8d3	1.4880446e-06
121	0x3206a7d5	7.837987e-09
122	0x2eadd7d1	7.905466e-11
123	0x3797cc69	1.8095789e-05
124	0x357a5c6f	9.3266766e-07
125	0x34857ee7	2.4865514e-07
126	0x317bf519	3.666463e-09
127	0x33781a19	5.7765735e-08
128	0x2fdfe9db	4.0729628e-10
129	0x429ce0f8	78.43939
130	0x3f9c7956	1.2224529
131	0x3c333604	0.010938171
132	0x2fbc516d	3.4254857e-10
133	0x31ea0269	6.8105703e-09
134	0x3292ef23	1.7105384e-08
135	0x447ac9e2	1003.1544
136	0x414e1182	12.879274
137	0x3d9b58f1	0.075853236
138	0x377568b0	1.4627512e-05
139	0x38ecb844	0.00011287679
140	0x38535325	5.0383755e-05
141	0x3cce1457	0.025156183
142	0x3aabd476	0.0013109583
143	0x37047288	7.8944795e-06
144	0x26f4f70d	1.6997864e-15
145	0x2b27ad26	5.957061e-13
146	0x2d1044a2	8.200692e-12
147	0x331d39aa	3.6606856e-08
148	0x336b9ae0	5.485606e-08
149	0x2f7de19c	2.3090369e-10

exp_avg f4 [50]
0	0xb15b579a	-3.191849e-09
1	0x3630ec3d	2.6363552e-06
2	0x32b93b50	2.1563807e-08
3	0x33e712ab	1.07601714e-07
4	0x335020d3	4.8458627e-08
5	0x34ecc4c2	4.4101586e-07
6	0xb5be8003	-1.419336e-06
7	0xb1b02ae4	-5.1271503e-09
8	0x3895aa51	7.1365976e-05
9	0x36488c4e	2.988399e-06
10	0xb9b6ec91	-0.0003489
11	0xba0f3fcd	-0.0005464524
12	0x340f7509	1.336049e-07
13	0xb62b8337	-2.5557363e-06
14	0x35aeb6d3	1.3017219e-06
15	0xb55be360	-8.191473e-07
16	0x33c22d50	9.042071e-08
17	0x343bfe4c	1.7508245e-07
18	0xb00f1c00	-5.206289e-10
19	0x3430faa2	1.6482457e-07
20	0xb1bca5bb	-5.4903615e-09
21	0xb557645f	-8.02398e-07
22	0x35370224	6.817593e-07
23	0x313ba61e	2.7306508e-09
24	0x3a4fc663	0.0007925985
25	0x333d957e	4.4140954e-08
26	0x355e7d60	8.288389e-07
27	0xb9036061	-0.00012529037
28	0xb6546c93	-3.165366e-06
29	0x35d071eb	1.5530362e-06
30	0x3b20300c	0.00244427
31	0x3617bdbc	2.2611193e-06
32	0xb5ecb534	-1.7636107e-06
33	0x3462cead	2.1123078e-07
34	0x338f4690	6.671792e-08
35	0x3484a1c1	2.4704607e-07
36	0xb20c332c	-8.160708e-09
37	0x33b40794	8.3832816e-08
38	0x355bfbdb	8.1950355e-07
39	0x35239ff9	6.095502e-07
40	0xb3671697	-5.3804424e-08
41	0xb4d1f106	-3.910465e-07
42	0x345b3b99	2.0417646e-07
43	0x3a16af59	0.0005748175
44	0x3488dcb5	2.549256e-07
45	0xba9ab3f0	-0.0011802893
46	0x36051850	1.9832696e-06
47	0x3745b9db	1.1785388e-05
48	0x317f7a67	3.7176962e-09
49	0x340bfade	1.3036649e-07

exp_avg_sq f4 [50]
0	0x29889b2f	6.066533e-14
1	0x3415da3e	1.3956102e-07
2	0x2738a447	2.5624184e-15
3	0x2b1ad13e	5.500217e-13
4	0x30f238ae	1.7623927e-09
5	0x316f2e37	3.4805347e-09
6	0x325a49b4	1.2706028e-08
7	0x2dd94efa	2.4705116e-11
8	0x3832e67b	4.265316e-05
9	0x31fd0b83	7.364578e-09
10	0x3ab06e9c	0.0013460699
11	0x3c2d8455	0.010590632
12	0x2e4c9f8b	4.6525932e-11
13	0x3364376c	5.3135793e-08
14	0x338eff5f	6.658842e-08
15	0x3044de3a	7.162019e-10
16	0x30ff84dd	1.8591454e-09
17	0x2d896767	1.5621017e-11
18	0x226e9bac	3.2337427e-18
19	0x2d01cce5	7.378297e-12
20	0x26b34730	1.2439915e-15
21	0x31181557	2.2131041e-09
22	0x32131f33	8.56362e-09
23	0x254c3bb1	1.7714404e-16
24	0x3bb9eaee	0.0056737578
25	0x2a7378be	2.1624626e-13
26	0x2e7796b8	5.6295163e-11
27	0x3a3085a4	0.0006733781
28	0x33320f7a	4.145793e-08
29	0x315215ab	3.0571339e-09
30	0x3cba35f3	0.022730803
31	0x32b84dc2	2.145578e-08
32	0x323ffe3d	1.117547e-08
33	0x30f83626	1.8059765e-09
34	0x2c6eaf4f	3.391915e-12
35	0x2f2128d6	1.4657373e-10
36	0x2c553cdd	3.0302906e-12
37	0x2b8cd482	1.0006581e-12
38	0x31826023	3.7944274e-09
39	0x31024ad1	1.8960018e-09
40	0x2d0b65ab	7.92381e-12
41	0x2fa78e94	3.047843e-10
42	0x2d770ba5	1.404291e-11
43	0x39d55fdb	0.00040697944
44	0x2d0342a9	7.461289e-12
45	0x3b843ae4	0.0040353406
46	0x32e335d9	2.6450765e-08
47	0x348149ed	2.408191e-07
48	0x284d9079	1.14111135e-14
49	0x2db92e58	2.1052646e-11
